Assets/AIModels/(Easy-NoWalls)Agent.onnx (onnx, 172994 bytes, 17 tensors)

discrete_act_size_vector f4 [1, 2]
0	0x40400000	3.0
1	0x40400000	3.0

network_body.observation_encoder.processors.0.normalizer.running_mean f4 [78]
0	0x00000000	0.0
1	0x3cc1b03e	0.02364361
2	0x00000000	0.0
3	0x00000000	0.0
4	0x3f79f224	0.976351
5	0x3f7b4e87	0.981667
6	0x00000000	0.0
7	0x3cae1d77	0.021254284
8	0x00000000	0.0
9	0x00000000	0.0
10	0x3f7a8eca	0.9787413
11	0x3f7bd887	0.9837727
12	0x00000000	0.0
13	0x3cb417e1	0.021984043
14	0x00000000	0.0
15	0x00000000	0.0
16	0x3f7a5eed	0.97801095
17	0x3f7bb448	0.9832196
18	0x00000000	0.0
19	0x3c7db83f	0.015485822
20	0x00000000	0.0
21	0x00000000	0.0
22	0x3f7c08c0	0.9845085
23	0x3f7d25be	0.98885715
24	0x00000000	0.0
25	0x3c8f869f	0.017520247
26	0x00000000	0.0
27	0x00000000	0.0
28	0x3f7b837a	0.9824749
29	0x3f7ca858	0.9869437
30	0x00000000	0.0
31	0x3c2ce2e3	0.010552141
32	0x00000000	0.0
33	0x00000000	0.0
34	0x3f7d4c1c	0.9894426
35	0x3f7e1497	0.9925017
36	0x00000000	0.0
37	0x3c612321	0.013741286
38	0x00000000	0.0
39	0x00000000	0.0
40	0x3f7c7b19	0.9862533
41	0x3f7d6d7c	0.98995185
42	0x00000000	0.0
43	0x3c1062d0	0.008812621
44	0x00000000	0.0
45	0x00000000	0.0
46	0x3f7dbe20	0.9911823
47	0x3f7e7786	0.9940113
48	0x00000000	0.0
49	0x3c266a98	0.01015725
50	0x00000000	0.0
51	0x00000000	0.0
52	0x3f7d65fd	0.98983747
53	0x3f7e182a	0.9925562
54	0x00000000	0.0
55	0x3bcd3c79	0.0062633124
56	0x00000000	0.0
57	0x00000000	0.0
58	0x3f7e652e	0.9937314
59	0x3f7ef2cc	0.9958923
60	0x00000000	0.0
61	0x3bfaef63	0.0076579317
62	0x00000000	0.0
63	0x00000000	0.0
64	0x3f7e09d4	0.99233747
65	0x3f7e9fbb	0.9946248
66	0x00000000	0.0
67	0x3b87c976	0.004143889
68	0x00000000	0.0
69	0x00000000	0.0
70	0x3f7ef015	0.99585086
71	0x3f7f5002	0.9973146
72	0x00000000	0.0
73	0x3ba6e860	0.005093619
74	0x00000000	0.0
75	0x00000000	0.0
76	0x3f7eb1e2	0.9949018
77	0x3f7f20b7	0.99659294

network_body.observation_encoder.processors.1.normalizer.running_mean f4 [42]
0	0x3f484c9a	0.78241885
1	0x3b80e85d	0.00393395
2	0x00000000	0.0
3	0x3d5a1804	0.05324556
4	0x3d028ba3	0.03187145
5	0x3e32e0c3	0.17468552
6	0x3f4a4aa4	0.7902014
7	0x3b2323ee	0.0024893242
8	0x00000000	0.0
9	0x3d36eb37	0.044657912
10	0x3d0381e0	0.03210628
11	0x3e332b87	0.17497073
12	0x3f4921eb	0.7856738
13	0x3b53f3ac	0.0032341285
14	0x00000000	0.0
15	0x3d3eadbe	0.046552412
16	0x3d0bf6be	0.03417086
17	0x3e3505f4	0.17678052
18	0x3f4db0bc	0.803478
19	0x3a884735	0.0010397198
20	0x00000000	0.0
21	0x3cd67321	0.026177945
22	0x3d0c3ad2	0.034235783
23	0x3e3533f1	0.17695595
24	0x3f4c1bd3	0.79729956
25	0x3af46229	0.0018644977
26	0x00000000	0.0
27	0x3ce1c063	0.027557557
28	0x3d1c86f9	0.038214657
29	0x3e38c592	0.18044117
30	0x3f4ff821	0.8123799
31	0x398ae602	0.0002649278
32	0x00000000	0.0
33	0x3bfc3ecf	0.007697917
34	0x3d1a6b30	0.03769988
35	0x3e386501	0.1800728
36	0x3f4e8793	0.8067562
37	0x3a23cbb6	0.0006248312
38	0x00000000	0.0
39	0x3c142734	0.00904255
40	0x3d2cc8b4	0.042183593
41	0x3e3c53c6	0.18391332

network_body.observation_encoder.processors.2.normalizer.running_mean f4 [54]
0	0x3ed5eeb9	0.41783693
1	0x3c66dea6	0.014091169
2	0x00000000	0.0
3	0x3ec628d5	0.38703027
4	0x3e1e7514	0.1547435
5	0x3ee49af6	0.44649476
6	0x3ecdfbc6	0.4023115
7	0x3c1b3248	0.009472437
8	0x00000000	0.0
9	0x3eb92682	0.36162192
10	0x3e4d334e	0.20039102
11	0x3ef49bbc	0.47775066
12	0x3ed384ec	0.4131235
13	0x3c34d49f	0.011037021
14	0x00000000	0.0
15	0x3eb8116e	0.35950798
16	0x3e422e1b	0.189629
17	0x3ef0ab48	0.47005677
18	0x3eb2dcc0	0.34934044
19	0x3ba0850f	0.0048986743
20	0x00000000	0.0
21	0x3e86e412	0.2634588
22	0x3eb72ac0	0.35774803
23	0x3f151328	0.58232355
24	0x3ebb4116	0.36573094
25	0x3be64c03	0.0070281043
26	0x00000000	0.0
27	0x3e88971b	0.26677784
28	0x3eaafcbe	0.33395952
29	0x3f10e2c6	0.5659603
30	0x3e94db6d	0.2907366
31	0x3b40f38d	0.0029442043
32	0x00000000	0.0
33	0x3e0aca93	0.13553838
34	0x3f0b5afd	0.5443571
35	0x3f3449d1	0.70425135
36	0x3e9bbb39	0.30416277
37	0x3b8e8099	0.004348826
38	0x00000000	0.0
39	0x3e1244f9	0.14284123
40	0x3f05b106	0.5222324
41	0x3f3078cd	0.6893433
42	0x3e979481	0.29605487
43	0x3ac3e657	0.0014945966
44	0x00000000	0.0
45	0x3d6a937b	0.057269555
46	0x3f1c985f	0.6117
47	0x3f3f668a	0.7476584
48	0x3e9ed7eb	0.31024107
49	0x3b01b9ee	0.001979466
50	0x00000000	0.0
51	0x3d83b8ea	0.06431754
52	0x3f175c37	0.59125084
53	0x3f3bff46	0.7343639

network_body.observation_encoder.processors.3.normalizer.running_mean f4 [4]
0	0x3d0a41b3	0.033754062
1	0x407cef27	3.9520967
2	0x39d98549	0.0004148877
3	0x3a212cd1	0.0006148341

network_body._body_endoder.seq_layers.0.weight f4 [128, 178]
0	0x3e21f721	0.15816928
1	0x3d462d3b	0.04838298
2	0xbc7503f0	-0.014954552
3	0x3ccf2129	0.025284367
4	0xbd552f68	-0.052047163
5	0xbdb55788	-0.08854586
6	0x3cf81e8f	0.030288009
7	0x3c4ddb44	0.012564484
8	0xbd1b3ee2	-0.037901767
9	0xbcf42f9f	-0.029807864
10	0x3abf174c	0.0014579087
11	0xbda350a7	-0.079743676
12	0xbe038baa	-0.12846246
13	0xba1cbc2e	-0.00059789687
14	0x3d0ff878	0.035149068
15	0xbe01188b	-0.12607019
16	0xbc7e2841	-0.015512527
17	0xbd6c9dea	-0.057767786
18	0x3be17289	0.0068801087
19	0x3e147ff2	0.14501932
20	0x3c0ec87d	0.008714792
21	0xbe11728a	-0.1420385
22	0xbe123aac	-0.14280194
23	0xbdbc4c38	-0.09194225
24	0xbd43260b	-0.047643702
25	0x3d0f912b	0.035050552
26	0xbc043381	-0.00806892
27	0x3cdbdf37	0.026839836
28	0x3d75777a	0.059928395
29	0x3e228f7f	0.15875052
30	0xbd20dfcc	-0.03927593
31	0xbd61b08c	-0.05510001
32	0x3d4101d7	0.047120895
33	0x3c195bd0	0.009360269
34	0xbd3f258d	-0.04666667
35	0x3d5ada4e	0.053430848
36	0xbd0159a0	-0.031579614
37	0xbd301525	-0.042988915
38	0xbd517826	-0.051139973
39	0xbd433706	-0.047659896
40	0xbdd4d51b	-0.10392209
41	0xbd0c84d8	-0.034306377
42	0xbdadf60f	-0.084941976
43	0xbd038d1f	-0.032117005
44	0x3db69d22	0.089166895
45	0xbb16a537	-0.002298666
46	0x3e40461c	0.18776745
47	0xbe3dc4ff	-0.1853218
48	0xbd955400	-0.07291412
49	0x3e1fe14c	0.15613288
50	0x3b94d91c	0.004542483
51	0xbd683d5a	-0.056699134
52	0x3e101049	0.14068712
53	0xbd4bf2ca	-0.04979209
54	0x3e396739	0.18105783
55	0x3e38c798	0.18044889
56	0xbe26371e	-0.16231963
57	0xbd986d58	-0.07442731
58	0xbde7868b	-0.11304959
59	0xbce1607e	-0.027511831
60	0x3dcb288a	0.099198416
61	0x3d339152	0.04383976
62	0xbd202e1d	-0.039106477
63	0xbce9b80c	-0.028530143
64	0x3ca0aa8a	0.01961257
65	0x3bd1cc6a	0.006402542
66	0xbdbf8343	-0.09351208
67	0xbdce0aae	-0.10060631
68	0x3c9f37c1	0.019435765
69	0xbd3b8200	-0.045778275
70	0x3d6646b6	0.05621978
71	0x3d8dabf1	0.06917561
72	0x3e436959	0.19083156
73	0x3ca79f83	0.020461803
74	0xbcd32009	-0.025772111
75	0x3d0ccaee	0.034373216
76	0x3df6d8c1	0.12053061
77	0x3e047f20	0.1293912
78	0x3cd4576a	0.025920589
79	0x3bbf969a	0.0058468105
80	0x3b004d82	0.0019577448
81	0x3e13f5d7	0.14449249
82	0xbca83a48	-0.020535603
83	0x3cb7081b	0.022342732
84	0xbc891e17	-0.01673798
85	0x3e1d514f	0.15363048
86	0x3c1723e4	0.009224866
87	0xbd074d57	-0.03303274
88	0xbe12acdb	-0.14323752
89	0xbc1d2fd6	-0.0095939245
90	0x3db56422	0.088569894
91	0xbc2d2cda	-0.0105697755
92	0x3cf32563	0.029680913
93	0x3d9ee977	0.07759374
94	0xbda12a22	-0.07869364
95	0x3d3d7fca	0.046264447
96	0x3d2c3344	0.04204108
97	0xbdb813f9	-0.089881845
98	0x3b1b60d6	0.0023708842
99	0xbd0a67e5	-0.033790488
100	0xbcbee900	-0.023304462
101	0xbdb26c12	-0.08712019
102	0x3b9703c6	0.004608604
103	0xbb9c3b7a	-0.0047678323
104	0xbdb45e38	-0.08807033
105	0xbce99f9b	-0.028518489
106	0x3d8ee4b4	0.069772154
107	0xbcb848df	-0.022495685
108	0x3e0a43c9	0.1350242
109	0x3c0de0e9	0.00865958
110	0x3b0312c4	0.00200002
111	0x3d738373	0.05945153
112	0x3a6f3a9f	0.00091258617
113	0x3dba3a3f	0.09093141
114	0xbdaf1025	-0.08548001
115	0x3d64921c	0.055803403
116	0xbdd98738	-0.10621494
117	0xbd28afef	-0.04118341
118	0xbdb205c5	-0.08692507
119	0xbca7a96e	-0.020466533
120	0x3d4b5cf0	0.04964918
121	0x3d16982d	0.03676622
122	0xbd871010	-0.065948606
123	0x3d9b70e1	0.07589889
124	0xbd07f0b1	-0.033188526
125	0xbdec52af	-0.11539208
126	0x39f656d3	0.00046985465
127	0xbd94a08b	-0.07257184
128	0x3c3c655c	0.011498775
129	0x3c911fc9	0.017715352
130	0xbd5d7ff6	-0.05407711
131	0xbcc829e4	-0.024434038
132	0xbcd958ec	-0.026531659
133	0x3d12d882	0.03585101
134	0xbdc99b42	-0.09844066
135	0xbdef9482	-0.116982475
136	0xbd876abb	-0.06612154
137	0xbdb815bc	-0.089885205
138	0x3df61410	0.12015545
139	0xbd8bc70a	-0.06825073
140	0x3e1571ca	0.14594188
141	0xbd60e43f	-0.054905172
142	0xbd4b43a7	-0.049625065
143	0xbdf0d7eb	-0.11759933
144	0xbbfb0aae	-0.007661185
145	0x3d87428f	0.06604492
146	0x3d17a2f9	0.037020657
147	0x3cfe197f	0.031018017
148	0x3d1d4f8e	0.038405947
149	0x3d539716	0.05165776
150	0xbd4bc460	-0.049747825
151	0x3d2ee26c	0.0426964
152	0x3bfd2ce4	0.0077262986
153	0x3e4821bb	0.19544117
154	0x3d191ed0	0.0373829
155	0x3d7faa24	0.062418118
156	0x3c1d0774	0.0095842965
157	0xbdc3b1b2	-0.09555377
158	0xbbd7ae39	-0.0065820483
159	0xba644bb5	-0.0008708791
160	0x3d6423f1	0.05569834
161	0x3cc3baf0	0.02389285
162	0x3db553a6	0.08853845
163	0xbd2a7e4e	-0.04162436
164	0x3e041b2e	0.12900993
165	0x3db0f16d	0.08639798
166	0xbc3084ba	-0.010773832
167	0x3cd634e1	0.026148262
168	0x3ced3e94	0.028960504
169	0x3cb811b8	0.022469386
170	0xbd95b0e8	-0.07309133
171	0xbcb46577	-0.022021038
172	0xbb624f6a	-0.0034532198
173	0x3dbeeb95	0.093222775
174	0x3d27f3b3	0.041003894
175	0x3d1a8e84	0.03773357
176	0x3e058f24	0.13042885
177	0xbe0b317a	-0.13593093
178	0xbdaec6b5	-0.08533994
179	0x3d73dd84	0.059537426
180	0xbd319cbc	-0.043362364
181	0x3db84585	0.08997635
182	0xbdde135d	-0.10843537
183	0xbc1c69ee	-0.00954674
184	0xbdeb514c	-0.114901155
185	0xbdb69323	-0.08914783
186	0x3d0bb3c9	0.034107003
187	0x3c68c922	0.01420811
188	0xbcc96932	-0.024586294
189	0x38e7da32	0.000110555804
190	0xbd2a7854	-0.04161866
191	0xbdb5ae61	-0.08871151
192	0x3dc1e3bc	0.09467265
193	0x3dcbf4c7	0.09958797
194	0x3e837f8a	0.25683242
195	0x3ca09d80	0.019606352
196	0x3e30a903	0.17251973
197	0x3d42ad87	0.04752877
198	0x3dcc353f	0.099710934
199	0x3d080338	0.033206195
200	0x3cb69b76	0.022290926
201	0xbcbd5d1e	-0.02311569
202	0xbd8e8102	-0.069582
203	0x3ddcdbe2	0.10784127
204	0x3d3885c7	0.045049455
205	0xbc2bc927	-0.01048497
206	0xbb5bd81c	-0.003354556
207	0xbda78cee	-0.08181177
208	0xbd4f66f1	-0.050635282
209	0x3e25f775	0.16207679
210	0xbc013f45	-0.00788862
211	0xbde8cde1	-0.11367393
212	0xbdf552cf	-0.11978685
213	0x3d7a51b4	0.061113074
214	0x3dd84aa5	0.10561112
215	0x3d626fb8	0.055282325
216	0x3c362340	0.011116803
217	0xbdad4755	-0.08460871
218	0x3b301cca	0.0026872628
219	0x3d03d515	0.032185633
220	0x3dfc3fda	0.12316866
221	0x3d2d2ba6	0.042277955
222	0xbd7d50d3	-0.061844658
223	0xbdf03f58	-0.11730832
224	0xbda0dbe7	-0.07854443
225	0x3cb16278	0.021653399
226	0x3caaddf4	0.020857789
227	0x3cd93014	0.026512183
228	0xbb0e54a5	-0.0021717933
229	0xbd484222	-0.048891194
230	0xbd27f678	-0.041006535
231	0xbdca21c8	-0.098697245
232	0xbd301512	-0.042988844
233	0xbcf7136d	-0.03016063
234	0x3e03307d	0.12811466
235	0x3d07d6d9	0.03316388
236	0x3cd8ac73	0.026449418
237	0xbe2c40d2	-0.16821602
238	0xbb0ccc63	-0.0021484129
239	0xbb0ec534	-0.0021785023
240	0xbbc9b560	-0.006155655
241	0xbdbd1586	-0.09232621
242	0xbdfa34fb	-0.122171365
243	0xbabec054	-0.0014553168
244	0x3d5bfa5d	0.053705562
245	0xbb0c892c	-0.0021444065
246	0xbb5ac8d0	-0.0033383854
247	0xbde742d3	-0.112920426
248	0x3d31007c	0.043213353
249	0xbcb40075	-0.021972874
250	0xba34e3cf	-0.0006900401
251	0xbdc0ac89	-0.094079085
252	0xbd8cd358	-0.06876248
253	0x3d260cf3	0.040539693
254	0xbd212151	-0.039338414
255	0x3d90c1aa	0.070681885

network_body._body_endoder.seq_layers.0.bias f4 [128]
0	0x3ccea632	0.025225732
1	0x3d067bf8	0.03283307
2	0x3cc71d2c	0.024305902
3	0x3d662602	0.05618859
4	0x3cfc9e4f	0.030837206
5	0x3d153495	0.0364271
6	0x3d3ca1dc	0.0460528
7	0xbcc297a2	-0.023753945
8	0x3b50557c	0.0031789234
9	0x3d812f78	0.06307882
10	0x3d0db6d9	0.034598205
11	0x3d4026b4	0.04691191
12	0x3d4f7f6d	0.050658632
13	0x3d83d393	0.06436839
14	0x3bef65fe	0.0073058596
15	0x3cb7f5c1	0.022456052
16	0x3c8f96c4	0.017527945
17	0x3d83dd87	0.06438737
18	0x3cdb7b53	0.026792204
19	0x3cb265c8	0.021777049
20	0x3d463c6a	0.04839746
21	0xbc2b97d8	-0.010473214
22	0x3cfe94fe	0.031076904
23	0x3d8964c3	0.06708672
24	0x3d468a1b	0.04847155
25	0x3d1a9e9e	0.037748925
26	0xbcbae8de	-0.022816118
27	0x3cd932f5	0.026513556
28	0xbcc0ec75	-0.023550251
29	0xba235eb5	-0.0006232069
30	0x3d12c2f9	0.03583047
31	0xbcd2c7b9	-0.02573
32	0x3b1ae7a2	0.00236366
33	0x3cd3bf94	0.025848188
34	0x3ce26852	0.027637634
35	0x3c2f4dfa	0.010699743
36	0x3d4544e8	0.048161417
37	0x3c9b4f3e	0.018958684
38	0x3caab044	0.020836003
39	0x3d85df6e	0.065367565
40	0x3ba187fd	0.004929541
41	0x3ce626cc	0.028094672
42	0x3d26cdb0	0.040723503
43	0x3bc47d79	0.005996403
44	0x3c98c9cf	0.018650917
45	0x3d46d70c	0.04854493
46	0x3d1b2202	0.03787423
47	0x3d9d7aeb	0.0768946
48	0x3d24828a	0.040163554
49	0xbc99caaf	-0.018773405
50	0x3d0935b6	0.03349849
51	0x3d0d61d7	0.034517135
52	0x3d54935f	0.051898357
53	0x3cb7c1f6	0.022431355
54	0x3c87f0a6	0.016594242
55	0x3c3d8d3c	0.011569317
56	0x3d8ffc4b	0.07030543
57	0xbc039aec	-0.008032542
58	0xbbf7243b	-0.007542161
59	0x3cc0a0e8	0.023514226
60	0x3c489c0f	0.0122442385
61	0x3d0b44eb	0.034001272
62	0xbb934b88	-0.004495088
63	0x3c8d4eb1	0.017249437
64	0x3cf0f6dc	0.029414587
65	0x3ccc3035	0.02492533
66	0x3d5efbc5	0.054439325
67	0x3cfd61f2	0.030930493
68	0x3d05db05	0.032679576
69	0x3d39b165	0.045335192
70	0x3ce4c5b2	0.0279263
71	0x3d830bcf	0.06398737
72	0x3c80bfcf	0.015716461
73	0x3b998b00	0.0046857595
74	0xbc55d3bf	-0.0130509725
75	0x3d0ea9b1	0.0348298
76	0x3cf434d3	0.029810345
77	0x3d8cb486	0.068703696
78	0x3d43333e	0.04765629
79	0x3d246fb2	0.040145583
80	0x3c0eb825	0.008710896
81	0x3d4d81f1	0.05017275
82	0xbcac8e93	-0.021064078
83	0x3d43d14d	0.047807027
84	0x3bcae6f5	0.006192083
85	0x3d2afbcb	0.041744035
86	0xbc8cb2e1	-0.01717514
87	0x3cdc2890	0.02687481
88	0x3c82149e	0.015878972
89	0x3d2dd7d3	0.042442154
90	0x3c598873	0.013277161
91	0x3d4d588a	0.050133266
92	0x3da93a21	0.0826304
93	0x3c18369c	0.009290364
94	0x3c42114b	0.011844943
95	0x3da0c494	0.07849994
96	0x3bbcfc85	0.0057674074
97	0x3ce8503e	0.028358575
98	0x3d39ff98	0.04540977
99	0x3bcb1069	0.0061970246
100	0x3c398acd	0.011324597
101	0x3d79d677	0.060995545
102	0x3d47223e	0.04861664
103	0x3d255961	0.04036844
104	0x3bfe84dc	0.007767303
105	0xbb5ee4a8	-0.0034010801
106	0x3dc7557a	0.097331
107	0x3d3ecb56	0.046580635
108	0x3c6ca646	0.01444394
109	0x3cb86cb4	0.022512771
110	0xbbd3cde9	-0.0064637554
111	0x3d6e53bb	0.05818532
112	0xbcac29d5	-0.02101604
113	0x3d2c8dc8	0.0421274
114	0x3d0d7998	0.03453979
115	0x3d1088e7	0.03528681
116	0x3d39ae85	0.04533245
117	0xbc819dca	-0.01582231
118	0x3d20a05e	0.039215438
119	0x3cea8cd6	0.028631609
120	0x3d6365fa	0.055517174
121	0x3c8ed550	0.0174357
122	0x3d300a5b	0.042978626
123	0x3d178726	0.036994122
124	0x3d362830	0.04447192
125	0xbc6c7f70	-0.01443468
126	0x3d868841	0.06568957
127	0x3cb157ca	0.021648306

network_body._body_endoder.seq_layers.2.weight f4 [128, 128]
0	0xbd70f460	-0.058826804
1	0xbdbe1c52	-0.092827454
2	0x3d507b82	0.050899036
3	0xbc6872cf	-0.014187529
4	0x3d311941	0.043236975
5	0x3daa75b0	0.08323228
6	0x3d61dcd6	0.055142246
7	0x3e0ab7f1	0.1354673
8	0xbd076256	-0.033052765
9	0x3b970820	0.004609123
10	0xbe24cee9	-0.16094555
11	0xbd38e95d	-0.045144428
12	0xbe61976a	-0.22030416
13	0xbe0559e0	-0.13022566
14	0x3c6927a3	0.014230642
15	0x3d236eb4	0.039900497
16	0xbd787be5	-0.06066503
17	0xbd3b675e	-0.045752876
18	0x3d19789d	0.03746854
19	0xbc63ec59	-0.01391133
20	0x3e5df75a	0.21676388
21	0x3d44a781	0.048011307
22	0xbe6704f7	-0.22560488
23	0xbd745eac	-0.0596606
24	0xbdffa5bf	-0.124827854
25	0xbe2cd37e	-0.16877553
26	0x3db5bfc1	0.08874465
27	0x3d101d9c	0.035184488
28	0xbd680da9	-0.056653652
29	0xbb4a822b	-0.003090034
30	0xbdd87865	-0.105698384
31	0xbe0611d6	-0.13092741
32	0x3d963557	0.073343925
33	0x3d2b6c3a	0.04185126
34	0xbd14a50f	-0.036290225
35	0x3d22934b	0.03969125
36	0x3e314278	0.17310512
37	0xbeac72bd	-0.33681288
38	0x3db48064	0.08813551
39	0xbd374589	-0.04474405
40	0xbe5acbe8	-0.21366847
41	0x3d457eb9	0.048216555
42	0xbd9ff943	-0.07811215
43	0x3d39897d	0.045297135
44	0xbe44a7a2	-0.19204572
45	0xbde79dfc	-0.1130943
46	0xbde7492d	-0.11293254
47	0xbd18a075	-0.0372624
48	0xbd8bee4d	-0.06832562
49	0x3e40f2d0	0.18842626
50	0x3dc5c94b	0.09657534
51	0x3d3296c9	0.04360083
52	0x3dd5a1c7	0.10431247
53	0x3d0e1e7f	0.034697052
54	0x3d19ad6f	0.037518915
55	0xbcaec3bc	-0.021333568
56	0xbbf91a6f	-0.007602028
57	0xbde5d3bd	-0.112220265
58	0xbc8a57f9	-0.016887652
59	0x3d7d308e	0.061813883
60	0xbafbe49e	-0.0019217914
61	0x3ba8f44e	0.0051560765
62	0xbd37cc23	-0.044872414
63	0x3dfda432	0.123848334
64	0xbe0be0be	-0.13659951
65	0x3d36c6b5	0.044623096
66	0xbcabbba9	-0.020963507
67	0xbdf37580	-0.11887646
68	0xbe1217d0	-0.14266896
69	0xbdf53234	-0.11972466
70	0xbdbfe097	-0.09369009
71	0xbde710ac	-0.11282477
72	0xba903a3c	-0.0011003683
73	0x3e303168	0.17206347
74	0xbdf3d0c8	-0.11905056
75	0x3c2f5b4c	0.010702919
76	0xbdbed0d6	-0.09317176
77	0xbe16b4f6	-0.14717469
78	0xbe5f5333	-0.21809082
79	0x3bff4de2	0.007791267
80	0xbcd8ed48	-0.026480332
81	0x3d285b35	0.041102607
82	0x3a15d5f6	0.00057157816
83	0xbddb7e3c	-0.10717437
84	0x3d8a9e37	0.06768458
85	0xbd32f811	-0.043693606
86	0xbce7bae5	-0.02828736
87	0x3db01f48	0.085997164
88	0x3dc7a80b	0.097488485
89	0x3be6c813	0.0070428937
90	0xbd71ffcf	-0.05908185
91	0xbd4a3839	-0.049370024
92	0xbc81e993	-0.015858447
93	0xbd5840be	-0.052796118
94	0x3c455dff	0.012046336
95	0xbe23ceec	-0.15996903
96	0x3e19939c	0.14997715
97	0xbd69b197	-0.05705413
98	0xbdcedb65	-0.1010044
99	0xbcbee973	-0.023304677
100	0x3b9e0544	0.004822405
101	0xbe2879d8	-0.1645273
102	0xbc932acf	-0.017964749
103	0xbd03ae61	-0.032148723
104	0xbc958661	-0.018252553
105	0xbe07af2e	-0.1325042
106	0xbc76296c	-0.015024524
107	0xbe3c6847	-0.18399154
108	0xbe0240b3	-0.12719993
109	0xbe7b6766	-0.24551162
110	0xbc855c64	-0.016279407
111	0xbce0c5a3	-0.02743799
112	0x3dad8577	0.08472722
113	0xbdc1fdd2	-0.094722405
114	0xbdbce3f9	-0.0922317
115	0x3c0ce9c0	0.008600652
116	0xbba2cccb	-0.004968261
117	0x3d204b4e	0.039134316
118	0x3ca9032d	0.020631397
119	0xbd3e2c88	-0.046429187
120	0xbdea9987	-0.11455064
121	0x3d841800	0.0644989
122	0xbc1af0c2	-0.009456815
123	0xbdde469a	-0.1085331
124	0x3cc117da	0.023570944
125	0xbdc41fdf	-0.095763914
126	0xbd841372	-0.064490214
127	0xbdd098f3	-0.10185423
128	0x3df99a7d	0.121876694
129	0x3d508c40	0.050915003
130	0x3d3f94d4	0.046772793
131	0x3dd1b110	0.1023885
132	0xbdcfa8d9	-0.10139627
133	0xbd4bfa97	-0.049799528
134	0xbd267e5d	-0.040647853
135	0x3da54738	0.080702245
136	0x3e2c4a25	0.16825159
137	0x3c4837b2	0.01222031
138	0xbd98554c	-0.07438144
139	0x3cf65c63	0.03007335
140	0xbe6bd3f5	-0.23030074
141	0xbdd2cb33	-0.102926634
142	0xbbc4122e	-0.0059836125
143	0xbd84a9d9	-0.06477708
144	0x3d8e293e	0.0694146
145	0xbe2ebe2b	-0.17064731
146	0x3e02e44e	0.12782404
147	0xbdd01769	-0.10160715
148	0x3dac86ba	0.084241346
149	0x3de76b60	0.11299777
150	0xbd81216f	-0.06305205
151	0xbccceb8c	-0.025014661
152	0x3d8f0d6d	0.06984983
153	0xbde00421	-0.109382875
154	0x3d3d3a2e	0.046198063
155	0x3dc68a2e	0.096943244
156	0x3c8ca657	0.01716916
157	0x3cc88ed8	0.024482176
158	0x3de5dd33	0.11223831
159	0x3e0f2ef8	0.13982761
160	0x3c162a15	0.009165307
161	0x3c7af288	0.015316613
162	0xbd46d65e	-0.04854428
163	0x3d3e05dd	0.04639231
164	0x3cd415eb	0.025889358
165	0x3d8f6da7	0.070033364
166	0x3cd176dc	0.025569372
167	0xbbda2d18	-0.0066582076
168	0xbbbb1176	-0.0057088686
169	0x3d83fd7b	0.06444832
170	0x3bf1deb0	0.0073812827
171	0x3dba1ea3	0.09087875
172	0x3d37d3b4	0.04487963
173	0xbd31a2e0	-0.04336822
174	0x3decba20	0.11558938
175	0x3b504f8a	0.003178569
176	0xbd2dac48	-0.04240063
177	0x3dbfb786	0.09361176
178	0x3cd84e45	0.02640451
179	0x3d52f064	0.051498786
180	0x3ccda864	0.025104709
181	0xbd68694a	-0.056741036
182	0xbd1739e2	-0.036920436
183	0x3decca8b	0.115620695
184	0xbe0b279c	-0.13589329
185	0x3db35f3c	0.08758399
186	0x3d934c4e	0.07192288
187	0x3d4fd421	0.05073941
188	0x3dc39d57	0.095514946
189	0xbdd3858c	-0.103282064
190	0xbdb9402e	-0.090454444
191	0x3e0d0e69	0.13775028
192	0x3dc52635	0.09626428
193	0xbe51fabe	-0.20505807
194	0x3d44eb99	0.048076246
195	0xbd8a6f1a	-0.06759472
196	0x3be37f96	0.0069426997
197	0x3de0d598	0.1097824
198	0x3c0899de	0.008337466
199	0x3cecba92	0.028897557
200	0xbd72d294	-0.059282854
201	0xbd0fac76	-0.03507658
202	0xbd87d73b	-0.06632849
203	0xba0564db	-0.0005088576
204	0x3d03c0ae	0.032166176
205	0xbca30709	-0.019900816
206	0xbd914b0f	-0.070943944
207	0x3d60b3a1	0.054858807
208	0xbddb3143	-0.10702755
209	0xbb623370	-0.0034515522
210	0xbc8576c9	-0.016291993
211	0x3ce728da	0.028217722
212	0xbda15588	-0.07877642
213	0xbe483c05	-0.19554146
214	0x3d49320e	0.04912
215	0xbe2f43b3	-0.17115669
216	0xbd5512a0	-0.052019715
217	0x3dfcc47c	0.12342164
218	0xbd991d12	-0.07476248
219	0x3d3e0bbe	0.046397917
220	0xbe02c904	-0.12771994
221	0xbddd6efb	-0.108121835
222	0x3e544571	0.20729615
223	0x3d0e3982	0.034722812
224	0x3d9eb4f1	0.077493556
225	0x3e3738b7	0.17892729
226	0xbe163d4a	-0.14671817
227	0xbd2dd3c6	-0.04243829
228	0xbbea7c52	-0.0071559334
229	0xbe16b852	-0.1471875
230	0xbe076329	-0.1322142
231	0xbda214a1	-0.07914091
232	0xbd117868	-0.03551522
233	0xbde4f603	-0.111797355
234	0x3c484997	0.012224576
235	0x3d84e875	0.0648965
236	0xbc01deb1	-0.007926629
237	0xbbe11900	-0.0068694353
238	0xbd42cf03	-0.047560703
239	0xbda7158e	-0.08158408
240	0x3daa4cfc	0.08315465
241	0x3bd77f54	0.006576458
242	0x3d5118a9	0.05104891
243	0x3d6eb5a2	0.058278687
244	0xbe08a032	-0.1334236
245	0xbdc93375	-0.09824268
246	0xbe1b62bd	-0.15174384
247	0xbd68047c	-0.0566449
248	0x3db63f3c	0.0889878
249	0x3d0d9a01	0.034570698
250	0xbd873140	-0.066011906
251	0x3dfa6c67	0.12227707
252	0xbc4e2787	-0.012582666
253	0xbe26e1d4	-0.16297084
254	0xbdc80854	-0.097672135
255	0xbdaad6aa	-0.08341725

network_body._body_endoder.seq_layers.2.bias f4 [128]
0	0xbc2486fb	-0.0100419475
1	0x3b2861e9	0.0025693125
2	0x3d5fa9ff	0.05460548
3	0x3d30fba9	0.04320875
4	0x3d4b4257	0.049623813
5	0x3ccf2edd	0.0252909
6	0x3cef5149	0.029213564
7	0x3cbedf2e	0.02329978
8	0x3ca0f350	0.01964727
9	0x3cdeb886	0.027187597
10	0x3d2e7935	0.04259606
11	0x3c31eedc	0.010860171
12	0x3d5b9a5b	0.053614
13	0x3c3d8d1f	0.01156929
14	0x3a596e09	0.00082942896
15	0x39988f13	0.00029098298
16	0x3d08105e	0.033218734
17	0x3a5ca4cc	0.00084168906
18	0xbcab0a8a	-0.020879049
19	0x3c721b3e	0.014777003
20	0x3cc8358d	0.024439598
21	0x3c0136f8	0.007886641
22	0x3a3eef6c	0.00072836014
23	0x3ca9c5e7	0.02072425
24	0x3cac9f1f	0.021071969
25	0x3cf773d1	0.030206593
26	0x3d14c7f6	0.03632351
27	0x3cc82073	0.024429535
28	0x3cea8aa8	0.02863057
29	0x3c1fb85e	0.009748546
30	0x3c2eefd9	0.010677301
31	0x3cd47789	0.025935905
32	0x3d422996	0.04740294
33	0x3c89ad15	0.016806165
34	0x3b1faf35	0.0024365906
35	0x3d54fba6	0.051997803
36	0x3d3eb7c5	0.046561975
37	0xb943d9cb	-0.00018677783
38	0x3d475138	0.04866144
39	0x3d53e859	0.051735256
40	0x3ad2362c	0.0016037873
41	0x3d526977	0.05137011
42	0x3cfd1964	0.030895896
43	0x3d0a41d1	0.033754174
44	0xbca0bc6c	-0.019621097
45	0x3d0f6f7d	0.035018433
46	0x3d0cabad	0.03434341
47	0x3d51c376	0.051211797
48	0x3cf98e54	0.030463375
49	0x3cf71082	0.030159239
50	0x3c0c9a67	0.008581734
51	0x3d17794a	0.036980905
52	0x3d426ed2	0.047468968
53	0x3c01ace0	0.007914752
54	0x3d1aaf2c	0.037764713
55	0xba9428ce	-0.0011303665
56	0x3c9ce615	0.01915268
57	0x3d107d24	0.035275593
58	0x3c0156c3	0.007894221
59	0x3bb07c9d	0.005385949
60	0x3ca7eed8	0.020499632
61	0xbc3136ee	-0.010816319
62	0x3d310c06	0.043224357
63	0x3d4b4ae6	0.049631976
64	0x3bf25a2a	0.0073960023
65	0x3cdc8449	0.026918547
66	0x3d507182	0.0508895
67	0x3b0abac8	0.002116846
68	0x3d54dbf2	0.05196757
69	0x3c54f6e0	0.012998313
70	0x3c7724bd	0.015084443
71	0x3d019e83	0.03164531
72	0x3d248606	0.040166877
73	0x3d02b730	0.031912982
74	0x3cef8bbc	0.029241435
75	0x3d2de747	0.04245689
76	0x3d311d6b	0.043240946
77	0xbbcfb40c	-0.006338602
78	0x3d450485	0.048100013
79	0x3bead0d9	0.00716601
80	0x3d0d0f15	0.03443821
81	0x3d14bce9	0.03631297
82	0x3c969383	0.018380886
83	0x3cf342d2	0.029694948
84	0x3c04f4a4	0.0081149675
85	0x3d322cfa	0.043499924
86	0x3d07e724	0.033179417
87	0x3d0f02d1	0.034914795
88	0x3d14bc75	0.03631254
89	0x3c6be7a1	0.014398486
90	0x3b0e08fd	0.0021672838
91	0x3b72958b	0.0037015404
92	0x3c062419	0.008187317
93	0x3cda074a	0.026614804
94	0x3d133822	0.035942204
95	0x3d2aa414	0.041660383
96	0x3c55760b	0.013028632
97	0x3d1fa8a7	0.0389792
98	0x3d315a1d	0.04329883
99	0x3d1b6d09	0.03794578
100	0x3cdb1e0f	0.026747731
101	0x3d09a5e0	0.033605456
102	0x3cdd82aa	0.027039845
103	0x3d230cb0	0.03980702
104	0x3c96268f	0.018328933
105	0xbcb27020	-0.021781981
106	0x3c67e025	0.014152561
107	0x3d13d673	0.036093187
108	0x3c487c94	0.012236733
109	0x3d2f2f2f	0.042769607
110	0x3d01d124	0.031693593
111	0x3c61e8a2	0.013788374
112	0x3abbe597	0.0014335391
113	0x3cbf54e5	0.02335591
114	0x3d358207	0.044313457
115	0x3c472320	0.012154371
116	0xbbe3e805	-0.006955149
117	0x3cd0fb22	0.025510374
118	0xba71548f	-0.00092060206
119	0x3cef1401	0.029184343
120	0x3cd6004f	0.026123194
121	0x3ceff668	0.0292923
122	0x3d28c9af	0.041207965
123	0x3d4de00e	0.050262503
124	0x3d26dee2	0.0407399
125	0x3d180ae7	0.037119772
126	0x3c6a5be2	0.014304133
127	0x3cc0651b	0.02348571

action_model._discrete_distribution.branches.0.weight f4 [3, 128]
0	0x3c3422c8	0.010994621
1	0xbc0ce518	-0.008599542
2	0xbd41a8e5	-0.04728021
3	0xbc3b9cbb	-0.011450942
4	0xbc487754	-0.012235481
5	0xbc01936f	-0.007908686
6	0x3b2bd0eb	0.0026217054
7	0x39d23849	0.00040096257
8	0xbc7c3bf1	-0.0153951505
9	0x3c313a52	0.010817127
10	0xbc83f141	-0.01610625
11	0xbbed20be	-0.007236569
12	0xb99d7213	-0.00030030365
13	0x3b727363	0.0036995045
14	0x3ce9755a	0.02849834
15	0x3ccfdc22	0.025373522
16	0xbcfc7bbb	-0.030820718
17	0x3c542797	0.012948892
18	0x3cb72d0c	0.022360347
19	0xbb158c81	-0.0022819343
20	0xbc99e5b5	-0.01878629
21	0xbc3ef77b	-0.011655684
22	0xbb968d28	-0.004594464
23	0xbc9cf342	-0.019158963
24	0x3c213017	0.009838126
25	0xbc0ef952	-0.008726435
26	0xbd6ba120	-0.057526708
27	0xbc27b234	-0.010235358
28	0xbbd353af	-0.006449185
29	0x3cdeede7	0.02721305
30	0xbc5ba263	-0.013405415
31	0x3b791e94	0.003801261
32	0x3b8a7ae4	0.0042260755
33	0x3c96e352	0.018418942
34	0xbcb2611e	-0.021774825
35	0xbcf8d686	-0.03037573
36	0xbd14cae6	-0.03632631
37	0xbca9f3a3	-0.020746058
38	0xbc76d013	-0.015064257
39	0xbca2d343	-0.019876128
40	0xbc039247	-0.008030481
41	0xbd414ec6	-0.047194265
42	0xbcc02d1d	-0.023459012
43	0x3b993252	0.004675188
44	0x3ccee09e	0.02525359
45	0xbbafa981	-0.0053607826
46	0x3c56d713	0.013112801
47	0xbd25e0d4	-0.040497616
48	0xbd3f51cb	-0.046708863
49	0xbbc2c303	-0.0059436574
50	0xbc56f05d	-0.0131188305
51	0x3bbf1f18	0.005832564
52	0xbd239590	-0.039937556
53	0x3cba8e10	0.022772819
54	0xbccf126f	-0.025277345
55	0xbbb209ad	-0.0054332823
56	0xbc1e7238	-0.009670787
57	0x3c65e53b	0.014031704
58	0x3c43cdac	0.011950891
59	0x39b51697	0.0003453984
60	0xbce4cdea	-0.027930219
61	0xbb954b83	-0.004556121
62	0xbd2e711a	-0.04258833
63	0xbcf91d73	-0.03040955
64	0x3c6fe74e	0.01464255
65	0xbc4412f1	-0.011967407
66	0xbca2997f	-0.019848583
67	0xba8186ff	-0.0009882151
68	0xbd3db96e	-0.046319418
69	0x3c84f550	0.016230255
70	0xbb1012ea	-0.002198393
71	0x3c278737	0.010225109
72	0xbc53afd8	-0.012920342
73	0xbcf40eca	-0.029792208
74	0xbbca6743	-0.0061768605
75	0xbc5d4775	-0.013505806
76	0xbcbaf2a4	-0.022820778
77	0x3ca4a6d4	0.020099081
78	0xbc7c2397	-0.015389345
79	0xbc7885f9	-0.01516866
80	0xbc12365f	-0.008924096
81	0xbc600418	-0.013672851
82	0x3c408a1b	0.011751677
83	0xbc3fd35c	-0.011708107
84	0xbc0e5a52	-0.008688526
85	0xbb6f906f	-0.0036554595
86	0xbc936ea2	-0.01799709
87	0xbcc80f51	-0.024421366
88	0xbcadcaca	-0.021214861
89	0x3c230ee3	0.00995228
90	0xbbea6c55	-0.0071540275
91	0xbbcc793d	-0.0062400387
92	0xbcf1430c	-0.029450916
93	0xbce52b76	-0.027974825
94	0xbcf6bdd8	-0.030119821
95	0xbc53289b	-0.012888099
96	0x3a94d6c9	0.0011355515
97	0xbc118755	-0.008882363
98	0xbc928824	-0.017887183
99	0xbca612ce	-0.020272639
100	0x3afaac52	0.0019124842
101	0xbc9cc685	-0.01913763
102	0x3c0db86e	0.0086499285
103	0xbcc098a3	-0.023510283
104	0x3c979204	0.018502243
105	0x3be87246	0.0070937006
106	0xba292769	-0.0006452711
107	0xbb7969d4	-0.0038057463
108	0xbc2ab8f6	-0.010420075
109	0xbc64ff14	-0.013976831
110	0xbc89c37b	-0.016816845
111	0xbd1ab1b7	-0.03776714
112	0xbc99403a	-0.018707383
113	0xbae6c784	-0.0017607068
114	0xbd2bc6c3	-0.0419376
115	0xbcbdfd88	-0.023192182
116	0x3c57de66	0.0131755825
117	0x3bb92a3e	0.0056507876
118	0xbbdca98b	-0.0067340783
119	0xbc703ecf	-0.014663412
120	0xbb295929	-0.0025840497
121	0x3c153dc4	0.009108964
122	0xbc8214a2	-0.01587898
123	0xbce06db3	-0.027396059
124	0xbd110b18	-0.03541097
125	0xbc450fa0	-0.012027651
126	0xbc15163b	-0.009099538
127	0x3c70f16a	0.014705995
128	0xbd031a5b	-0.032007556
129	0xbd6f24bc	-0.058384642
130	0x3c8f2d86	0.017477762
131	0xbd196758	-0.037452072
132	0xbbcb5cf8	-0.006206151
133	0x3cabbcd5	0.020964066
134	0x3c9ae47f	0.018907784
135	0x3b913ea6	0.004432517
136	0xbca30e50	-0.019904286
137	0xbc4da15b	-0.012550677
138	0x3b301ca9	0.0026872552
139	0x3ccb217c	0.02479624
140	0x3d8b06a0	0.06788373
141	0xbce7308f	-0.028221397
142	0x3bdca493	0.006733486
143	0xbb3cc00b	-0.002880099
144	0x3ccd3fa3	0.025054758
145	0xbbeaa7b0	-0.007161103
146	0xbc07aee1	-0.0082814405
147	0x3bed15f8	0.007235285
148	0x3cb9832e	0.02264556
149	0xbca75ae9	-0.020429092
150	0xb9143dc6	-0.00014137392
151	0x3c33868a	0.01095737
152	0x3cfda9e4	0.0309648
153	0x3c9661fe	0.018357273
154	0x3c84d32e	0.01621398
155	0x3c280166	0.01025424
156	0xbd724796	-0.0591503
157	0xbc61121b	-0.013737227
158	0xbcd36c65	-0.025808522
159	0x3c830e4c	0.015998028
160	0x3d81c3d4	0.063361794
161	0xbb7c4829	-0.003849516
162	0xbc9977fe	-0.018733975
163	0x3d4cdaef	0.05001348
164	0x3d1dbdf6	0.03851124
165	0xbd153f04	-0.03643705
166	0x3d875815	0.06608597
167	0x3d88f0e5	0.06686572
168	0xbd4ec978	-0.050485104
169	0x3d228103	0.039673816
170	0xbc798f35	-0.015231897
171	0x3cb3e998	0.021961972
172	0xbc816e3f	-0.01579964
173	0x3c403c56	0.011733135
174	0x3d1b4668	0.03790894
175	0x3d415b15	0.047206003
176	0x3c7a30e1	0.015270443
177	0xbc36aefd	-0.011150119
178	0xbcc18da3	-0.023627108
179	0x3d252b2c	0.040324375
180	0x3d8a2e97	0.067471676
181	0xbd325eba	-0.04354737
182	0xbcfdc615	-0.030978242
183	0x3bcde69a	0.0062835934
184	0x3c2becdd	0.010493484
185	0xbcd1b873	-0.025600648
186	0x3cb42122	0.021988455
187	0x3c1d5001	0.009601594
188	0x3c582036	0.013191273
189	0xbcf18269	-0.02948113
190	0x3d4fa1a6	0.05069127
191	0xbc043ca1	-0.008071096
192	0xbd05ace5	-0.03263559
193	0xbd51b63a	-0.051199175
194	0xb87b6103	-5.9933413e-05
195	0xbc328153	-0.010895091
196	0x3d01ca20	0.031686902
197	0xbd41ba51	-0.047296826
198	0xbd295cc6	-0.04134824
199	0x3d21fe56	0.039549194
200	0x3d5fcca3	0.054638516
201	0x3d1cae03	0.038251888
202	0xbc70b985	-0.014692669
203	0x3d6efc8f	0.058346327
204	0xbd6867a4	-0.056739464
205	0xbd5fb5b9	-0.054616664
206	0x3d950cae	0.07277809
207	0x3ab4f814	0.0013806843
208	0x3d113e8b	0.035460036
209	0x3d800b7e	0.06252192
210	0x3d2e15f7	0.042501416
211	0xbda8baf5	-0.08238784
212	0xbcc278e1	-0.02373928
213	0x3d162e84	0.036665455
214	0x3d14b393	0.036304068
215	0x3cf99170	0.030464858
216	0x3d4bd276	0.049761258
217	0xbab09b48	-0.0013474012
218	0xbd7b0a7d	-0.0612893
219	0xbd56c1f1	-0.05243105
220	0xbc578d56	-0.013156256
221	0x3b076daa	0.002066473
222	0x3c09a9e7	0.008402324
223	0x3d364437	0.04449865
224	0x3c829164	0.015938468
225	0x3d07bed7	0.033140983
226	0x3d4bff98	0.0498043
227	0x3cf97a14	0.03045372
228	0x3cd61483	0.026132828
229	0x3cdeb6b8	0.027186736
230	0xbcd6fbb2	-0.026243065
231	0x3cb9c9a6	0.022679161
232	0x3cb6d3ae	0.022317734
233	0xbcd0516d	-0.025429452
234	0x3c91388f	0.017727165
235	0x3d35acbd	0.04435419
236	0x39f1e5ca	0.00046138308
237	0x3d62bb98	0.055354685
238	0x3d039d87	0.03213265
239	0xbb1ce941	-0.002394274
240	0x3c015144	0.00789291
241	0xbd95c6c7	-0.073133044
242	0x3d945d34	0.072443396
243	0x3c77afc9	0.015117594
244	0x3a5dc112	0.00084592507
245	0xbd6bb15b	-0.057542186
246	0xbccd2ba1	-0.025045218
247	0x3d0dab80	0.034587383
248	0x3c7ee95e	0.015558569
249	0x3b99ad5b	0.004689855
250	0x3ceee4e1	0.029161872
251	0x3c4cf503	0.012509587
252	0x3c6aed65	0.014338826
253	0xbd8b1857	-0.06791752
254	0x3cdb4616	0.026766818
255	0xbd9ac833	-0.07557716

action_model._discrete_distribution.branches.0.bias f4 [3]
0	0xbcc0c25a	-0.023530174
1	0x3cd2753d	0.02569067
2	0xbbca302d	-0.006170294

action_model._discrete_distribution.branches.1.weight f4 [3, 128]
0	0xbb908218	-0.0044100396
1	0xbb6d21aa	-0.0036183395
2	0x3a339ba9	0.0006851503
3	0xbc0029ae	-0.007822437
4	0xbc3678fc	-0.011137243
5	0xbb94656f	-0.0045286934
6	0x3a746698	0.0009323149
7	0xbbf04938	-0.007332947
8	0xbce2317d	-0.027611488
9	0xbccadcf7	-0.024763567
10	0xbc0fc4b2	-0.008774923
11	0x3c9966af	0.018725721
12	0xbc1fe1ad	-0.009758395
13	0x3a698d3a	0.0008909289
14	0x3c014f0a	0.00789238
15	0x3b98f51d	0.0046678917
16	0xbc6e47c7	-0.01454348
17	0xbc95c427	-0.01828201
18	0xbc246e50	-0.010036066
19	0xbb6a7635	-0.0035776023
20	0xbca74b25	-0.020421574
21	0xbcd3ac3e	-0.025838967
22	0x3bf6a109	0.007526521
23	0xbc1428e1	-0.009042949
24	0x3b1d5ce3	0.0024011664
25	0xbc2d7c8c	-0.010588776
26	0xbc98fb3a	-0.018674482
27	0x3cc8bd4e	0.02450433
28	0xbcf0b64a	-0.029383797
29	0xbc00d57a	-0.007863397
30	0xbc30d3a0	-0.010792643
31	0xbc5bc62f	-0.01341395
32	0x3ac79cfe	0.0015229282
33	0xbcdef620	-0.02721697
34	0x3be401a4	0.0069582034
35	0x3c17a59e	0.009255795
36	0xbcbc6477	-0.022997124
37	0xbc798eec	-0.015231829
38	0x3cc026ea	0.023456056
39	0x3c62f276	0.0138517525
40	0xbcae31ea	-0.021264035
41	0x3bbf8090	0.0058441833
42	0xbc8b44d0	-0.017000586
43	0xbd64741b	-0.05577479
44	0x3c0bc925	0.008531843
45	0xbb950ddd	-0.004548772
46	0xbbad7d73	-0.0052944957
47	0x3b0f1b8c	0.0021836488
48	0x3c1fdae7	0.00975678
49	0xbca416cd	-0.020030404
50	0x3a05b8d9	0.0005101092
51	0xbb32e661	-0.002729796
52	0x3bd951e2	0.0066320756
53	0xbd163498	-0.03667125
54	0x3a71958f	0.00092157064
55	0x3b76b0c4	0.0037641982
56	0x3c128d15	0.008944769
57	0xbc5c277e	-0.01343715
58	0xbc77c300	-0.015122175
59	0xbbb9ba4d	-0.0056679607
60	0xbc70171c	-0.014653947
61	0x3bfd415f	0.00772874
62	0x3cd7892e	0.02631053
63	0x3ba026d0	0.0048874393
64	0xbbf6156c	-0.007509878
65	0x3c156394	0.00911798
66	0xbc4c22f9	-0.01245951
67	0xbc0907cb	-0.008363674
68	0x3bb0ca3f	0.0053952034
69	0x3c2ab939	0.010420137
70	0x3bd26e10	0.006421812
71	0xbce8236a	-0.0283372
72	0xbc6e4daa	-0.014544884
73	0x3c3f8456	0.011689266
74	0xbd24aee3	-0.040205847
75	0xbbca2db9	-0.0061700013
76	0x3a186876	0.0005813906
77	0x3bb25960	0.0054427832
78	0x3cb061d3	0.021531021
79	0x3c6b4c48	0.014361449
80	0x3ca5bcfd	0.020231718
81	0x3cad0709	0.021121519
82	0x3c9792fc	0.018502705
83	0xbc3a382d	-0.011365932
84	0x3c51e139	0.012810045
85	0x3c24e874	0.010065187
86	0x3c4ea61f	0.012612849
87	0xbc92245c	-0.017839603
88	0x3c506b4f	0.012720897
89	0xbc8a215d	-0.016861612
90	0xbc923afc	-0.017850392
91	0xbcba792d	-0.02276286
92	0xbce30f4d	-0.027717257
93	0xbc1238cb	-0.008924673
94	0x3b0765a0	0.0020659938
95	0xbc90b566	-0.017664623
96	0xbb145adc	-0.0022637164
97	0x3b32d4a1	0.0027287381
98	0xbcb810fc	-0.022469036
99	0xbc207c4b	-0.009795259
100	0x39d20fbd	0.00040066047
101	0xbbecd556	-0.00722758
102	0xbca0df3b	-0.019637695
103	0x3c00c667	0.007859803
104	0xbcd2adfd	-0.02571773
105	0xba001047	-0.0004885238
106	0x3d272016	0.040802084
107	0x3cc0b062	0.023521606
108	0xbb7c1699	-0.0038465618
109	0x3bffbc3c	0.0078044217
110	0xbc2bd418	-0.010487579
111	0xbcb92b31	-0.022603603
112	0x3c925006	0.017860424
113	0xbc8d25a3	-0.01722986
114	0x3d4c9def	0.049955305
115	0x3c91c1c5	0.017792592
116	0x3b69eb81	0.003569335
117	0xba56ab55	-0.00081889826
118	0xbbafbdb2	-0.0053631896
119	0x3b5f7ddf	0.0034102125
120	0xbcfaebe1	-0.030630054
121	0xbc90b3a7	-0.01766379
122	0x3be0e922	0.006863729
123	0x3c83dcff	0.01609659
124	0x3b71cb1e	0.003689475
125	0xbccaf328	-0.024774149
126	0xbaf9bf54	-0.0019054213
127	0xbc08f6b1	-0.008359597
128	0x3b1c0beb	0.0023810815
129	0xbb637b6f	-0.0034711023
130	0xbd0e5251	-0.03474647
131	0x3d86d08e	0.065827474
132	0x3d9143e6	0.07093029
133	0x3d1203d8	0.035648197
134	0x3d2789db	0.040902954
135	0x3d0f66b9	0.035010073
136	0xbd371821	-0.044700745
137	0x3d64d44b	0.05586652
138	0x3d7b49fe	0.06134986
139	0xbd518720	-0.051154256
140	0xbd1c15e5	-0.038106818
141	0x3d3f8062	0.046753295
142	0xbcb49acc	-0.02204647
143	0xbd798cc9	-0.06092528
144	0x3be805de	0.0070807775
145	0x3d0a1f85	0.033721466
146	0x3c52cac1	0.012865723
147	0x3cf3429e	0.029694851
148	0xbd07a72e	-0.03311842
149	0x3b0fe642	0.0021957313
150	0xbd00aa2d	-0.031412292
151	0x3d1a2da8	0.037641197
152	0x3aa914cb	0.0012899874
153	0xbd377a11	-0.044794146
154	0x3d3dc382	0.04632903
155	0xbd755b34	-0.05990143
156	0xbce5873f	-0.028018592
157	0x3d018738	0.031623095
158	0xbd02ad71	-0.031903688
159	0x3ca11ad9	0.019666122
160	0x3c3c8525	0.0115063535
161	0xbd2513b2	-0.040301986
162	0xbcbd99a7	-0.023144556
163	0xbd6193c2	-0.055072553
164	0xbcefdc9b	-0.029279998
165	0xbc7fe595	-0.015618701
166	0x3c006e1d	0.007838753
167	0x3c7c451b	0.015397335
168	0xbc458f2a	-0.012058059
169	0xbd3a19a5	-0.045434613
170	0x3d3ffd52	0.046872444
171	0x3d12ac1f	0.03580868
172	0xbcd6f5e8	-0.026240304
173	0x3d4640dd	0.048401702
174	0x3d039728	0.032126576
175	0xbb190380	-0.0023348033
176	0x3cadf296	0.021233838
177	0x3d56cd33	0.052441787
178	0x3bc445c0	0.00598976
179	0x3d00a425	0.03140654
180	0xbd41744f	-0.04723006
181	0x3d226d1b	0.039654832
182	0xbd703874	-0.058647588
183	0x3ca02171	0.019547196
184	0xbd2f8183	-0.04284812
185	0x3d68e1ad	0.056855846
186	0xbb919220	-0.0044424683
187	0x3c543726	0.012952602
188	0xbaea18b0	-0.0017860141
189	0xbd1c90d8	-0.03822407
190	0xbd9adeb1	-0.07562006
191	0x3d4d2590	0.05008465
192	0x3d4a299c	0.049356088
193	0x3d2df8df	0.04247367
194	0xbd6f9f31	-0.058501426
195	0x3d1cfac5	0.03832509
196	0xbd819b01	-0.06328393
197	0x3d277dbd	0.040891398
198	0xbd266042	-0.040619142
199	0x3cb52616	0.022112887
200	0x3cc1c999	0.0236557
201	0xbd5b154b	-0.053487103
202	0xbd04a93e	-0.032387964
203	0xbd38860b	-0.04504971
204	0x3d259cfc	0.040432915
205	0x3c805762	0.015666667
206	0xbd12ba2e	-0.035822086
207	0xbd2a53e3	-0.041583907
208	0x3ab8d485	0.0014101422
209	0x3b13879e	0.0022511254
210	0x3c23f434	0.010006953
211	0xbc11cdcd	-0.008899164
212	0xbd6b3693	-0.057425093
213	0x3c98e705	0.018664846
214	0xbd51a6da	-0.051184513
215	0xbda2df06	-0.079526946
216	0xbbc60572	-0.0060431296
217	0xbb9b0a1f	-0.004731431
218	0x3c9c7b40	0.019101739
219	0x3cb70e09	0.02234556
220	0xbd0e1ffc	-0.03469847
221	0xbd47b191	-0.048753325
222	0x3d459a16	0.04824265
223	0x3ce587f7	0.028018935
224	0xbd445528	-0.047932774
225	0x3c6dd5fd	0.014516351
226	0x3c2c0767	0.010499812
227	0x3cb38119	0.021912144
228	0x3cc1b355	0.023645082
229	0xbc0743b6	-0.00825589
230	0xbd59bb8e	-0.05315738
231	0xbd7c8441	-0.061649565
232	0x3cc26402	0.023729328
233	0xbcf53565	-0.029932687
234	0x3c632d24	0.013865743
235	0xbb85a89a	-0.0040789368
236	0x3d0ba4b5	0.034092624
237	0x3b5a6522	0.003332444
238	0x3c62543f	0.013814031
239	0x3ada2f77	0.0016646226
240	0xbcb8ff72	-0.022582743
241	0x3c4bdf86	0.012443429
242	0xbd314edc	-0.043288097
243	0x3b13240a	0.00224519
244	0xbbf2c003	-0.0074081435
245	0xbd3b4ee0	-0.045729518
246	0xbcff782a	-0.031185228
247	0xbcdd79e9	-0.02703567
248	0x3d1b3f87	0.03790238
249	0x3d0b8bbb	0.034068804
250	0x3d4a7efa	0.0494375
251	0x3d3b9799	0.04579887
252	0xbcb60ee0	-0.02222389
253	0xbd4a6aaf	-0.049418148
254	0xbd0ba318	-0.034091085
255	0xbcf8f0cb	-0.030388257

action_model._discrete_distribution.branches.1.bias f4 [3]
0	0xbc73e9e3	-0.014887306
1	0x3c7fc884	0.0156117715
2	0xbab62f91	-0.0013899674

onnx::Div_98 f4 [78]
0	0x3b1285ee	0.002235766
1	0x3e1b9979	0.15195264
2	0x3b1285ee	0.002235766
3	0x3b1285ee	0.002235766
4	0x3e1b9d96	0.15196833
5	0x3dfd4c8c	0.12368116
6	0x3b1285ee	0.002235766
7	0x3e13b5c6	0.1442481
8	0x3b1285ee	0.002235766
9	0x3b1285ee	0.002235766
10	0x3e13ba20	0.1442647
11	0x3ded0aad	0.11574302
12	0x3b1285ee	0.002235766
13	0x3e162aff	0.14664839
14	0x3b1285ee	0.002235766
15	0x3b1285ee	0.002235766
16	0x3e162f4a	0.14666477
17	0x3df1b4bc	0.118020505
18	0x3b1285ee	0.002235766
19	0x3dfceaef	0.123494975
20	0x3b1285ee	0.002235766
21	0x3b1285ee	0.002235766
22	0x3dfcf536	0.12351458
23	0x3dc2fe27	0.09521132
24	0x3b1285ee	0.002235766
25	0x3e065e2b	0.1312186
26	0x3b1285ee	0.002235766
27	0x3b1285ee	0.002235766
28	0x3e0662ff	0.13123702
29	0x3dd415d0	0.10355723
30	0x3b1285ee	0.002235766
31	0x3dd150b0	0.10220468
32	0x3b1285ee	0.002235766
33	0x3b1285ee	0.002235766
34	0x3dd15d3d	0.10222862
35	0x3d9fa41f	0.077949755
36	0x3b1285ee	0.002235766
37	0x3dee763f	0.116436474
38	0x3b1285ee	0.002235766
39	0x3b1285ee	0.002235766
40	0x3dee8132	0.11645736
41	0x3db9e1d2	0.09076275
42	0x3b1285ee	0.002235766
43	0x3dbf7681	0.09348775
44	0x3b1285ee	0.002235766
45	0x3b1285ee	0.002235766
46	0x3dbf843e	0.09351395
47	0x3d8cb7a9	0.06870968
48	0x3b1285ee	0.002235766
49	0x3dcd6776	0.10029499
50	0x3b1285ee	0.002235766
51	0x3b1285ee	0.002235766
52	0x3dcd743d	0.10031936
53	0x3da06e92	0.078335896
54	0x3b1285ee	0.002235766
55	0x3da1a332	0.07892455
56	0x3b1285ee	0.002235766
57	0x3b1285ee	0.002235766
58	0x3da1b393	0.07895579
59	0x3d6831ca	0.056688108
60	0x3b1285ee	0.002235766
61	0x3db2974f	0.08720266
62	0x3b1285ee	0.002235766
63	0x3b1285ee	0.002235766
64	0x3db2a615	0.08723084
65	0x3d867643	0.065655254
66	0x3b1285ee	0.002235766
67	0x3d83a462	0.06427838
68	0x3b1285ee	0.002235766
69	0x3b1285ee	0.002235766
70	0x3d83b89b	0.06431695
71	0x3d39b3da	0.045337535
72	0x3b1285ee	0.002235766
73	0x3d91dd3c	0.07122275
74	0x3b1285ee	0.002235766
75	0x3b1285ee	0.002235766
76	0x3d91ef67	0.071257405
77	0x3d53aedc	0.05168043

onnx::Div_101 f4 [42]
0	0x3ed3413f	0.41260716
1	0x3d80481c	0.06263754
2	0x3b1285ee	0.002235766
3	0x3e65ec3b	0.22453396
4	0x3e33e34c	0.17567176
5	0x3e199938	0.14999855
6	0x3ed078b2	0.40717083
7	0x3d4c4fff	0.049880978
8	0x3b1285ee	0.002235766
9	0x3e538571	0.20656373
10	0x3e34871a	0.17629662
11	0x3e1a1619	0.15047492
12	0x3ed21acf	0.41036078
13	0x3d68bd95	0.056821425
14	0x3b1285ee	0.002235766
15	0x3e57bf24	0.21069008
16	0x3e3a0ab3	0.18168144
17	0x3e1ec829	0.15506043
18	0x3ecb7497	0.39737388
19	0x3d0452b8	0.03230545
20	0x3b1285ee	0.002235766
21	0x3e238315	0.15967973
22	0x3e3a3655	0.18184789
23	0x3e1ed335	0.15510257
24	0x3ecdd52f	0.4020171
25	0x3d30efa2	0.04319728
26	0x3b1285ee	0.002235766
27	0x3e27a55b	0.16371672
28	0x3e445429	0.1917273
29	0x3e276b80	0.16349602
30	0x3ec7e464	0.39041436
31	0x3c86927f	0.016427277
32	0x3b1285ee	0.002235766
33	0x3db30d99	0.08742828
34	0x3e430dd3	0.19048242
35	0x3e264372	0.16236666
36	0x3eca2983	0.39484796
37	0x3ccd86ab	0.025088629
38	0x3b1285ee	0.002235766
39	0x3dc1ebb3	0.09468784
40	0x3e4dd837	0.2010201
41	0x3e2f71f3	0.17133312

onnx::Div_104 f4 [54]
0	0x3efc85c9	0.4932082
1	0x3df16f54	0.11788812
2	0x3b1285ee	0.002235766
3	0x3ef961fe	0.48707575
4	0x3eb92c5b	0.36166653
5	0x3e7507dc	0.2392878
6	0x3efb11a5	0.490369
7	0x3dc66e5b	0.096890174
8	0x3b1285ee	0.002235766
9	0x3ef600d6	0.48047513
10	0x3eccf3fe	0.400299
11	0x3e86e585	0.26346985
12	0x3efc1bd3	0.49239978
13	0x3dd603f9	0.104499765
14	0x3b1285ee	0.002235766
15	0x3ef5b064	0.47986138
16	0x3ec8b5ff	0.39201352
17	0x3e845aea	0.25850612
18	0x3ef41aca	0.47676688
19	0x3d8f0ff0	0.06985462
20	0x3b1285ee	0.002235766
21	0x3ee18b2b	0.4405149
22	0x3ef56c67	0.47934267
23	0x3ea06ef4	0.3133465
24	0x3ef69978	0.48163962
25	0x3dab260c	0.08356866
26	0x3b1285ee	0.002235766
27	0x3ee272aa	0.44228107
28	0x3ef1799b	0.4716309
29	0x3e9e4abb	0.3091639
30	0x3ee880d9	0.45410803
31	0x3d5e1cbd	0.054226626
32	0x3b1285ee	0.002235766
33	0x3eaf429c	0.34230506
34	0x3efefe43	0.4980336
35	0x3ea62d78	0.32456565
36	0x3eeb8ca7	0.46005747
37	0x3d86d718	0.065839946
38	0x3b1285ee	0.002235766
39	0x3eb32874	0.349918
40	0x3effbfd0	0.4995103
41	0x3ea70402	0.32620245
42	0x3ee9bd26	0.4565212
43	0x3d1e7f5e	0.038695686
44	0x3b1285ee	0.002235766
45	0x3e6df1cb	0.23236768
46	0x3ef98864	0.4873687
47	0x3ea29b65	0.31759182
48	0x3eecd994	0.4625975
49	0x3d36490c	0.044503257
50	0x3b1285ee	0.002235766
51	0x3e7b374a	0.2453281
52	0x3efbb406	0.49160784
53	0x3ea411ed	0.32044926

onnx::Div_107 f4 [4]
0	0x40e9ba47	7.303989
1	0x41159855	9.34969
2	0x3ca7d451	0.020486983
3	0x3ccbe33d	0.02488863
