Assets/AIModels/(Med-NoWalls)Agent.onnx (onnx, 571189 bytes, 21 tensors)

discrete_act_size_vector f4 [1, 3]
0	0x40400000	3.0
1	0x40400000	3.0
2	0x40000000	2.0

network_body.observation_encoder.processors.0.normalizer.running_mean f4 [104]
0	0x3c99431b	0.018708756
1	0x3d3d5c7c	0.046230778
2	0x3db5557f	0.08854198
3	0x3d085f04	0.03329374
4	0x3d7f6274	0.06234975
5	0x3d9d48b2	0.07679881
6	0x3f2c9024	0.6740744
7	0x3f3fefff	0.7497558
8	0x3c6b0771	0.014345036
9	0x3d282b98	0.0410572
10	0x3ddfe59f	0.109324686
11	0x3d19eac7	0.037577417
12	0x3d3ed40d	0.046588946
13	0x3dcbe9ea	0.09956725
14	0x3f26cb40	0.65153885
15	0x3f3b4a77	0.731605
16	0x3c7f9b20	0.0156009495
17	0x3d1c9aa4	0.038233414
18	0x3ddc9125	0.107698716
19	0x3ce69f31	0.02815208
20	0x3dbf0fb3	0.09329166
21	0x3d60635d	0.05478226
22	0x3f298885	0.6622394
23	0x3f3cec61	0.73798186
24	0x3c206bcf	0.009791329
25	0x3d0e257b	0.034703713
26	0x3ddb2eb0	0.10702264
27	0x3d203b9f	0.03911936
28	0x3d07ca1e	0.03315174
29	0x3dd61658	0.104534805
30	0x3f2bf2cb	0.6716735
31	0x3f3cddab	0.7377574
32	0x3c439cb4	0.011939216
33	0x3cf99392	0.030465875
34	0x3e00e35f	0.12586735
35	0x3cd50f36	0.02600823
36	0x3dd4245f	0.103585
37	0x3d241faf	0.04006928
38	0x3f297d03	0.6620638
39	0x3f3aea2a	0.73013556
40	0x3bdabe83	0.006675543
41	0x3cf5dbbc	0.030012004
42	0x3dd229e7	0.102618985
43	0x3d2510e8	0.040299326
44	0x3cddf053	0.027092135
45	0x3dcfb4cc	0.10141906
46	0x3f311f31	0.6918822
47	0x3f3edf16	0.7455915
48	0x3c1b819c	0.0094913505
49	0x3cd58079	0.026062237
50	0x3de0320d	0.109470464
51	0x3cdc33d4	0.026880182
52	0x3dc2e94a	0.095171526
53	0x3cd4e11d	0.025986249
54	0x3f34f9b6	0.7069353
55	0x3f4282d1	0.7598086
56	0x3ba566e0	0.005047664
57	0x3cc8c16e	0.024506297
58	0x3dccb76d	0.09995923
59	0x3d259d61	0.04043329
60	0x3ca4801e	0.020080622
61	0x3dd79e8e	0.10528289
62	0x3f34666d	0.7046879
63	0x3f3f90de	0.74830425
64	0x3bbf27dc	0.005833609
65	0x3cb064fa	0.021532524
66	0x3dc3fbfe	0.09569548
67	0x3ce3f7ba	0.027828086
68	0x3dba4c4e	0.09096585
69	0x3cc2d361	0.023782434
70	0x3f3bff05	0.73436004
71	0x3f4702a1	0.77738386
72	0x3b468f95	0.0030297984
73	0x3ca6840c	0.020326637
74	0x3dabef2b	0.08395227
75	0x3d294496	0.041325174
76	0x3c828e19	0.015936898
77	0x3ddae234	0.10687676
78	0x3f3a8240	0.72854996
79	0x3f43a643	0.7642557
80	0x3b88d47f	0.004175722
81	0x3c8b9505	0.017038831
82	0x3daefc58	0.085442245
83	0x3ce6b86a	0.028164107
84	0x3dc080c9	0.09399564
85	0x3c9c9666	0.019114684
86	0x3f40876f	0.75206655
87	0x3f49b288	0.7878804
88	0x3b14e346	0.0022718473
89	0x3c8b2c32	0.016988847
90	0x3d902406	0.07038121
91	0x3d26da01	0.04073525
92	0x3c5b98b6	0.013403108
93	0x3ddba53b	0.107248746
94	0x3f3fbc7c	0.7489698
95	0x3f47e121	0.78077894
96	0x3b2805e4	0.0025638277
97	0x3c52851f	0.012849121
98	0x3d8daeed	0.0691813
99	0x3cecaac6	0.028890025
100	0x3dc831e7	0.09775143
101	0x3c8691a1	0.016426863
102	0x3f45b7d0	0.772336
103	0x3f4e02d8	0.8047309

network_body.observation_encoder.processors.1.normalizer.running_mean f4 [65]
0	0x3c406ee9	0.011745193
1	0x3ceb032f	0.028688041
2	0x3d153510	0.036427557
3	0x3f619aa8	0.8812661
4	0x3f67916b	0.90456265
5	0x3c4bde53	0.012443143
6	0x3cacd6e4	0.021098562
7	0x3d38e7b8	0.04514286
8	0x3f5f66eb	0.87266415
9	0x3f65f8f7	0.89833015
10	0x3c3e77a8	0.011625208
11	0x3d183ad3	0.037165474
12	0x3cdc7f45	0.026916156
13	0x3f5f2dec	0.87179446
14	0x3f660b4d	0.89860994
15	0x3c4d14b5	0.012517144
16	0x3c8096e0	0.015696943
17	0x3d58fbc2	0.05297447
18	0x3f5b58bd	0.8568228
19	0x3f62c00e	0.885743
20	0x3c40e457	0.01177319
21	0x3d2d54a2	0.04231704
22	0x3ca5e4a4	0.020250626
23	0x3f5a0001	0.85156256
24	0x3f628cfe	0.88496387
25	0x3c468721	0.012117178
26	0x3c46dace	0.012137128
27	0x3d73385e	0.059379928
28	0x3f575afe	0.8412322
29	0x3f5f4ff0	0.8723135
30	0x3c363e4f	0.011123254
31	0x3d38b791	0.045096938
32	0x3c75e818	0.015008949
33	0x3f598d43	0.84981173
34	0x3f61ba2f	0.8817472
35	0x3c399e4d	0.011329246
36	0x3c18eaf9	0.009333366
37	0x3d872cdd	0.06600354
38	0x3f5483a6	0.8301338
39	0x3f5c8f42	0.86156094
40	0x3c215f1c	0.009849336
41	0x3d458b7f	0.048228737
42	0x3c41cf3a	0.011829192
43	0x3f5adc45	0.85492355
44	0x3f621ccb	0.88325185
45	0x3c268404	0.010163311
46	0x3bfe7572	0.0077654654
47	0x3d93eabf	0.07222509
48	0x3f52bbaf	0.8231763
49	0x3f5ac7dc	0.8546121
50	0x3c07fa4f	0.008299424
51	0x3d5f0d9e	0.054456346
52	0x3c16437b	0.009171362
53	0x3f592d54	0.8483479
54	0x3f60a8b4	0.8775742
55	0x3c0ac35b	0.008469428
56	0x3bc971c6	0.006147596
57	0x3d9b2889	0.07576091
58	0x3f54717b	0.8298566
59	0x3f5bd58d	0.8587273
60	0x3bcd2de8	0.006261576
61	0x3d7a6137	0.061127868
62	0x3bf61208	0.0075094737
63	0x3f590893	0.8477871
64	0x3f6061e1	0.8764935

network_body.observation_encoder.processors.2.normalizer.running_mean f4 [35]
0	0x3e6272c0	0.22114086
1	0x3eae25e2	0.34013277
2	0x3c5ebdd6	0.013595065
3	0x3e7f2cf6	0.24919495
4	0x3f193196	0.5984129
5	0x3e623912	0.22092083
6	0x3e8e5616	0.27800053
7	0x3c7e9706	0.0155389365
8	0x3e966ae2	0.2937842
9	0x3f18a244	0.596226
10	0x3e67afda	0.22625676
11	0x3e928de4	0.2862388
12	0x3c6f283b	0.014596994
13	0x3e8e6ce9	0.27817467
14	0x3f1816b0	0.5940962
15	0x3e674237	0.22583853
16	0x3e2ef03e	0.17083833
17	0x3cb3f763	0.02196855
18	0x3ec1e924	0.37873185
19	0x3f1aea3a	0.6051365
20	0x3e7a86ea	0.24465528
21	0x3e3d2abe	0.18473336
22	0x3cb414a0	0.021982491
23	0x3ebe7c93	0.37204418
24	0x3f1d3ef4	0.61424184
25	0x3e819b69	0.2531388
26	0x3dc554fc	0.0963535
27	0x3d22a62f	0.039709266
28	0x3edc46a8	0.43022656
29	0x3f204fe1	0.62621886
30	0x3e8c521e	0.274064
31	0x3dd65b97	0.10466688
32	0x3d2adb79	0.04171321
33	0x3ed8458b	0.42240557
34	0x3f21a427	0.631411

network_body.observation_encoder.processors.3.normalizer.running_mean f4 [45]
0	0x3cd1af2b	0.025596222
1	0x3e33d5c2	0.17562011
2	0x3bc012a4	0.005861597
3	0x3f0a231a	0.5395981
4	0x3f3b2c73	0.731147
5	0x3ccf9a8a	0.025342245
6	0x3e11b48e	0.14229032
7	0x3be64706	0.0070275096
8	0x3f0f40c3	0.55958194
9	0x3f3a5979	0.72792774
10	0x3cd3636b	0.025804242
11	0x3e153b55	0.14573415
12	0x3bc53ffc	0.0060195904
13	0x3f0c5625	0.54818946
14	0x3f38fd9e	0.7226199
15	0x3cba2465	0.022722432
16	0x3dbd1332	0.09232177
17	0x3c1e0fea	0.009647349
18	0x3f1e2f96	0.6179136
19	0x3f3dc023	0.741213
20	0x3cce3617	0.025172276
21	0x3dc88e1b	0.097927295
22	0x3c0d40d2	0.008621411
23	0x3f1f3e62	0.62204564
24	0x3f3ff455	0.74982196
25	0x3cb342f1	0.021882506
26	0x3d4988cb	0.04920272
27	0x3c67b837	0.014143041
28	0x3f2a022b	0.6640956
29	0x3f40fcac	0.75385547
30	0x3cd2746a	0.025690276
31	0x3d5f7454	0.0545543
32	0x3c6a5fb3	0.014305043
33	0x3f2e6331	0.68120104
34	0x3f45b069	0.77222306
35	0x3cd78cbf	0.02631223
36	0x3cca823f	0.02472031
37	0x3cc209de	0.023686346
38	0x3f32dbdf	0.69866747
39	0x3f46712d	0.7751644
40	0x3cfffb74	0.031247832
41	0x3ce3005d	0.027710134
42	0x3cd14ec1	0.025550248
43	0x3f36c383	0.7139208
44	0x3f4ae1f5	0.79251033

network_body.observation_encoder.processors.4.normalizer.running_mean f4 [27]
0	0x3c82942a	0.01593979
1	0x4059ae50	3.4012642
2	0x3d38e9e1	0.04514492
3	0x397559bf	0.00023398454
4	0x00000000	0.0
5	0x3f5c857d	0.86141187
6	0x00000000	0.0
7	0x40e7c2ef	7.2425456
8	0x40e3db61	7.1205297
9	0x3c96aca9	0.018392878
10	0x405ee6ca	3.4828362
11	0x3d3b6554	0.04575093
12	0x39798b62	0.00023798415
13	0x00000000	0.0
14	0x3f612d4f	0.8795976
15	0x00000000	0.0
16	0x40ed19d2	7.409402
17	0x40e91efb	7.285032
18	0x3ca124c4	0.019670852
19	0x406410f3	3.5635345
20	0x3d3dbd0f	0.04632288
21	0x39a3912a	0.00031197938
22	0x39a5a9ec	0.00031597854
23	0x3f65efcf	0.89819044
24	0x395a16c4	0.00020798581
25	0x40f28059	7.5781674
26	0x40ee71e1	7.451401

network_body._body_endoder.seq_layers.0.weight f4 [256, 276]
0	0x3d272939	0.040810797
1	0xbccc0e7b	-0.024909249
2	0x3d5ca24f	0.053865727
3	0x3cb52b74	0.022115447
4	0x3df3baf4	0.11900893
5	0xbbced2e8	-0.006311763
6	0x3aa37578	0.0012470922
7	0x3c045b16	0.008078357
8	0x3e2e8b2e	0.1704528
9	0xbcdc6eb0	-0.026908249
10	0xbdf40332	-0.11914672
11	0x3d8f615b	0.07000991
12	0x3d1084ad	0.03528278
13	0x3de86393	0.11347117
14	0x3cc3e3cc	0.023912333
15	0xbd9a5f22	-0.075376764
16	0x3c80b0b4	0.015709259
17	0xbd069a46	-0.03286197
18	0xbe3bcece	-0.18340608
19	0xbbf98976	-0.0076152636
20	0x3df16856	0.117874786
21	0xbb658f69	-0.0035028106
22	0xbd24b68a	-0.040213145
23	0xba35e46a	-0.00069386384
24	0x3e37a0fb	0.17932503
25	0xbdf1bf9d	-0.118041255
26	0xbd8f71b2	-0.070041075
27	0xbdcdf1d0	-0.10055888
28	0xbda95dc8	-0.082698405
29	0xbdaab6e1	-0.08335663
30	0xbdbb02f5	-0.091314234
31	0x3d88e63c	0.06684539
32	0xbdb73b0a	-0.08946808
33	0xbc837c46	-0.01605047
34	0xbd7c225f	-0.061556216
35	0xbc90e0f2	-0.017685387
36	0x3d3f68e0	0.046730876
37	0x3c9497d8	0.018138811
38	0xbc2a7ac5	-0.010405247
39	0x3d829b53	0.06377282
40	0xbcfc4ab3	-0.030797338
41	0x3cde8a93	0.027165687
42	0x3bd54f8d	0.0065097273
43	0x3d8639b2	0.06553973
44	0xbd8254d7	-0.06363838
45	0xbdc9194a	-0.09819277
46	0x3dfdcb0d	0.123922445
47	0x3e362fff	0.17791747
48	0xbc3f315b	-0.011669482
49	0xbdc32605	-0.09528736
50	0xbd71f428	-0.059070736
51	0x3d096f0f	0.03355318
52	0xbcc9598d	-0.024578834
53	0xbd515a30	-0.0511114
54	0x3d870281	0.065922745
55	0x3d137264	0.035997763
56	0xbc64dbce	-0.013968421
57	0xbde05127	-0.109529786
58	0x3d2fd574	0.042928174
59	0x3e12a3dc	0.1432032
60	0xbd34ca3e	-0.044138186
61	0xbd1c81d6	-0.03820976
62	0xbd650546	-0.055913232
63	0xbd0950d4	-0.03352435
64	0xbbadf299	-0.005308461
65	0x3c2b8584	0.010468844
66	0xbe2207a4	-0.15823227
67	0xbdb37557	-0.08762615
68	0xbc77b1d6	-0.015118083
69	0x3a140373	0.0005646266
70	0x3d57bd91	0.05267102
71	0x3d9b9ea4	0.07598618
72	0x3dbc2478	0.09186643
73	0xbbd55962	-0.0065108994
74	0x3d0ee036	0.034881793
75	0x3cddb41d	0.027063424
76	0x3d08bb70	0.03338188
77	0x3c8604ec	0.016359769
78	0xbc6dc838	-0.014513068
79	0xbd892840	-0.0669713
80	0x3daefab0	0.085439086
81	0xbcdced12	-0.026968513
82	0xbcc0d61a	-0.023539592
83	0xbb0a83c1	-0.002113566
84	0xbd1e1bfa	-0.0386009
85	0x3dc821c3	0.097720645
86	0x3da82cd5	0.08211676
87	0x3cb6b9d7	0.022305412
88	0xb9390e49	-0.00017648296
89	0x3d6c7234	0.0577261
90	0xbd856c09	-0.06514747
91	0xbd6c6a74	-0.05771871
92	0x3dc0cc90	0.09414017
93	0x3cd38b95	0.025823394
94	0x3de09a7a	0.10966964
95	0xbdee6747	-0.11640792
96	0xbbef15a7	-0.0072962823
97	0x3cc002b2	0.023438785
98	0xbe5039ab	-0.20334499
99	0x3aa75161	0.0012765342
100	0x3d773770	0.060355604
101	0x3dd051f9	0.10171885
102	0x3b89ae7a	0.0042017074
103	0xbd8a306c	-0.06747517
104	0xbb20b746	-0.0024523302
105	0xbdd08dbd	-0.101832844
106	0x3d811ca9	0.063042946
107	0xbc88a602	-0.016680721
108	0xbd694093	-0.05694635
109	0x3c2d41a1	0.010574729
110	0xba8d6898	-0.0010788618
111	0xbdb9bf1f	-0.090696566
112	0xbc9e1ecc	-0.019301794
113	0xbd5d32fe	-0.054003708
114	0xbd83428d	-0.06409178
115	0xbdc3551e	-0.09537719
116	0xba614099	-0.00085926946
117	0xbddeefd2	-0.10885586
118	0x3cd62472	0.026140425
119	0x3cda3b1f	0.02663952
120	0x3d4cfcad	0.050045658
121	0x3c60171c	0.013677385
122	0x3b50fc1b	0.0031888548
123	0x3dd91157	0.105990104
124	0x3ca8eccc	0.020620726
125	0x3d221069	0.03956643
126	0x3dd26914	0.10273948
127	0x3dae7adc	0.08519527
128	0xbd9029e1	-0.07039238
129	0x3b115fc9	0.0022182337
130	0x3d264db6	0.040601455
131	0xbc675324	-0.014118943
132	0xbca9ff4c	-0.020751618
133	0x3dad8326	0.0847228
134	0xbd9a3ad4	-0.07530752
135	0x3dbf70e2	0.093477026
136	0x3ce25508	0.027628437
137	0x3d568b5a	0.05237899
138	0x3cc01520	0.023447573
139	0x3cdd5075	0.027015904
140	0x3c3e412f	0.011612221
141	0x3d9e834d	0.077398874
142	0x3df720c4	0.120667964
143	0x3dc49c3b	0.09600111
144	0xbdb7b26b	-0.089695774
145	0xbd9626f3	-0.07331648
146	0xbdf4cccd	-0.11953125
147	0xbc8cfe27	-0.017211033
148	0x3dc3a5b6	0.09553091
149	0x3cb4ab49	0.022054331
150	0xbd7671cb	-0.060167115
151	0x3d874fdb	0.06607028
152	0xbd35941e	-0.04433071
153	0x3d330ca8	0.04371324
154	0xbd1a5c0a	-0.03768543
155	0xbd86b068	-0.065766156
156	0x3c0ee045	0.008720462
157	0xbb25b2e5	-0.0025283631
158	0xbafbe68b	-0.0019218487
159	0x3da6bbc1	0.0814128
160	0xbad5f009	-0.0016322146
161	0x3d22737c	0.039660916
162	0xbc15dd8e	-0.009147061
163	0x3d2e0375	0.042483766
164	0x3c43edaf	0.011958524
165	0xbdf49848	-0.11943108
166	0xbd0ea966	-0.03482952
167	0xbc07f4af	-0.008298083
168	0x3d6e8778	0.05823466
169	0xbc5ff32f	-0.013668819
170	0x3ca22868	0.019794658
171	0xbc46c94b	-0.012132953
172	0xbd1495b0	-0.036275566
173	0x3bdd819b	0.006759835
174	0x3dc7a65b	0.09748527
175	0x3c1697a4	0.009191427
176	0xbda2a260	-0.07941127
177	0xbe0a6809	-0.13516249
178	0xbcb1ce80	-0.021704912
179	0xbc6177c6	-0.013761466
180	0x3da7b40a	0.081886366
181	0x3dbb9f1b	0.09161206
182	0x3c9bae1b	0.019003918
183	0xbd81522d	-0.06314502
184	0x3d23e656	0.040014587
185	0xbd56ca4a	-0.05243901
186	0xbcbdb6f2	-0.023158524
187	0xbd980dc1	-0.07424498
188	0x3d85da2d	0.06535754
189	0x3db8847e	0.09009646
190	0xbd5a6666	-0.05332031
191	0xbb243bfb	-0.0025060165
192	0xbd6dbef5	-0.05804344
193	0xbcf21c98	-0.02955465
194	0x3ab37df9	0.0013694159
195	0x3e156e34	0.1459282
196	0x3dce246f	0.10065543
197	0xbd0c150b	-0.034199756
198	0xbd13bd80	-0.036069393
199	0x3d111d53	0.035428356
200	0xbd80b63e	-0.0628476
201	0xbd5ecf64	-0.054397
202	0xbc93f33c	-0.01806032
203	0x3d748be7	0.059703734
204	0xbd4dbd0c	-0.050229117
205	0xbd8f4bb5	-0.06996862
206	0x3cd933cd	0.026513958
207	0xbe374572	-0.17897585
208	0x3d644cf2	0.055737443
209	0x3d76413d	0.06012081
210	0xbca9bb49	-0.020719187
211	0xbdea139d	-0.11429522
212	0xbd00fd71	-0.0314917
213	0xbb8c3cab	-0.004279693
214	0xbd4c520c	-0.049882933
215	0xbd85f811	-0.065414555
216	0x3c1e7f57	0.009673915
217	0x3caaa02b	0.020828327
218	0x3ad9c3a2	0.0016614089
219	0xbb816767	-0.003949094
220	0x3df51730	0.11967313
221	0x3bddf7a1	0.0067739044
222	0x3d622577	0.05521151
223	0x3cd56083	0.026046997
224	0xbd54617f	-0.051850792
225	0x3d960b96	0.073264286
226	0x3d8114f2	0.06302823
227	0xbcbb5342	-0.022866849
228	0xbd4a8e8b	-0.049452346
229	0x3dce56ab	0.10075124
230	0x3e15bf12	0.14623669
231	0x3db4e05e	0.08831857
232	0xbcd22f12	-0.02565721
233	0xbd67a97c	-0.056558117
234	0xbc1fbafe	-0.009749172
235	0x3cd1cf66	0.02561159
236	0x3df2858a	0.11841877
237	0x3dc9905d	0.09841988
238	0x3c6921c5	0.014229243
239	0xbe056b13	-0.13029127
240	0x3cdd1523	0.026987618
241	0xbd11e3e2	-0.035617717
242	0xbdc4ed85	-0.09615616
243	0x3d1aad74	0.037763074
244	0xbdf0692c	-0.1173881
245	0xbca70d1d	-0.020391995
246	0xbc284466	-0.010270214
247	0xbc20dce9	-0.009818294
248	0x3d3ae66f	0.045629915
249	0x3de246bd	0.110486485
250	0x3dfe93e7	0.12430554
251	0x3cb2b855	0.021816412
252	0x3d1b8fab	0.03797881
253	0xbd492303	-0.049105655
254	0xbcc33808	-0.023830429
255	0x3d4af82f	0.049553093

network_body._body_endoder.seq_layers.0.bias f4 [256]
0	0x3c9c7980	0.019100904
1	0x3a5254d3	0.0008023504
2	0xbcb0f97f	-0.021603344
3	0xbcb83320	-0.022485316
4	0xb9b9a15d	-0.00035406175
5	0xbc767d47	-0.015044517
6	0x3c045922	0.008077892
7	0xbc5a2863	-0.013315293
8	0x3ca6c49e	0.020357426
9	0xbbe0666f	-0.0068481485
10	0xbc6d8213	-0.014496344
11	0x3b414230	0.0029488914
12	0xbc2ca93e	-0.010538397
13	0x3c97d9e6	0.01853652
14	0x3b870e4d	0.004121578
15	0x3b193265	0.0023375985
16	0x3c07cb98	0.008288287
17	0x3b9eb0c2	0.0048428485
18	0x3ab08a70	0.0013468992
19	0xbcd5250a	-0.026018638
20	0x3b077aef	0.002067264
21	0xbcfd698d	-0.03093412
22	0x3baddb9c	0.0053057205
23	0xbbeecf21	-0.0072878753
24	0xbca4f11d	-0.020134503
25	0x3bc37607	0.0059649977
26	0x3bd2444e	0.006416834
27	0x3c70dfd6	0.014701804
28	0x3b0c141d	0.0021374293
29	0x3bdf204a	0.006809269
30	0xbb0e756d	-0.0021737472
31	0xbb27fe84	-0.002563388
32	0xbc09a7d2	-0.008401828
33	0x3c62b84c	0.013837885
34	0xbbb1cd03	-0.0054260506
35	0xbc185f02	-0.009299995
36	0xbc25e932	-0.010126399
37	0xbcec0bfc	-0.028814308
38	0xbcbda102	-0.023148064
39	0xbc6d93d3	-0.014500576
40	0xbd589779	-0.05287883
41	0x3c2efb36	0.010680011
42	0xbcd79446	-0.02631582
43	0xbcb44326	-0.022004675
44	0xbc34a7b9	-0.011026316
45	0xbc92b266	-0.017907333
46	0xbc5c1b7c	-0.013434287
47	0xbcff764e	-0.031184342
48	0x3c41c6c9	0.011827179
49	0x3ca6aa46	0.020344865
50	0xbb2ce237	-0.0026379952
51	0x3d14088e	0.03614097
52	0x3c91169d	0.017710978
53	0x3b9c1f1a	0.00476445
54	0x3d09e49f	0.033665296
55	0xbcf65382	-0.030069117
56	0xbb858b4f	-0.004075445
57	0x3ba8ad59	0.005147618
58	0xbcbe9f73	-0.02326939
59	0x3bd7c810	0.0065851286
60	0xbbf71974	-0.007540876
61	0x3acba887	0.0015537896
62	0x3cad5160	0.021156967
63	0xbac0e851	-0.0014717673
64	0x3b40c42a	0.0029413798
65	0xbc636fc2	-0.013881626
66	0x3cb1f2ad	0.021722162
67	0x3cc61638	0.024180517
68	0x3be38876	0.0069437576
69	0xbc49cbe5	-0.012316679
70	0xbc5806ef	-0.013185247
71	0xbb8c97b9	-0.0042905477
72	0x3ca16b9f	0.019704638
73	0x3cb7659e	0.022387322
74	0x3ca48c20	0.020086348
75	0xbb9f97dd	-0.0048703984
76	0x3c173a28	0.009230174
77	0x3c76140e	0.01501943
78	0xbc0a5b0d	-0.00844456
79	0x3c76dd20	0.015067369
80	0xbcace791	-0.021106513
81	0xbc78572b	-0.015157501
82	0xbc953d06	-0.018217575
83	0xbb980ee1	-0.0046404456
84	0x3cf04a74	0.029332377
85	0xbc3c34a8	-0.011487164
86	0xbc4ea4a3	-0.012612495
87	0x3d44bedb	0.048033576
88	0xbcba8475	-0.022768239
89	0xbc5c8622	-0.013459714
90	0x3b372865	0.002794766
91	0x3c577076	0.013149371
92	0xbc8f5329	-0.017495709
93	0xbc10041e	-0.008790044
94	0x3c94deda	0.01817267
95	0x3ab6b848	0.0013940418
96	0xbca4d111	-0.020119222
97	0x3c8f2476	0.01747344
98	0xbbadc9f1	-0.0053036143
99	0xbc82a1bf	-0.015946267
100	0xbc57d238	-0.013172679
101	0xbbe4e456	-0.0069852276
102	0xbb19b5f0	-0.002345439
103	0x3cc945ed	0.024569476
104	0x3cc88af6	0.024480324
105	0xbc18163c	-0.009282645
106	0x3cc54563	0.024080938
107	0x3c939fc4	0.018020518
108	0xbb989dbf	-0.0046574767
109	0x3d0281f0	0.0318622
110	0xbbc25430	-0.005930446
111	0x3bec2716	0.007206808
112	0x393dd1a9	0.00018102549
113	0xbc61ab93	-0.013773817
114	0x3beb4c90	0.007180758
115	0xbce4ca6b	-0.027928552
116	0x3cb954d3	0.022623455
117	0xbb58627a	-0.003301768
118	0xbc2547f4	-0.010087956
119	0xbb0321a7	-0.0020009072
120	0x3c390350	0.011292294
121	0x3bea7e5d	0.007156177
122	0x3b521a70	0.0032059215
123	0x3b3f5b2b	0.0029198627
124	0xbc95a828	-0.01826866
125	0xbb2b3053	-0.0026121333
126	0x3cafd284	0.021462686
127	0xbcb6551e	-0.022257384
128	0x3c8e321c	0.017357878
129	0xbc48c9f3	-0.01225518
130	0xbcfc8300	-0.030824184
131	0x3caa8c44	0.020818837
132	0x3b0c0b8e	0.0021369192
133	0xbc127cff	-0.008940934
134	0xbb9e6aeb	-0.004834523
135	0xbc86bcbb	-0.016447416
136	0xbc491577	-0.012273184
137	0xba970164	-0.00115208
138	0xbbc4ed8f	-0.0060097645
139	0x3b8b05d5	0.0042426386
140	0xbba070d8	-0.0048962645
141	0x3ae8da5f	0.0017765275
142	0xbcabec1b	-0.020986607
143	0xbcde9a4d	-0.027173186
144	0xbc5289a7	-0.012850202
145	0xbbc72ffd	-0.0060787187
146	0xbc4890ce	-0.012241555
147	0xbb392cb0	-0.0028255396
148	0xbc93e604	-0.018054016
149	0xbc3470da	-0.011013234
150	0xbaeb5eb2	-0.0017957299
151	0xbd023d06	-0.031796478
152	0x3bf5b3f3	0.0074982583
153	0xbc714264	-0.014725301
154	0x3c814b79	0.015783058
155	0xbba5ae8f	-0.0050562094
156	0x3c2c298b	0.0105079515
157	0x3d0fe8b1	0.03513402
158	0xbba1177c	-0.0049161296
159	0xbbabd49c	-0.005243851
160	0x3c1893b3	0.009312558
161	0xbbeb1274	-0.0071738306
162	0xbc513e1d	-0.012771157
163	0xbcdab8e9	-0.0266995
164	0xbc27bbfa	-0.010237688
165	0x3b1edd81	0.0024240913
166	0xbc3ff1a8	-0.01171533
167	0xbc01ec2c	-0.007929843
168	0x3ba18ea6	0.004930335
169	0x3c3522fe	0.011055706
170	0xbb72dbbb	-0.003705724
171	0x3b981a4f	0.004641808
172	0x3c140c09	0.0090360725
173	0x3b807c9c	0.0039211046
174	0x3bc3a5c3	0.005970688
175	0x3be2cdcb	0.006921505
176	0xbcb3a8da	-0.0219311
177	0xbcd94b62	-0.026525203
178	0xbc39083b	-0.011293466
179	0xbce603c0	-0.02807796
180	0x3be69504	0.007036807
181	0x3c220364	0.009888504
182	0xbc4afc9c	-0.012389328
183	0x3cb9ac12	0.022665057
184	0xbc6176ac	-0.013761204
185	0xbc94638a	-0.01811387
186	0xbcb98e0f	-0.022650747
187	0xbcd289db	-0.0257005
188	0x3b6fee7c	0.0036610654
189	0x3c712dc0	0.01472038
190	0xbbcfc568	-0.0063406713
191	0x3cb18f62	0.021674816
192	0xbc76016d	-0.015014988
193	0x3c5a0621	0.013307125
194	0x3ce9122d	0.02845105
195	0x3cf2978e	0.029613283
196	0xbbbe589a	-0.005808902
197	0x3c106502	0.008813145
198	0x3c29c8e8	0.010362841
199	0x3c120c9d	0.00891414
200	0xbad0171c	-0.0015876028
201	0xbc67ea62	-0.014155002
202	0x3b9bf856	0.0047598286
203	0xbcb14d2e	-0.021643247
204	0xbc57cadd	-0.013170925
205	0x3cc690a6	0.024238896
206	0xbc718a9f	-0.0147425225
207	0x3bf399c2	0.007434101
208	0xbb476cf1	-0.0030429924
209	0x3c1a88ba	0.009432012
210	0xbc23b992	-0.009992974
211	0xbca103d1	-0.01965514
212	0x3c09e909	0.008417376
213	0xbb40f91f	-0.0029445363
214	0x3cf91c27	0.030408932
215	0x3c6f98cb	0.014623831
216	0xbb81e95d	-0.0039645866
217	0x3cf7d7fd	0.030254358
218	0x3c2c4c6f	0.01051627
219	0xbc803de2	-0.015654508
220	0xbc037cad	-0.0080253305
221	0x3c349df2	0.011023985
222	0xbc814795	-0.015781203
223	0x3cf07515	0.029352704
224	0x3d071ada	0.032984592
225	0x3b834efc	0.0040072184
226	0x3bbc9868	0.005755473
227	0xba7cec1c	-0.000964822
228	0x3c24037a	0.0100105945
229	0x3c804daf	0.015662042
230	0xbb30bf32	-0.002696943
231	0x3b2afa20	0.0026089028
232	0x3c5e9f95	0.013587852
233	0xb9b022a8	-0.00033595157
234	0x3a87a912	0.001035007
235	0xb9ba6c58	-0.00035557407
236	0xbbd02364	-0.006351875
237	0x3c35c36e	0.011093957
238	0x3d2dc041	0.042419676
239	0xbcab8f4e	-0.020942356
240	0xbb9e34fc	-0.0048280936
241	0x3bd41cfd	0.0064731822
242	0xbb8c1baa	-0.0042757588
243	0x3c54b995	0.012983699
244	0xbc12de88	-0.008964188
245	0x3ada2359	0.0016642615
246	0xbbb1e5ed	-0.0054290206
247	0xbc002f37	-0.007823757
248	0xbbde953b	-0.006792692
249	0xbb5dea1b	-0.0033861462
250	0x3c7681ce	0.015045596
251	0x3cb2ff88	0.021850362
252	0x3bf3c8f3	0.0074397265
253	0x3d150e05	0.036390323
254	0xbbfa81df	-0.0076448764
255	0x3b8bcf68	0.004266668

network_body._body_endoder.seq_layers.2.weight f4 [256, 256]
0	0x3d07cf53	0.033156704
1	0x3d1f177b	0.038840752
2	0x3c972a81	0.018452885
3	0x3d1e3ea4	0.038633958
4	0xbcd75353	-0.02628485
5	0xbd3f05f7	-0.046636548
6	0xbcc445ae	-0.023959007
7	0xbcb89b95	-0.022535125
8	0x3c5b9605	0.013402467
9	0xbd28dde6	-0.041227244
10	0x3d1a11c8	0.037614614
11	0xbded1962	-0.11577107
12	0xbda3c27e	-0.07996081
13	0xbd9f559b	-0.0778
14	0xbcbe4bf6	-0.02322958
15	0xbc8071a1	-0.015679182
16	0xbcb3fd2a	-0.021971304
17	0x3b7b4f7b	0.0038346935
18	0xbd5c06a5	-0.053717274
19	0xbc2add3e	-0.010428725
20	0xbc2e0630	-0.010621592
21	0xbe31b195	-0.17352898
22	0xbd2893ed	-0.041156698
23	0xbd756f21	-0.059920434
24	0xbe315b07	-0.1731988
25	0xbc717f5c	-0.0147398375
26	0xbd9e763a	-0.07737394
27	0x3d49afc5	0.049239893
28	0xbdafa2ab	-0.08575948
29	0x3d453452	0.0481456
30	0xbb694b68	-0.0035597924
31	0xbd2e42bf	-0.042544123
32	0xbc64f105	-0.013973479
33	0xbd936874	-0.07197657
34	0x3d484096	0.04888972
35	0x3cb2cbf1	0.021825762
36	0x3d241999	0.040063474
37	0x3d5ac815	0.05341347
38	0x3db7652b	0.08954843
39	0x3cbdca2e	0.023167696
40	0x3d44a6f3	0.048010778
41	0xbd8aecef	-0.06783473
42	0x3d64cdca	0.05586032
43	0xbc9ac511	-0.018892797
44	0xbc7100e9	-0.01470969
45	0x3e0ebb95	0.13938744
46	0x3d9db310	0.07700169
47	0x3b61b79c	0.0034441715
48	0xbc95efd5	-0.018302837
49	0x3b246a90	0.002508793
50	0xb96d0044	-0.0002260218
51	0xbe4958e6	-0.19662818
52	0x3d0d2a37	0.034464087
53	0xbd8f6237	-0.07001155
54	0x3d424f64	0.047438994
55	0x3d0ad702	0.033896454
56	0xbde7f46c	-0.11325917
57	0xbd89c112	-0.06726278
58	0x3d07b26f	0.033129152
59	0xbc4cc296	-0.012497565
60	0x3ca313e5	0.019906947
61	0xbde33409	-0.11093909
62	0xbda6b42f	-0.08139836
63	0xbd111982	-0.035424717
64	0xbd54218d	-0.05178981
65	0x3deb7945	0.1149774
66	0x3cf799a5	0.03022463
67	0x3dce23de	0.10065435
68	0xbbc5913a	-0.0060292752
69	0xbc945835	-0.018108467
70	0x3e244436	0.16041645
71	0x3d821971	0.06352509
72	0x3c5f7065	0.013637637
73	0xbd023b9c	-0.03179513
74	0x3bc3e2fe	0.0059779873
75	0x3c83a50c	0.016069911
76	0x3dcc9542	0.09989406
77	0xbe1b4128	-0.15161574
78	0x3c9e95bb	0.019358506
79	0x3ca6f368	0.020379737
80	0x3d8b3c56	0.067986175
81	0x3c65c2ab	0.014023463
82	0x3dc23472	0.094826594
83	0x3db97614	0.09055725
84	0xbca6db23	-0.020368164
85	0xbc85887d	-0.016300434
86	0x3e04a112	0.12952068
87	0xbda938f5	-0.08262817
88	0x3d3f27fb	0.046668988
89	0xbde8fcac	-0.11376318
90	0x3e0c13b3	0.1367939
91	0x3c3a9a70	0.01138936
92	0xbcdc3dd6	-0.026884954
93	0x3cc00ab1	0.023442598
94	0xbd350e38	-0.044203013
95	0xbdc2e14a	-0.09515627
96	0xbd5d958a	-0.05409769
97	0xbd654fc5	-0.055984277
98	0x3da0d5a7	0.07853251
99	0x3db2282d	0.08699069
100	0x3d7d1d29	0.061795387
101	0x3b8ea4e7	0.004353154
102	0xbcdd3593	-0.027003085
103	0x3dfe104d	0.12405453
104	0x3d563c99	0.052303884
105	0x3da37b76	0.07982533
106	0xbd82bcaf	-0.06383645
107	0x3d8b2e19	0.06795902
108	0xbd6fcc4a	-0.058544435
109	0x3c944d1c	0.018103175
110	0xbd899034	-0.06716958
111	0xbda89954	-0.0823237
112	0x3d8db522	0.06919314
113	0xbdc03582	-0.09385206
114	0x3cc54bac	0.024083935
115	0x3d21df0a	0.039519347
116	0x3d0620c9	0.03274611
117	0x3e0151e4	0.12628895
118	0xbdcd3840	-0.100204945
119	0x3ddc2b4e	0.10750447
120	0x3d6252c3	0.05525471
121	0x3cc9f4f1	0.02465293
122	0xbe607f2c	-0.21923512
123	0x3d0cf751	0.034415547
124	0x3cb27bdc	0.021787576
125	0x3c5781fd	0.01315355
126	0xbe14db94	-0.14536887
127	0x3d80142d	0.06253848
128	0x3c0e213a	0.008674914
129	0x3cadc6ad	0.0212129
130	0xbd0da881	-0.034584526
131	0x3d1ea236	0.038728915
132	0xbc64f980	-0.013975501
133	0xbe3ab881	-0.18234445
134	0x3d149eb9	0.036284182
135	0xbc87e3a0	-0.016588032
136	0x3bb3b48d	0.00548417
137	0xbcf259f8	-0.029583916
138	0x3e238236	0.1596764
139	0x3bc761ab	0.006084641
140	0xbd8dedf8	-0.069301546
141	0x3c937bc9	0.018003361
142	0x3d3af233	0.045641135
143	0xbcb7db0c	-0.022443317
144	0x3c1a2722	0.009408744
145	0xbe0b3a14	-0.13596374
146	0xbdc89c53	-0.097954415
147	0x3ce42efb	0.027854433
148	0xbde2301c	-0.110443324
149	0x3c7d489e	0.015459208
150	0x3d45fdd2	0.048337765
151	0xbd7234d6	-0.05913242
152	0x3c9db2e7	0.019250346
153	0xbd81d5e7	-0.06339627
154	0xbd4585da	-0.048223354
155	0xbe0df675	-0.13863547
156	0x3cbf590c	0.02335789
157	0x3cce1970	0.025158614
158	0xbdd1cbbb	-0.10243937
159	0x3d5a5b89	0.05330995
160	0xbcb05b8e	-0.021528032
161	0x3d9b9273	0.07596292
162	0x3de9dff9	0.114196725
163	0xbc611d5a	-0.013739908
164	0xbc33f887	-0.0109845465
165	0xbd9012dd	-0.07034848
166	0x3dd57667	0.10422974
167	0x3dbf0811	0.093277104
168	0x3d9059ad	0.07048354
169	0x3dc9d601	0.09855271
170	0xbd205ee0	-0.03915298
171	0x3db2d9f4	0.087329775
172	0xbdb4ea0a	-0.08833702
173	0x3d6aa9f3	0.057290982
174	0x3d9d491c	0.0767996
175	0xbd1b1444	-0.037861124
176	0xbd2597c1	-0.040427927
177	0x3d471901	0.04860783
178	0xbd6740d0	-0.056458294
179	0x3de27d14	0.11059013
180	0xbde587bc	-0.1120753
181	0xbdc42dec	-0.095790714
182	0xbdaa5610	-0.08317196
183	0xbcf4e295	-0.029893199
184	0xbd2fa796	-0.04288443
185	0xbd54eafe	-0.05198192
186	0xbc4f8121	-0.012665064
187	0x3db6b462	0.08921124
188	0xbcc0a13f	-0.023514388
189	0x3cb5e84b	0.022205492
190	0x3e1b3587	0.15157138
191	0xbc872747	-0.016498221
192	0x3d080233	0.033205222
193	0xbdb8a74d	-0.09016285
194	0xbd31aa4e	-0.043375306
195	0xbd9b1b3c	-0.07573554
196	0x3d01dfdb	0.031707626
197	0xbda45a19	-0.08024997
198	0xbdf10254	-0.11768022
199	0x3d12bc18	0.03582391
200	0xbc14f665	-0.009091948
201	0x3c3b1a31	0.011419819
202	0x3d0239cc	0.0317934
203	0x3db38eb0	0.0876745
204	0xbc96a180	-0.018387556
205	0x3c53b887	0.012922413
206	0xbb32a21d	-0.0027257272
207	0x3dd10720	0.10206437
208	0xbde9fd47	-0.11425262
209	0x3d29ca20	0.041452527
210	0xbdcfc1fd	-0.10144422
211	0x3e0857b4	0.13314706
212	0xbd652987	-0.055947807
213	0x3db5680c	0.08857736
214	0xbd43b879	-0.04778335
215	0xbde69d99	-0.11260528
216	0x3dc7b9eb	0.09752258
217	0xbdacb688	-0.084332526
218	0xbd79e975	-0.061013658
219	0xbcd719c1	-0.026257398
220	0xbdb88b61	-0.090109594
221	0xbd6e70e8	-0.058213145
222	0x3d53e062	0.05172766
223	0xbd8ac72c	-0.0677627
224	0x3da26fd7	0.07931488
225	0x3cd3358c	0.02578237
226	0xbd560315	-0.052249033
227	0xbd1014b4	-0.035175994
228	0x3d88c327	0.06677847
229	0xbd46d2f7	-0.048541036
230	0x3df8bfe4	0.12145975
231	0xb98d3ae1	-0.00026937484
232	0x3ce03e93	0.027373588
233	0xbd0b55ab	-0.034017246
234	0xbb33758d	-0.0027383298
235	0x3d4237d6	0.04741653
236	0x3be48ba8	0.006974656
237	0x3d50c472	0.050968595
238	0xbdf6bd39	-0.1204781
239	0xb99c7189	-0.0002983923
240	0xbdcf5e29	-0.101253815
241	0x3ccf5c78	0.025312647
242	0xbd8753d2	-0.06607784
243	0xbcdbdbfd	-0.026838297
244	0xbcbc0597	-0.022951884
245	0x3dbd98ff	0.09257697
246	0xbd601998	-0.054711908
247	0xbc25f3e0	-0.010128945
248	0x3e065a09	0.13120283
249	0x3e13687f	0.14395331
250	0x3d94de7b	0.07268997
251	0x3e1a1548	0.1504718
252	0x3d93042e	0.071785316
253	0x3d9af3c7	0.07566028
254	0xba070d41	-0.00051518163
255	0x3dbf059a	0.0932724

network_body._body_endoder.seq_layers.2.bias f4 [256]
0	0x3c16fcad	0.009215516
1	0x3c50797b	0.012724276
2	0xbb540405	-0.0032351029
3	0xbcce0170	-0.02514717
4	0xbcc2378d	-0.02370813
5	0xbb11e810	-0.0022263564
6	0x3d28ba50	0.041193306
7	0xbba194b5	-0.0049310573
8	0x3c030685	0.00799716
9	0x3bde8ef1	0.0067919423
10	0x3b80a855	0.0039263167
11	0xbc3e7e2b	-0.0116267605
12	0xbc8832d9	-0.016625809
13	0xbc7c85d4	-0.0154127665
14	0x3c5df40d	0.013546956
15	0xbc41e4ac	-0.011834305
16	0xba1d671d	-0.000600444
17	0x3ac52c71	0.0015043152
18	0x3bef91db	0.0073110885
19	0x3ba9a16a	0.0051767128
20	0x3bbf37a9	0.0058354926
21	0x3ceedaf4	0.02915714
22	0xbc2b5d89	-0.010459312
23	0x3c953553	0.018213904
24	0xbbb87ebf	-0.0056303437
25	0x3d1611d3	0.036638092
26	0xbc25d64f	-0.010121896
27	0x3c8c2f43	0.01711238
28	0xbb00c7b7	-0.001965029
29	0xbb8ecc55	-0.0043578544
30	0x3c11d7a3	0.008901509
31	0xbca119b1	-0.01966557
32	0x3c98c25e	0.018647369
33	0x3ce1d65c	0.027568035
34	0x3b841d44	0.004031809
35	0x3cb8a74a	0.022540707
36	0x3b339e3f	0.0027407554
37	0xba84f077	-0.0010142465
38	0xbcbbbe9c	-0.022918038
39	0x3d0766d7	0.03305706
40	0x3c25f6e1	0.010129661
41	0x3b98d482	0.004664005
42	0x3be921bd	0.0071146176
43	0x3cad6f38	0.021171197
44	0xbcbe5ccb	-0.023237607
45	0x3c9f9ddc	0.019484453
46	0x3c92f73f	0.017940162
47	0x3c283541	0.010266603
48	0xbb8dee6b	-0.0043314
49	0x3d246cdc	0.04014288
50	0xbc107bac	-0.008818548
51	0xbbb25cb3	-0.0054431795
52	0xbc0417d5	-0.008062323
53	0x3d1db432	0.038501926
54	0x38d48484	0.00010133631
55	0xbb9b7627	-0.0047443095
56	0xbabc746c	-0.0014377958
57	0x3cce31ca	0.025170226
58	0x3c554439	0.013016754
59	0xbc9bc22b	-0.019013485
60	0x3a6910aa	0.0008890728
61	0x3c3cfb0a	0.011534462
62	0x3c8c16fe	0.017100807
63	0x3c535149	0.012897798
64	0x3ba36f81	0.0049876575
65	0xbc000808	-0.007814415
66	0x3c70a8c4	0.014688674
67	0x3ab8e1e4	0.0014105407
68	0x3c1359c5	0.008993571
69	0x3c52e5e9	0.012872198
70	0xba02548e	-0.0004971706
71	0x3bef95aa	0.0073115425
72	0x3c4839c3	0.012220803
73	0xbcc3c419	-0.023897218
74	0x3c32a2d7	0.010903082
75	0x3ce058ab	0.02738603
76	0x3b3a6e3e	0.0028447057
77	0x3c1c2f2a	0.009532729
78	0x3c531746	0.012883967
79	0xbadf8df4	-0.0017055855
80	0x3bc94930	0.006142758
81	0x3be7a369	0.0070690406
82	0xbb3b47ff	-0.0028576849
83	0x3bef39b8	0.007300582
84	0x3c0e5c2b	0.008688967
85	0x3c6132ca	0.013745019
86	0x3cd167db	0.025562217
87	0x3c8e194b	0.017346045
88	0x3c1dad7c	0.009623881
89	0x3c62578b	0.013814817
90	0xbc0f59c3	-0.008749428
91	0x3c31f7b6	0.010862282
92	0xba610efc	-0.00085853017
93	0x3c88b1bf	0.016686318
94	0x3c0aa1ef	0.00846146
95	0xbccf827a	-0.02533077
96	0x3c7665ad	0.01503889
97	0xbc47fd7d	-0.012206432
98	0xbc75535f	-0.0149734905
99	0x3cf1edb6	0.029532295
100	0xbb918078	-0.0044403635
101	0x3b9d67aa	0.0048036175
102	0xbbd745a2	-0.00656958
103	0x3aedcc48	0.0018142546
104	0xbb7f634e	-0.0038969102
105	0x3cec1700	0.028819561
106	0xba62fe0d	-0.00086590723
107	0x3b61e740	0.003447011
108	0x3c53c363	0.012925002
109	0x3bebe56f	0.0071989815
110	0x399d3555	0.0002998511
111	0xbca40523	-0.02002198
112	0x3ca32c6b	0.019918641
113	0x3c800dd2	0.01563159
114	0x3ca90146	0.02063049
115	0x3c96b5dd	0.018397266
116	0x3d060a73	0.03272481
117	0x3d289586	0.04115822
118	0x3c353cc8	0.011061855
119	0xbc9a479b	-0.018832972
120	0xba39e009	-0.0007090574
121	0x3d2530aa	0.040329613
122	0x3cb742fb	0.022370806
123	0x3c48638c	0.012230765
124	0xbcec9b61	-0.028882684
125	0x3c6df27e	0.014523147
126	0xbbd92e53	-0.0066278367
127	0x3c9f9b37	0.019483192
128	0x3ca69153	0.020332968
129	0x3b437b15	0.0029828001
130	0x3c7e75b9	0.015530997
131	0x3d19f2dd	0.037585128
132	0x3c1a5c0e	0.009421362
133	0xbc1216f4	-0.008916605
134	0x3c9f87d6	0.019473951
135	0xbbd977e3	-0.006636606
136	0xbbb21772	-0.005434924
137	0x3c58c423	0.013230356
138	0xbaef2c57	-0.0018247467
139	0x3cb11668	0.02161713
140	0xbc007ca7	-0.007842219
141	0x3c9008f9	0.017582403
142	0xbc53ad56	-0.0129197445
143	0x3a7338af	0.0009278161
144	0x3d0516f5	0.032492597
145	0x3c381e66	0.011237716
146	0x3c3c8d14	0.011508245
147	0xba5d95c3	-0.0008452797
148	0x3ba59cb2	0.00505408
149	0x3c9e5ce8	0.01933141
150	0x3c5ffbfe	0.013670919
151	0x3ceac87e	0.028660055
152	0x3cd057d3	0.025432503
153	0x3c5a1f9d	0.013313201
154	0xbb70e9fc	-0.003676056
155	0xbcbc229c	-0.022965722
156	0xba6e06fb	-0.00090800197
157	0xbcbb049a	-0.022829343
158	0x3cf31267	0.02967186
159	0xbb486a79	-0.003058104
160	0xbb3e9f23	-0.0029086552
161	0x3ba69f12	0.0050848806
162	0x3c541913	0.012945431
163	0x3bbcb6be	0.0057590893
164	0x3c94b878	0.018154368
165	0x3c033bb9	0.008009844
166	0x3b5a3567	0.003329599
167	0x3d121427	0.03566375
168	0x3c4cc12a	0.012497226
169	0x3cbecb3f	0.023290275
170	0x3c5ca69d	0.013467458
171	0x3b47c017	0.0030479485
172	0x387c0422	6.008533e-05
173	0xbcbfdd7b	-0.02342104
174	0xbc829524	-0.015940256
175	0xb80fe54f	-3.4307417e-05
176	0x3c803009	0.015647905
177	0x3d0bc344	0.034121767
178	0xbb620ab7	-0.003449125
179	0x3c23d43d	0.009999332
180	0x3a18dd9e	0.00058313634
181	0x3c01459d	0.007890132
182	0x3c07f1f0	0.0082974285
183	0xbc54bbab	-0.012984197
184	0x3c6f6fb0	0.014614031
185	0xbca4b824	-0.020107336
186	0x3ca0434d	0.019563342
187	0x3bd8279f	0.00659652
188	0x3cee85ff	0.029116629
189	0x3c0f1aa6	0.008734381
190	0x3aa0023a	0.0012207695
191	0x3c67aa5a	0.014139736
192	0x3cb9d688	0.022685304
193	0x3b37fbb8	0.002807362
194	0x3c57ef4e	0.013179613
195	0xbc0868ee	-0.008325798
196	0x3cef9968	0.029247954
197	0x3c7fa4b9	0.015603238
198	0x3bb4b171	0.0055143167
199	0x3bafbe60	0.0053632706
200	0xbc1a4f79	-0.009418362
201	0xbb66bb9c	-0.0035207039
202	0x3c1abfab	0.009445111
203	0xbc81abbe	-0.015828963
204	0xbaf9a27a	-0.0019045614
205	0xbcac974d	-0.02106824
206	0x3c857552	0.016291294
207	0x3bdf125c	0.0068076085
208	0xbb0220fe	-0.001985609
209	0x3ce9523f	0.0284816
210	0xbc9def94	-0.019279279
211	0xbbed22ce	-0.007236815
212	0x3c0090aa	0.007846991
213	0xbd0ccc07	-0.034374263
214	0x3ceee02f	0.029159633
215	0xbb7be13e	-0.0038433815
216	0xbb72c3ec	-0.0037043048
217	0xbca26e29	-0.01982792
218	0x3b1db138	0.002406193
219	0x3c1f18db	0.009710516
220	0x3bd67fba	0.006545988
221	0xbc8ef8e6	-0.017452668
222	0x3caa78b9	0.020809518
223	0xbbd415aa	-0.006472309
224	0x3d175bc4	0.03695275
225	0x3c51cf4d	0.012805772
226	0xbc34ab52	-0.011027174
227	0x3ccf9cc2	0.025343303
228	0xbbac6048	-0.005260501
229	0x3c8eee0b	0.017447492
230	0xbba30da2	-0.0049759904
231	0x3b3c1b39	0.002870275
232	0x3c38f40d	0.011288655
233	0xbaefbcbb	-0.0018290499
234	0xbc5682f6	-0.013092747
235	0xba0c9827	-0.00053632486
236	0xbc4ecfb7	-0.012622765
237	0x3ceeadd4	0.029135622
238	0x3d118e6a	0.035536207
239	0xbba8e8d6	-0.0051547093
240	0xbadf86f0	-0.0017053764
241	0x3cc99df2	0.024611447
242	0x3b271aa9	0.0025498068
243	0x3c9fb1ba	0.019493926
244	0x3cd07a88	0.025449052
245	0xbaab2a14	-0.0013058805
246	0x3d33f29b	0.04393254
247	0x3c3d5d32	0.011557864
248	0x3c07b179	0.008282059
249	0xbb50525f	-0.0031787378
250	0x3d0735e1	0.033010367
251	0xbc36c115	-0.011154433
252	0xbb2e85cc	-0.0026630042
253	0x3d0aa1a0	0.033845544
254	0x3cb94c33	0.022619342
255	0x3ca18f4f	0.019721655

action_model._discrete_distribution.branches.0.weight f4 [3, 256]
0	0x3d815d74	0.06316653
1	0xbce8338d	-0.028344894
2	0x3db8e687	0.090283446
3	0x3d1b0d0c	0.03785424
4	0xbcc99df8	-0.024611458
5	0xbc5c6b6f	-0.013453349
6	0x3ba02c42	0.0048880884
7	0xbc7202d0	-0.014771178
8	0x3bab0d39	0.005220082
9	0xbd5a8541	-0.053349737
10	0xba2d7d63	-0.00066181103
11	0x3ca696cb	0.020335576
12	0x3d3c1535	0.045918662
13	0xbca13c31	-0.019682022
14	0x3ca90e02	0.020636562
15	0xbbd8f1e2	-0.0066206316
16	0x3c95c4ed	0.018282378
17	0x3d12591e	0.03572952
18	0xbd005afc	-0.03133677
19	0x3d60fe26	0.054929875
20	0x3cb93692	0.022609029
21	0x3d81d1fd	0.0633888
22	0xbb8f2a0f	-0.0043690274
23	0x3c5913b2	0.013249325
24	0xbd192274	-0.037386373
25	0x3d02c0dc	0.031922206
26	0x3c04d7ad	0.008108062
27	0x3d1a91d1	0.037736718
28	0xbcf26d30	-0.02959308
29	0xbc5fa799	-0.013650798
30	0x3da4c36d	0.08045087
31	0x3ce0bd9b	0.027434161
32	0xbc820c8d	-0.015875125
33	0xb9808464	-0.000245127
34	0x3d3bf7fa	0.045890786
35	0xbd18eae9	-0.037333403
36	0x3d3fbd57	0.046811428
37	0xbd049be2	-0.032375224
38	0xbc90f020	-0.017692626
39	0x3c650a31	0.013979481
40	0x3bcdb445	0.0062775933
41	0xbb4477e9	-0.0029978699
42	0x3cc9913f	0.024605392
43	0xbd70a3a3	-0.058749806
44	0x3c148310	0.009064451
45	0x3ce00568	0.027346328
46	0xbc9efeff	-0.019408701
47	0xbc77b262	-0.015118213
48	0xbd0fb9df	-0.03508937
49	0x3d067c37	0.032833304
50	0xbd19dc1e	-0.037563436
51	0x3c2441bb	0.010025437
52	0xbc8dc28a	-0.017304678
53	0xbcde30bb	-0.027122846
54	0xbd06365e	-0.032766692
55	0x3bd43269	0.006475736
56	0xbc51f24c	-0.012814116
57	0xbd0b873d	-0.03406452
58	0xbd1f1ff0	-0.038848817
59	0xbd1b89c4	-0.03797318
60	0xbc227dbf	-0.0099176755
61	0x3d521889	0.05129293
62	0xbd38b3a1	-0.045093182
63	0x3d3418ea	0.043969072
64	0x3d61783c	0.055046305
65	0x3d14906a	0.036270536
66	0x3d19a1bc	0.037507758
67	0xbd4fdbbc	-0.050746664
68	0x3d94953e	0.07255028
69	0x3d08a439	0.03335974
70	0xbc4d4b0c	-0.0125301
71	0x3ad88f17	0.0016522136
72	0xbc33e36b	-0.010979514
73	0x3d59a4dd	0.05313574
74	0xbd450238	-0.04809782
75	0xbd0dd6e6	-0.03462877
76	0xbc9ce49b	-0.019151976
77	0x3d9a7e82	0.07543661
78	0xbd0e64f9	-0.034764264
79	0xbbdb9580	-0.0067011714
80	0xbd468edd	-0.04847609
81	0xbc6d80f1	-0.014496074
82	0xbc84982b	-0.01618584
83	0x3ae57854	0.0017507174
84	0x3c2de592	0.010613816
85	0x3c6c37b1	0.014417575
86	0x3c7fd123	0.015613827
87	0xbb47b493	-0.003047262
88	0xbd2eb1c0	-0.042649984
89	0xbbc66de0	-0.0060555786
90	0xbcae91ce	-0.02130976
91	0xbc3078a5	-0.010770951
92	0x3d0af4a7	0.033924725
93	0xbcef4adf	-0.029210506
94	0xbd82a38f	-0.063788526
95	0x3c917336	0.017755132
96	0xbc3f9d4a	-0.0116952155
97	0xbbd5d93b	-0.00652614
98	0xbd176fdf	-0.036971923
99	0xbc8a1aff	-0.016858576
100	0xbb2adc51	-0.002607126
101	0xbd60ce6f	-0.05488437
102	0x3cde7eee	0.027160134
103	0x3c9a93da	0.01886933
104	0xbcbb0f4c	-0.022834443
105	0x3d56679f	0.052344915
106	0xbd8e3aec	-0.06944832
107	0xbc7b1ac5	-0.015326207
108	0x3d29607e	0.041351788
109	0xbc6808ca	-0.014162252
110	0x3d025d7e	0.031827442
111	0x3ce35732	0.027751539
112	0xbb317ca5	-0.002708235
113	0xbd28edba	-0.04124234
114	0xba1064a4	-0.00055081607
115	0x3cf4c9f3	0.029881453
116	0x3d194e7d	0.037428368
117	0x3576fdb6	9.201134e-07
118	0xbbc3b6cf	-0.00597272
119	0xbd070612	-0.032964773
120	0x3d78a330	0.060702503
121	0x3d337d69	0.043820772
122	0xbd28d8da	-0.04122243
123	0x3c3ca86e	0.011514766
124	0x3c24eaf4	0.010065783
125	0xbc8ef4f7	-0.017450793
126	0x3d7fa892	0.06241662
127	0xbd4fc6da	-0.05072675
128	0x3be21dfc	0.006900547
129	0xbcb445c0	-0.022005916
130	0xbc414b9e	-0.011797814
131	0xbd168be7	-0.036754515
132	0xbc03a6e8	-0.008035399
133	0x3cff0410	0.031129867
134	0x3be0b00f	0.0068569253
135	0x3c908744	0.017642625
136	0xbce7eabc	-0.028310172
137	0x3aa078e1	0.0012243056
138	0xbceb3a04	-0.028714187
139	0x3b91447d	0.0044332133
140	0x3c2f8347	0.010712451
141	0xbd55079f	-0.05200922
142	0x3cca30c0	0.024681449
143	0x3cfe62a8	0.031052902
144	0x3d78e1fd	0.060762394
145	0x3d9d6043	0.07684376
146	0xbd491314	-0.04909046
147	0xbc1cc099	-0.009567403
148	0xbc70e00d	-0.014701855
149	0xbc9b3713	-0.01894716
150	0xbc3b8bca	-0.0114469025
151	0xbcf69c5e	-0.030103859
152	0xbd0adb80	-0.033900738
153	0xbcbc4c51	-0.02298561
154	0xbbf1a420	-0.0073743016
155	0x3d361bcd	0.044460107
156	0x3d8a712d	0.06759868
157	0xbcc8c6a1	-0.024508776
158	0xbc883b11	-0.016629728
159	0xbc9faf3b	-0.019492736
160	0xbcc05b65	-0.02348108
161	0xbd9b24de	-0.07575391
162	0xbc573f9f	-0.013137727
163	0xbca2df7e	-0.01988196
164	0x3dbf7d9c	0.0935013
165	0xbd817ee5	-0.06323031
166	0x3b54e842	0.003248707
167	0x3cdf8e1c	0.027289443
168	0xbd44dc90	-0.048061907
169	0xbcbef6f8	-0.023311123
170	0xbd6bab71	-0.057536546
171	0x3cd56272	0.026047919
172	0xbd34026c	-0.043947622
173	0xbc36374a	-0.01112158
174	0x3d2bf12a	0.04197804
175	0xbb74b054	-0.0037336545
176	0x3cf1a993	0.029499805
177	0xbae28897	-0.0017283139
178	0x3cffa391	0.031205924
179	0x3c8e65f2	0.017382596
180	0xbc9ae701	-0.01890898
181	0xbcace6d7	-0.021106167
182	0x3d1089df	0.035287734
183	0xbcca7aec	-0.024716817
184	0xbdb2c957	-0.08729809
185	0xbd0a7724	-0.033805028
186	0xbc6b28b8	-0.01435297
187	0xbc9f207b	-0.019424668
188	0xbb2c5b2a	-0.0026299455
189	0x3b8db41c	0.004324449
190	0xbd2be18a	-0.041963138
191	0xbd38d302	-0.045123108
192	0xba84a771	-0.0010120702
193	0xbd8bd689	-0.06828029
194	0x3d1e4ba0	0.03864634
195	0xbd8e329b	-0.06943246
196	0x3b624ab7	0.0034529397
197	0x3c3e546d	0.011616808
198	0xbd461f42	-0.048369654
199	0xba1dfbf0	-0.00060266163
200	0x3cf7cf55	0.03025023
201	0x3ce906dd	0.028445655
202	0xbc5a5003	-0.01332474
203	0x3d8ad383	0.06778624
204	0xbb3a9c4c	-0.0028474508
205	0x3c9042b5	0.017609933
206	0x3c6353ba	0.013874942
207	0xbc66ecf2	-0.014094578
208	0x3c57d4dd	0.013173309
209	0xbd89d26b	-0.06729587
210	0xbd346a70	-0.04404682
211	0xbb766108	-0.0037594456
212	0x3c9adb12	0.018903289
213	0xbc9ad324	-0.018899508
214	0x3ae6b8d9	0.0017602696
215	0xbce83993	-0.028347766
216	0x3c899334	0.016793825
217	0x3d3ea7b3	0.04654665
218	0x3c82df68	0.015975669
219	0xbc9ac4c9	-0.018892663
220	0xbcd91b51	-0.026502283
221	0x3b8b8628	0.004257936
222	0x3c3b5031	0.011432693
223	0x3be02d99	0.006841373
224	0xbd8ddca3	-0.06926849
225	0xbc835f69	-0.016036706
226	0x3d5483a6	0.051883362
227	0x3db09d0d	0.08623705
228	0x3bfb84f9	0.0076757637
229	0xbcaee262	-0.021348182
230	0xbbea85e8	-0.007157076
231	0xbaf94b4a	-0.001901963
232	0xbd00a696	-0.03140887
233	0xbd3eaf2f	-0.046553787
234	0x3c7f0b41	0.015566648
235	0xbd06d1cd	-0.032914925
236	0xbb032a70	-0.0020014308
237	0xbcdc516c	-0.026894294
238	0x3d138985	0.03601982
239	0x3ca5e6d7	0.020251675
240	0xbd7e7585	-0.062123794
241	0xbd9435ca	-0.07236822
242	0xba280d95	-0.0006410715
243	0xba8fd455	-0.0010973314
244	0xbd2b5256	-0.04182657
245	0xbd4c13e9	-0.049823675
246	0xbc2426b3	-0.010018992
247	0x3bbc929a	0.005754781
248	0x3ce43dee	0.027861562
249	0x3d58906a	0.0528721
250	0x3cf84a9d	0.030309016
251	0x3c8912c4	0.016732581
252	0x3c46719e	0.012112049
253	0x3b835a85	0.0040085935
254	0x3d314324	0.04327692
255	0x3aabcb70	0.0013106894

action_model._discrete_distribution.branches.0.bias f4 [3]
0	0xbc30f2d5	-0.010800083
1	0x3cb6da14	0.022320785
2	0xbc55e95b	-0.013056125

action_model._discrete_distribution.branches.1.weight f4 [3, 256]
0	0x3a23f6d1	0.0006254735
1	0xbca8b5f4	-0.020594575
2	0xbc59213f	-0.013252555
3	0xbc9f4779	-0.01944326
4	0xbd41abf4	-0.047283128
5	0x3d4a608a	0.049408473
6	0x3d9cef4a	0.07662828
7	0xbd370ee3	-0.04469193
8	0xbc846633	-0.016162014
9	0x3d226961	0.03965128
10	0xbd1d9028	-0.038467556
11	0xbcff66fd	-0.031177038
12	0xbaf66a16	-0.0018799927
13	0xbcc3140e	-0.023813274
14	0x3d3bd6b9	0.045859072
15	0xbd5d5350	-0.05403453
16	0xbd94d015	-0.07266251
17	0xbbdd5c54	-0.006755391
18	0xbcf8a750	-0.030353218
19	0x3d847d0d	0.06469164
20	0x3d7579b5	0.059930522
21	0xbcb2600f	-0.02177432
22	0x3d5720ef	0.052521642
23	0x3d87424f	0.06604444
24	0x3d3bae65	0.045820612
25	0x3c14401c	0.009048488
26	0x3d2a708a	0.041611232
27	0x3d226252	0.039644547
28	0xbc316447	-0.010827131
29	0x3c68fa3d	0.014219818
30	0xbda3ff67	-0.080076985
31	0xbb972e07	-0.004613641
32	0x3ca69642	0.02033532
33	0xbc885c83	-0.016645676
34	0xbc636c6c	-0.01388083
35	0x3d2a3f94	0.04156454
36	0x3c9a3776	0.018825274
37	0xbd85ef16	-0.06539743
38	0x396b569e	0.00022443614
39	0x3d5d00f9	0.053956006
40	0x3d838d23	0.06423404
41	0x3cc87114	0.024467982
42	0xbd87b803	-0.06626894
43	0x3d02d577	0.031941857
44	0xbca35659	-0.019938635
45	0x3ca760f5	0.020431975
46	0x3c419940	0.011816323
47	0xbd0e404e	-0.034729294
48	0xbc58f300	-0.013241529
49	0xbcfa8c69	-0.03058453
50	0xbcb72b43	-0.022359496
51	0x3cbed314	0.02329401
52	0x3d0528a4	0.03250946
53	0xbd04f5f3	-0.032461118
54	0x3d1f623f	0.038912054
55	0x3bfd86d3	0.0077370196
56	0xbc037409	-0.00802327
57	0x3c8ef274	0.017449595
58	0xbc59fba3	-0.013304624
59	0xbc387fef	-0.0112609705
60	0xbcb92c2e	-0.022604074
61	0x3d0fd330	0.035113513
62	0xba68c8b9	-0.00088800077
63	0xbda20150	-0.079104066
64	0xbd787a25	-0.06066336
65	0xbd228c79	-0.039684746
66	0xbc8ad07a	-0.016945112
67	0x3c67552d	0.014119429
68	0xbce42031	-0.027847381
69	0xbd49d450	-0.049274743
70	0x3c4e732f	0.012600704
71	0x3d895750	0.06706107
72	0x3c4ad804	0.012380604
73	0xbc7dfffe	-0.015502928
74	0x3d089419	0.033344362
75	0x3cb4ff34	0.022094347
76	0xbc826c8e	-0.015920904
77	0x3d715459	0.05891833
78	0xbce20621	-0.027590813
79	0x3ca7d4ce	0.020487215
80	0xbc17e023	-0.009269747
81	0xb997773e	-0.00028889807
82	0x3cb86feb	0.022514304
83	0x3caa79a4	0.020809956
84	0x3d023bca	0.0317953
85	0xbb48471a	-0.0030559958
86	0xbd924517	-0.07142084
87	0x3c020f74	0.007938255
88	0x3d85bd83	0.06530287
89	0xbcd225f5	-0.025652865
90	0xbd84c4e5	-0.06482867
91	0x3b66eb27	0.0035235377
92	0xba668275	-0.00087932433
93	0x3cde767b	0.027156105
94	0xbd1e10de	-0.038590305
95	0xbd0213db	-0.031757217
96	0x3d318b8c	0.043345973
97	0x3c6497ea	0.013952235
98	0x3c561678	0.01306688
99	0xbc166b26	-0.00918082
100	0x3cc5d960	0.024151504
101	0xbc61332e	-0.013745112
102	0xbd63fbd1	-0.055660073
103	0xbd776105	-0.06039526
104	0x3b91928e	0.0044425195
105	0x3baea33e	0.0053295186
106	0xbc2a7639	-0.010404163
107	0x3cc78d3b	0.024359336
108	0x3d42d10b	0.04756264
109	0xbc69535c	-0.014241066
110	0xbd3cb4b9	-0.046070788
111	0x3d4f0394	0.05054052
112	0xbc5b4721	-0.013383658
113	0xbae68847	-0.0017588221
114	0x3d8c3503	0.06846049
115	0xbd2e3beb	-0.04253761
116	0xbd35c1b0	-0.044374168
117	0x3d737220	0.05943501
118	0x3cb0d019	0.021583604
119	0x3c840a4a	0.016118187
120	0xbabcbef4	-0.001440017
121	0x3cacd1a4	0.021096058
122	0xbd417145	-0.047227163
123	0xbcc4dfbe	-0.02403247
124	0x3c2454e4	0.010030005
125	0xbd0edf65	-0.034881014
126	0xbc43c413	-0.011948603
127	0x3bfe954b	0.007769262
128	0x3d31098a	0.043221988
129	0xbd52c53e	-0.051457636
130	0x3ce6392e	0.028103437
131	0x3c1ea80c	0.00968362
132	0x3d07f385	0.033191223
133	0xbbde0054	-0.0067749415
134	0xbcf8b208	-0.03035833
135	0xbd5068cc	-0.050881192
136	0xbcaa15e1	-0.020762386
137	0xbd991726	-0.07475118
138	0xbd15e00b	-0.036590617
139	0xbce9ae19	-0.028525399
140	0xbd49d612	-0.04927642
141	0xba68a70b	-0.0008874989
142	0x3cd67537	0.02617894
143	0x3c913cc7	0.017729176
144	0x3d50b1e8	0.050950915
145	0xbdc112bb	-0.09427401
146	0x3b8f03fd	0.004364489
147	0x3d953731	0.072859176
148	0x3d5c129d	0.05372869
149	0xbbe7df9d	-0.0070762173
150	0x3cb05a12	0.021527324
151	0x3d386f84	0.045028225
152	0xbd3779c9	-0.044793878
153	0xbc626ee8	-0.013820387
154	0xbd0af4b4	-0.033924773
155	0xbc0c3026	-0.008556401
156	0xbcbff2a1	-0.023431124
157	0x3c8555b6	0.016276222
158	0x3c25b26b	0.010113339
159	0x3ba34ee9	0.004983772
160	0x3cc46d32	0.02397785
161	0x3ca5c793	0.020236766
162	0x3c1a941a	0.009434724
163	0xbd128792	-0.03577382
164	0x3d3bdc25	0.045864243
165	0x3cfe8249	0.031067984
166	0x3d661149	0.05616883
167	0x3d12b821	0.03582013
168	0xbd98d264	-0.07462004
169	0xbcd94e86	-0.0265267
170	0x3d15eb9d	0.03660165
171	0xbc4b1ae1	-0.012396545
172	0x3c5c0198	0.013428114
173	0xbd2a3b36	-0.041560374
174	0x3c8a4803	0.016880041
175	0x3d1d3974	0.03838487
176	0xbc33a081	-0.01096356
177	0x3c591ffc	0.013252255
178	0x3d4df1e7	0.050279524
179	0xbd47fb52	-0.048823662
180	0x3ccc6ba4	0.02495367
181	0xbce7fe1c	-0.028319411
182	0xbb4e0187	-0.0031434016
183	0xbc10f07f	-0.008846401
184	0x3b819c0a	0.003955369
185	0x3c3bd43a	0.011464173
186	0xbcd7e990	-0.026356488
187	0x3cd68779	0.026187645
188	0x3ccecfe0	0.025245607
189	0x3caa1d39	0.020765888
190	0x3ccc4f79	0.02494024
191	0xbcb47710	-0.02202943
192	0x3ba9e52a	0.005184789
193	0xbd4e3dad	-0.050351787
194	0x3bee93ff	0.007280826
195	0xbcee49a5	-0.02908785
196	0x3c5a6a1d	0.013330963
197	0xbcc7b36e	-0.02437755
198	0xba0dd9f0	-0.00054111984
199	0xbc8accca	-0.016943354
200	0x3b90644e	0.0044064885
201	0xbc9bb25a	-0.019005943
202	0x3d57007a	0.05249069
203	0x3bbccf97	0.0057620513
204	0xbd5f13d5	-0.054462273
205	0xbc589146	-0.01321823
206	0xbc864a6d	-0.01639291
207	0xbbbb0900	-0.00570786
208	0xbd371e60	-0.044706702
209	0x3c5cfa3d	0.013487396
210	0x3b8e10eb	0.004335513
211	0xbcc64159	-0.024201082
212	0x3ca7aaf4	0.020467259
213	0xbcfb7c82	-0.030699018
214	0xbbd71644	-0.0065639336
215	0xbd3b082c	-0.04566209
216	0x3d8ed66d	0.06974492
217	0xbcce5ed1	-0.025191696
218	0xbd7e2a18	-0.062051862
219	0x3cc0270a	0.023456115
220	0x3c31355c	0.0108159445
221	0x3cdc907b	0.026924362
222	0x3d18a1f0	0.03726381
223	0xbc85fb7f	-0.016355274
224	0xbd035124	-0.032059804
225	0x3d08f710	0.033438742
226	0xbd3a6cec	-0.045514032
227	0x3d5255c7	0.051351335
228	0x3c915597	0.017741008
229	0x3b2aef86	0.0026082709
230	0xbd31a90f	-0.043374117
231	0x3bc68509	0.0060583395
232	0xbd39c95c	-0.045358047
233	0xbce0c142	-0.027435903
234	0xbd2a5d44	-0.04159285
235	0xbb9404d1	-0.0045171757
236	0xbd7dd5c4	-0.06197144
237	0x3cc256b6	0.023722988
238	0xb72187e2	-9.6279855e-06
239	0x3bff5083	0.00779158
240	0xbd0ce88b	-0.034401458
241	0xbca2298e	-0.019795205
242	0x3cbc234b	0.022966048
243	0xbcff6cb3	-0.031179762
244	0x3d2480fb	0.040162068
245	0xbce21554	-0.02759806
246	0x3c6b5836	0.014364293
247	0x3d04a7a5	0.03238644
248	0x3d6d14f7	0.05788132
249	0x3d75eb7d	0.060039032
250	0x3d0efd87	0.03490975
251	0xbcdcc48e	-0.026949193
252	0xbd83951a	-0.06424923
253	0xbc7eed3b	-0.01555949
254	0x3c85fa48	0.016354695
255	0x3cc9693c	0.024586312

action_model._discrete_distribution.branches.1.bias f4 [3]
0	0x3b5513d6	0.0032513044
1	0xbc136c9c	-0.008998062
2	0x3bfd450a	0.0077291774
