Assets/AIModels/(Med-Walls)Agent.onnx (onnx, 571189 bytes, 21 tensors)

discrete_act_size_vector f4 [1, 3]
00000000: 0000 4040 0000 4040 0000 0040
3.0 3.0 2.0

network_body.observation_encoder.processors.0.normalizer.running_mean f4 [104]
00000000: 242a 073c f711 203d d898 b93d 91c2 3b3f
00000010: 0b48 5c3d f776 813d f543 3e3c ea80 763e
00000020: 0ca8 fb3b 5538 093d 6e94 bf3d c122 3c3f
00000030: 60a2 213d a63d a63d d878 1f3c bee7 6c3e
00000040: d121 fb3b d9ad 1c3d 34df af3d 2ec3 3e3f
00000050: b666 8d3d 2848 343d 2491 233c 4ab2 6b3e
00000060: 2ee1 c83b a8df cf3c c324 c73d fc14 3e3f
00000070: 7548 f73c 328d ba3d acd7 f43b a983 563e
00000080: cd3d c73b bcde 063d 9d8b a43d 806c 433f
00000090: 31a8 a33d 20c2 f63c fb3d ed3b 53c4 513e
000000a0: 8972 953b eb71 983c 0c73 c83d 084b 423f
000000b0: 761f cc3c e651 b83d b96a a63b e268 3d3e
000000c0: 685d 963b e579 d43c 48d6 9e3d 3934 473f
000000d0: f62f b03d 17a5 bb3c 088e 9e3b 3ac6 333e
000000e0: 60c3 713b 8a5e 5e3c 5674 b43d 53cb 483f
000000f0: ff7c b23c 9046 ad3d 9e14 7e3b e6ab 2a3e
00000100: 5bd3 753b 4a80 a33c 8074 913d 850f 4b3f
00000110: ff92 b73d 1397 9b3c 0bdc 603b 822a 1e3e
00000120: df27 5f3b 9889 1f3c 1646 9c3d cebf 4e3f
00000130: 58ad a83c e09c a23d 6704 413b 5af6 1f3e
00000140: e353 423b 6b40 763c 164f 813d 0ff4 4e3f
00000150: cbf9 b73d 296f 913c 25e8 3b3b aab2 123e
00000160: 649c 503b 998f 033c 297c 863d 5a8e 533f
00000170: 28ec a93c 904a 963d 9c7a 2a3b 1a86 1e3e
00000180: f4d2 293b 5e18 463c f7c6 6a3d ee23 523f
00000190: 6066 b03d 0f40 963c 858a 2e3b c86f 113e
0.008249793 0.039079633 0.09062356 0.7334376 0.053779643 0.06321519 0.011612882 0.24072614
0.007679945 0.033500988 0.093544826 0.7349053 0.039461493 0.08117227 0.009733401 0.23135278
0.0076639433 0.03825173 0.085874945 0.7451657 0.06904356 0.044014126 0.009983335 0.2301723
0.006130359 0.025375202 0.097238086 0.7425077 0.030185917 0.09108962 0.007471999 0.20948662
0.0060803653 0.03292726 0.080344416 0.7633743 0.07991064 0.030121863 0.0072400547 0.20485048
0.004560773 0.018609008 0.097875684 0.7589574 0.024917345 0.08999996 0.0050786403 0.18497041
0.0045887716 0.02593703 0.07755715 0.7781406 0.08602898 0.02290587 0.004838709 0.17556086
0.0036890134 0.013572345 0.08811252 0.7843525 0.021788118 0.08460724 0.0038769613 0.16667137
0.003751001 0.019958634 0.07102299 0.79320556 0.08963584 0.018992936 0.0034310843 0.15445903
0.0034050865 0.009737395 0.07630555 0.8076142 0.02059047 0.07940078 0.0029452087 0.1562132
0.002965205 0.015030007 0.063139126 0.80841154 0.08983191 0.0177532 0.0028672304 0.14325967
0.0031831497 0.008029842 0.065666504 0.82639086 0.02074249 0.073384404 0.0026013022 0.15480843
0.0025913091 0.0120907705 0.057318654 0.82086074 0.086132765 0.018341092 0.0026632857 0.14202797

network_body.observation_encoder.processors.1.normalizer.running_mean f4 [65]
00000000: 7995 223c ddce 813c c67e aa3c 843b 4a3f
00000010: a374 533f cef8 153c 6715 543c 308d ef3c
00000020: e73b 483f eadb 513f 7f98 273c b28c a43c
00000030: b7d6 653c 1bb1 493f c1e5 523f 9757 fe3b
00000040: 61c3 363c ad20 1f3d 2509 443f c493 4e3f
00000050: e030 223c 7999 dd3c c85a 223c 2496 463f
00000060: 3657 503f 10f9 ce3b fd4e 1f3c ff15 3d3d
00000070: 96b9 3f3f 37fb 4a3f 7a77 123c 4073 123d
00000080: b116 003c 891f 413f 86e1 4b3f df86 983b
00000090: f7b6 0f3c 3291 533d 49d2 3b3f 22ac 473f
000000a0: 2df9 f43b 47ba 3a3d ffe9 d93b cbf6 3a3f
000000b0: c6b7 463f 7db1 4f3b 4e83 023c bebb 5a3d
000000c0: 3007 3a3f 8f0f 463f 8738 b93b 5542 593d
000000d0: c211 be3b 7813 363f 9885 423f e16a f23a
000000e0: 400e f43b 8512 573d f83c 3a3f 1723 463f
000000f0: 6f87 773b 18fe 673d ba79 ae3b 15af 333f
00000100: 196e 403f
0.009923332 0.01584571 0.020812403 0.78997064 0.8259985 0.009153558 0.012944556 0.029242128
0.78216404 0.8197619 0.010229229 0.02008662 0.014028243 0.78785866 0.82381827 0.0077619064
0.01115498 0.03884952 0.76576453 0.8069422 0.009899348 0.02705072 0.009909339 0.77572846
0.81383073 0.0063163117 0.009723422 0.046163555 0.74892557 0.79289573 0.008939618 0.035754442
0.00781791 0.75438744 0.79640996 0.0046547498 0.00877165 0.05165214 0.73367745 0.7799703
0.007475993 0.045587804 0.006650209 0.73032826 0.77624166 0.0031691485 0.007965876 0.0534017
0.7266722 0.7736749 0.0056524905 0.053041775 0.0058004567 0.71123457 0.759851 0.0018494987
0.007447988 0.052507896 0.7274928 0.7739729 0.0037769934 0.056638807 0.0053245695 0.7018903
0.75167996

network_body.observation_encoder.processors.2.normalizer.running_mean f4 [35]
00000000: 5544 6d3e db62 653e c92c 983d e00a 713d
00000010: 9bdf e83e bacb 713e fdf9 3b3e 5130 963d
00000020: 8e32 373d c3ed dd3e d6d5 693e 59bd 3a3e
00000030: d2e8 913d deb6 363d 972c db3e b5ee 793e
00000040: 9582 e63d 9462 963d 5eda d43c 537b cb3e
00000050: ed2e 6a3e 08e3 d33d 2cb7 8e3d d316 ba3c
00000060: 66c1 c13e 1cac 873e ad06 863d 0de8 ad3d
00000070: a59b 993c 7e00 c73e 0fb9 7a3e d003 6b3d
00000080: 5359 a43d 09e7 863c da24 ba3e
0.23170598 0.22400992 0.07430417 0.05884826 0.45483097 0.23612872 0.18357082 0.073334344
0.044725947 0.4334546 0.22835478 0.18236293 0.07124485 0.04460799 0.42807457 0.24407466
0.11255375 0.07343021 0.025983032 0.39742526 0.22869463 0.10346037 0.06968531 0.022715962
0.37842864 0.26498497 0.06544242 0.08491526 0.018750975 0.38867563 0.24484657 0.057376683
0.0802485 0.016467588 0.3635624

network_body.observation_encoder.processors.3.normalizer.running_mean f4 [45]
00000000: 64f5 113d 4806 e43d e4e4 ca3c b662 413d
00000010: 7dc7 ce3e 752a 0f3d fcd6 bd3d 0bb3 c83c
00000020: 9082 0f3d 38ac c03e 57dc 073d b2a9 b93d
00000030: 23ec bc3c 15bb 193d 5d10 c03e 8198 013d
00000040: 2623 623d e77d c23c d4e8 b83c 9372 a73e
00000050: ee93 e43c d991 503d ba9b ac3c 27fe a33c
00000060: cef2 a03e 9bee eb3c 5dc0 d83c b65e ca3c
00000070: 1e26 673c b86e 953e f127 cb3c 3fcd c33c
00000080: a0eb ab3c 7300 403c 20a0 8a3e 4a1d fc3c
00000090: 0f35 5c3c f1c8 fe3c 010f 373c 3cc3 913e
000000a0: 9570 d83c 32e9 4a3c 35a7 d83c ce30 223c
000000b0: 8c3c 863e
0.035634413 0.111340106 0.024767347 0.04721328 0.40386572 0.0349526 0.09269521 0.024499437
0.035036623 0.37631392 0.033169117 0.0906557 0.023061818 0.03753193 0.37512484 0.03163958
0.0552093 0.023741676 0.022571959 0.327046 0.02790257 0.05092034 0.02107035 0.02001865
0.31435245 0.0288003 0.026458913 0.024703365 0.014108209 0.29186034 0.024799319 0.02390158
0.020986378 0.011718857 0.2707529 0.030775685 0.0134403845 0.031101676 0.011173011 0.28469265
0.02642087 0.0123847 0.026446918 0.009899331 0.2621807

network_body.observation_encoder.processors.4.normalizer.running_mean f4 [27]
00000000: e5d3 b83c 2150 1640 f813 bd3d 0000 0000
00000010: 0000 0000 9deb 5b3f 0000 0000 8390 ae40
00000020: 074b a140 df2e b33c 71b1 1740 222e bd3d
00000030: 0000 0000 0000 0000 3ab0 5c3f 0000 0000
00000040: ad8a af40 b240 a240 2e70 b03c b4d5 1840
00000050: f53e bd3d 0000 0000 30da 5539 4975 5d3f
00000060: 244d f539 9386 b040 2c38 a340
0.022561977 2.3486407 0.09232324 0.0 0.0 0.8590639 0.0 5.4551406
5.0404086 0.021872936 2.3702052 0.09237315 0.0 0.0 0.862064 0.0
5.485678 5.0703974 0.021537866 2.3880434 0.09240524 0.0 0.00020394544 0.8650709
0.00046787516 5.5164275 5.100607

network_body._body_endoder.seq_layers.0.weight f4 [256, 276]
00000000: e9a0 0f3d 6654 ab3d 9ddb 1a3e de3a 6b3d
00000010: 71a7 77bd 61d6 2fbe 233d d9ba e0e0 90bd
00000020: 31f5 1f3c f984 60bd 7353 0b3b 4ff4 6a3c
00000030: df3a b5bd 1dce cfbb 3308 e43c fc98 633d
00000040: 5d1c 203d baf1 293d 7064 e4bc 65f4 98bc
00000050: c419 7bbb b07e bc3c d974 093d 445e 363e
00000060: d0f0 aa3c febe 833d bbd0 a83d cbed dabd
00000070: d4eb 6ebc 0041 7abd cfb2 903d 2d0d 8c3d
00000080: b3ba 4d3c e18c 50bb eb8d 553d 3ffc 2fbd
00000090: e7d7 2abd 5dda 0c3d e7c7 b9bc 222a 0c3d
000000a0: 924b 383b 326b a9bd a0e9 a73d 03ed 2dbd
000000b0: cf48 c13c 762b 16bd aea5 c73d 23f2 87bb
000000c0: b91c 153e 2b31 743d 2949 54bd e443 33bd
000000d0: 151d 80bd 285c b23c a8b4 5b3b c5fc a93d
000000e0: aafd a1bc 43d1 22bd faa9 a6bd 64cd af3d
000000f0: 7ddf b13d 31b3 f43b ceb9 7cbd e99c c33c
00000100: d676 c2bd 5ed5 813d 5d47 ed3b 76e8 a3bc
00000110: 370e febc c61b 9d3d fa3b b23b ae67 ecbc
00000120: f292 06bd dad4 a1bc 36fc 873d 9361 f4bc
00000130: 977d 8fbd 1835 d5bc fdbc 18bd 31b8 323d
00000140: e5be 3fbd 60a9 d43d a3dd 51bd 1d58 f73c
00000150: 7432 623d 1bb6 02bb 922e 1a3d 53ee 68bd
00000160: 1c93 7c3d 1abf 473d 88a5 2f3d cc34 653c
00000170: d536 223d d0e1 49bc d127 f1bc a161 01be
00000180: 58d4 b3bd 3d24 ab3d eb44 d9bc c1e1 10bd
00000190: 48c3 c4bd 16c8 0c3c 0cea 26bd f757 3bbc
000001a0: b035 183d ca56 47bb 31e9 5ebd 60f3 223d
000001b0: aea9 92bb 6511 61bc b47a 94bd 0127 3a3d
000001c0: 48c1 503c 0bf3 b73c 3a78 c63b 85b9 11bd
000001d0: 051b 0e3d 4b07 6d3c 9d97 343c b86f 373d
000001e0: a933 dabd 104b 4a3d 5cf3 af3d b285 14bc
000001f0: 1495 dbbd 3297 d5bd e4ab 253d 3f7e 03bc
00000200: 12db a33d 5752 9d3d a301 d4bc 9087 403d
00000210: 6d19 0a3e dc41 343c c580 05bd df87 20bd
00000220: 680b 353b b62c 143c aafc 93bb b456 c9bb
00000230: 2227 bc3b d185 12be ab65 303d cd6a b9bd
00000240: 16ea e73c b7db 99bc 0fe3 edbc a160 c13c
00000250: 7f83 3f3d 5f82 6bbc 51a8 ea3b 3be9 33bc
00000260: c4c1 37bc c7bb 6f3c 696a 3b3e 3b01 a5bc
00000270: 5324 d1bd 707b fe3d e749 663d c5fa 373c
00000280: ac7d 293d a58b 62bd e910 d63d 695d ca3c
00000290: 1d04 ddbd 2747 6b39 7495 0d3b 8707 583c
000002a0: 519f d53d 709e 4f3d c0a2 2abd cb19 db3c
000002b0: a086 823d 4bbd 243d 45b0 e23c 772b 353d
000002c0: 1a2a 57bd 10b1 023d 8415 24bd d997 8d3d
000002d0: f21c ebbd ac6d c9bd dd52 36bd 0186 663d
000002e0: 1207 7ebc c8dc 813d d3e0 853d 76c7 4c3d
000002f0: d422 c93c c96c 64bd eb42 c93b f1af f93a
00000300: 4c9c 993b 9d0a ddbd 19ef c6bd 2672 97bc
00000310: 3cdc 953c 7dca dcbb de1f 833d 6471 4bbd
00000320: f601 bebc f761 28bd ea6c 383c 691a 8a3c
00000330: 4907 8a3d 2b62 8fbc 90bf 9e3c a5a6 bc3c
00000340: addd f33c d592 223d b051 0d3d ec3a 2a3e
00000350: a215 f13c 1278 e43d ce77 1ebc ffb4 26bd
00000360: 3b3c 4ebc 369f 85bd 5f09 18bc 2a82 c2bd
00000370: 723e 24bc a8f7 8cbd 9939 ab3b ba2c de3c
00000380: 652e 453d cee5 abbd 5a3f 7cbd 87cd b7bd
00000390: 428e 09bc 7b10 b7bc 57f6 053e af23 ceba
000003a0: 422d 7fbd dfe0 d1bb 9853 a5bd 77f5 b63d
000003b0: 3790 623d 5cea 06be a04c 093b b2e5 55bc
000003c0: 84ab f33c 7af0 143c 4b32 91bd a66e f73c
000003d0: 581a 99bc d497 2abd ffb5 fdbb deb8 a8bd
000003e0: ffda 95bc 4fb3 5e3a 766b 07bd b94c 22bd
000003f0: 6dad 63bd cc54 863d bd02 cbbc a812 c33d
0.035065565 0.08365707 0.15122838 0.057429187 -0.06046242 -0.17171623 -0.0016574006 -0.070741415
0.009763048 -0.054814313 0.0021259456 0.014340474 -0.088491194 -0.0063417093 0.027835941 0.05556582
0.03908955 0.041490294 -0.027879924 -0.018671224 -0.0038314918 0.023009628 0.0335587 0.17809397
0.020866781 0.06432913 0.08242937 -0.10689887 -0.014582593 -0.061097145 0.07065355 0.068384506
0.01255672 -0.0031822252 0.052137297 -0.04296517 -0.041709807 0.034387935 -0.022678329 0.03421987
0.0028121215 -0.08272399 0.08198857 -0.04246236 0.023594288 -0.03666254 0.09748398 -0.004148738
0.14561738 0.059617203 -0.051827583 -0.043765917 -0.06255547 0.02177246 0.0033524428 0.08300165
-0.019774277 -0.03975035 -0.08137889 0.08584097 0.08685205 0.0074676503 -0.061700635 0.023878532
-0.094953224 0.06339525 0.007241173 -0.020008307 -0.031012638 0.07671313 0.0054392787 -0.028858032
-0.03285498 -0.019754816 0.06639902 -0.029831683 -0.07006376 -0.026026294 -0.03728961 0.04363269
-0.04681291 0.10383868 -0.05123676 0.030193383 0.055223897 -0.001994497 0.03764207 -0.05686791
0.061663732 0.048766233 0.042882472 0.013989639 0.039603073 -0.012321904 -0.029437931 -0.12634899
-0.08780736 0.08356521 -0.02652212 -0.035371546 -0.096075594 0.008592626 -0.04075055 -0.011434547
0.037160575 -0.003041672 -0.054421607 0.03978288 -0.004475794 -0.013737057 -0.07249966 0.045447353
0.012741394 0.02245476 0.0060568126 -0.035577316 0.034693737 0.014467071 0.011022476 0.044784278
-0.10654385 0.04938799 0.08591339 -0.009065079 -0.10721794 -0.10429229 0.04044713 -0.008025705
0.08000769 0.07681721 -0.025879687 0.047004282 0.13486262 0.01100203 -0.032593507 -0.039192077
0.0027625207 0.009043863 -0.004516204 -0.006144369 0.0057419697 -0.1430886 0.043065708 -0.09053574
0.028309863 -0.018781526 -0.029038934 0.023605647 0.046756264 -0.014374345 0.007161178 -0.010980899
-0.011215631 0.014632172 0.18302311 -0.020142188 -0.102120064 0.124258876 0.056222823 0.011229222
0.041379616 -0.055308957 0.10452444 0.024702745 -0.107918 0.00022437853 0.0021603974 0.013185388
0.10430778 0.050688207 -0.041659117 0.026745697 0.06373334 0.040219586 0.027671942 0.044230904
-0.052530386 0.03190714 -0.04005958 0.06913728 -0.1148013 -0.098353714 -0.04451262 0.05628014
-0.015504615 0.06340939 0.065370224 0.04999491 0.02455274 -0.055767808 0.0061420104 0.0019049627
0.0046878215 -0.1079304 -0.09713573 -0.018487047 0.018293492 -0.0067380057 0.064025626 -0.049668685
-0.023194294 -0.04110905 0.011256436 0.016858296 0.06739671 -0.017502865 0.019378453 0.023028681
0.02976879 0.03969081 0.03450173 0.1662404 0.02942926 0.11155714 -0.009672118 -0.040699955
-0.012587602 -0.06524508 -0.009279578 -0.09497483 -0.010024654 -0.06883174 0.005225372 0.027120937
0.04813995 -0.08393441 -0.061583854 -0.08974748 -0.008395733 -0.022346726 0.13082252 -0.0015727187
-0.06229902 -0.0064049806 -0.08072585 0.089335375 0.055313315 -0.13175339 0.0020950213 -0.013055252
0.029744871 0.009090537 -0.07089671 0.030204128 -0.01868932 -0.0416487 -0.007742643 -0.082383856
-0.018292902 0.0008495347 -0.033061467 -0.03962395 -0.055585314 0.065591425 -0.02478158 0.09525043

network_body._body_endoder.seq_layers.0.bias f4 [256]
00000000: a922 1e3d 52ee 833c 291a 003d 8a59 9cbb
00000010: e101 633c c46e f03b fecb 903c f07f 6d3c
00000020: 26ee 7e3c 25cf 853b 64f4 6b3c 1532 793c
00000030: 27a6 6d3c fcf1 b83c 288f 8d3c ecd2 f13c
00000040: e8a8 9c3b 7235 b23c adec c0bb 4494 cf3c
00000050: 8b88 29bb 96b4 933c 19dd a7b9 c7e9 d23b
00000060: 0e2f fbba 22aa b83b e3d4 9f3c 1f33 883a
00000070: ad66 f03b b775 d43c f5bf db3c 7081 623c
00000080: d82a 9f3c 744f df3b acb4 ab3c 10e0 0e3c
00000090: 55ec 79ba ed11 dc3c 6c05 783c d611 d13c
000000a0: 2e34 963c ea95 2c3c c2d3 563c 667b b33b
000000b0: 2297 df3c b337 e33c 5fea 853c 1741 b93c
000000c0: 33d9 423c 8a10 013d 846e 023a 890f 643c
000000d0: 5e68 b73c 81aa 883c 922e d63b 9f3f 903c
000000e0: 10d5 663c f31e 663c 2579 bbbb d73e 1b3c
000000f0: 214b dc3a c39e bb3c 57c0 b73c 4600 f7bb
00000100: f844 993b 2630 403c 7bee 013d 0e22 ac3c
00000110: cdab 893b 37e4 0a3c ca28 14bc a840 88bb
00000120: 25e8 523c 71d8 763c 5f00 763c c729 733c
00000130: a59b db3b 45a9 aabc f4f1 003c db74 fe3a
00000140: c629 bebb e897 4e3c 76e8 223c 8882 2ebb
00000150: de8d 1d3d fae4 ac3c eede 723c 8894 983c
00000160: a91f 843c 470c 063b d41a d33c d307 493c
00000170: 14a7 4a3c 6896 0e3c 6d52 463c 0ab5 ff3b
00000180: e250 833c 9448 c63c 075e 09ba e7cf bf3c
00000190: 8751 043b 3b0c 913b 9e9d d63c 8670 043c
000001a0: cdaa 54bc 236b 233c fdb7 113d 2f43 0f3c
000001b0: e7ee 8b3c 1947 85bb 4ec6 20bc c7d7 8bbc
000001c0: 098e 723c 9ee6 8c3c 1728 af3c abc2 9d3b
000001d0: f46c 6b3c 1ab2 2fbc 6661 78bc 01b7 273c
000001e0: db6d 21bb b5ba bd3c 2e0f 873c b965 cb3c
000001f0: bcb4 8f3c dee7 c83a b75f 84bb dfcf 343c
00000200: 970c a03c c373 973b 7ee3 523c 6c6a 3b3c
00000210: c2d9 633c 09f7 a63c 6caf 4f3b a381 3e3b
00000220: 893a 6a3c 9e5c c43c 1c15 25ba 90df b33c
00000230: a281 583c 0b49 9b3c fadf 5c3c ca6d b03b
00000240: 5f98 55bb b507 2d3c ac76 a03c d835 723c
00000250: 0da6 223c cebb 193c d0b5 0e3c ec38 3b3c
00000260: c522 ba3c bb19 833c 694c 913c 6700 893c
00000270: a545 fe3b e680 61bc f330 b83b 4515 623c
00000280: 6d77 a63c f606 2139 fb07 07bb 4cb1 303c
00000290: 3938 66bb 1399 393c f3b0 d73c 12e3 e539
000002a0: b2bc d239 8c19 b13c 5b48 c53c 5b6f a53c
000002b0: fa6d 713c e96b 273c 7c0e 8fba a728 ff3b
000002c0: 87ed 7bba 036f 023c 91d7 8c3c f570 233a
000002d0: 2db0 b53c cbcc 8c3b 61c9 523c f9d4 ea3b
000002e0: 4f0d d03c e0c0 ed3b 68ab a43c 464d cb3c
000002f0: 02b8 28bb cf52 a1bb 800f 953b 8ad9 b83c
00000300: 4cb1 723c 1da1 0b3c a611 173c 0d68 183c
00000310: 90b4 2c3c 7974 713c 0538 523b 3cbc abba
00000320: 9669 3d3c 3167 843b 6635 a53b a620 903b
00000330: fbd9 df3c e690 7a3c 3483 6e3c 80f5 a23a
00000340: 9e56 413c 4634 e73c bb77 6b3c 6e3c 343c
00000350: 802f 8c3c fb8e 1e3c c304 903b 65d6 913c
00000360: 0bdb c53c c5ca 4abc faad 3dbc 9c95 db3b
00000370: 1fa3 a13c 9158 243c 750b e93b c8bc 9b3c
00000380: 6ae8 873c 99bc 173c c9dc a93c aaf7 47b9
00000390: d00c d43b 0692 743c 7b7e 6b3c 94fa e63b
000003a0: 2d4d 153c d6fb c03c 4ee9 363b bd7f 853c
000003b0: a525 273c 8a52 323b 7563 1d3c a241 8c3c
000003c0: 73f6 b53b bc81 d7bb f04d c93c 92c6 a7bc
000003d0: 5669 153c c55c cf3c 835f f23b f831 b53c
000003e0: 1998 d83c 4a60 463c 8751 013c 8985 313b
000003f0: 2cf2 2d3c e963 943c 22d3 b73c 8038 603a
0.038607273 0.01610485 0.03127495 -0.004771416 0.013855428 0.007337423 0.017675396 0.014495835
0.015559709 0.0040835314 0.014401529 0.015209694 0.014504946 0.022576325 0.017280176 0.02951952
0.0047808774 0.021754 -0.005887589 0.025339253 -0.002586874 0.018030446 -0.00032017453 0.00643656
-0.0019163804 0.005635516 0.019510692 0.0010391212 0.0073364587 0.025935037 0.02682493 0.013824806
0.01942961 0.0068148915 0.020960175 0.008720413 -0.00095338124 0.026864016 0.015138011 0.0255212
0.018335428 0.010533789 0.01311201 0.0054773567 0.027293745 0.02773652 0.016347108 0.022614045
0.011892605 0.031509914 0.00049755746 0.0139197195 0.022388633 0.016682865 0.0065363133 0.017608462
0.014088884 0.014045465 -0.0057212287 0.009475431 0.0016807058 0.022902852 0.022430582 -0.0075378744
0.004677411 0.0117302295 0.031721573 0.021012332 0.0042013885 0.008477262 -0.009042928 -0.0041580983
0.01287273 0.015066252 0.015014737 0.014841503 0.006701904 -0.020832667 0.007870186 0.0019413488
-0.0058033196 0.012609459 0.009943118 -0.0026628096 0.038465373 0.021105278 0.014823658 0.018625513
0.016128378 0.0020454095 0.025769629 0.012269932 0.012368936 0.008702852 0.012104613 0.007803564
0.016029779 0.02420453 -0.00052401464 0.023414565 0.0020190196 0.004426507 0.026198205 0.008083468
-0.012980175 0.009974274 0.035575856 0.008744045 0.017081691 -0.0040673134 -0.0098129045 -0.017070664
0.014804372 0.01719981 0.021381421 0.004814466 0.014369238 -0.010723615 -0.01515994 0.010236503
-0.002463213 0.023160318 0.01648673 0.024828779 0.017542236 0.0015327891 -0.0040397304 0.011035888
0.019537253 0.004621954 0.012871621 0.011438947 0.013906898 0.020381467 0.0031690253 0.0029068969
0.014296182 0.023969945 -0.0006297396 0.021957189 0.013214501 0.018955728 0.013481135 0.0053841816
-0.003259204 0.0105609195 0.019587837 0.014783345 0.009927285 0.009383155 0.00871034 0.011427145
0.022721658 0.01600348 0.01773663 0.016723825 0.007759767 -0.013763642 0.0056210696 0.013799016
0.020320619 0.0001535675 -0.0020604122 0.010784458 -0.0035128726 0.011328 0.026329493 0.00043847464
0.0004019491 0.021618627 0.024082353 0.0201947 0.014735693 0.010218599 -0.0010914351 0.0077868286
-0.00096102845 0.007961038 0.017192634 0.00062347885 0.022178734 0.004296874 0.012865395 0.0071665016
0.025396971 0.0072556585 0.020101264 0.02481712 -0.0025744443 -0.0049232016 0.004548967 0.022564668
0.014812779 0.008522299 0.009220516 0.009302151 0.010541096 0.014737242 0.0032076847 -0.0013102363
0.011560818 0.0040406217 0.005041766 0.0043984232 0.02732562 0.015293336 0.014557648 0.0012432784
0.011800436 0.028223168 0.014371808 0.011000736 0.017112494 0.009677644 0.004395099 0.017802427
0.0241523 -0.012377446 -0.011577124 0.0067011844 0.019731103 0.0100308815 0.0071119615 0.019010916
0.016590316 0.009261274 0.020735161 -0.00019070381 0.006471254 0.014927393 0.014373417 0.007048914
0.009112638 0.023557585 0.0027910057 0.016296262 0.010201846 0.0027209842 0.009606232 0.01712114
0.0055530607 -0.006576745 0.024573296 -0.020480428 0.009119352 0.02531279 0.00739664 0.022118554
0.026439713 0.012107918 0.007892973 0.002708765 0.01061682 0.018114047 0.022439543 0.0008553341

network_body._body_endoder.seq_layers.2.weight f4 [256, 256]
00000000: eda9 b3bb ed18 7fbd c6c7 a3bc b413 8ebc
00000010: f0d7 a63d 9a71 903d 4ac2 1b3d 1012 f3bc
00000020: 8a11 503d 43bc bf3d c20f d3bb e6c3 31bd
00000030: d6c8 783d 5aa9 5d3c 9a58 043c 8043 b7bc
00000040: 7965 4a3d 2235 c2bd 4513 66bd 9b44 d0bd
00000050: 760f aabd a169 dfbd e766 68bc 64fb d43c
00000060: 5036 44bd 56d2 593d 5861 cbbd e94c f33d
00000070: a8c6 2a3d e300 c83b 32b4 f9bc ba76 0d3d
00000080: a6eb 22bd fd48 3d3d 537b c0bc 48d1 b3bd
00000090: ad51 b43c 240b 63bc 80f0 e1bc 573a c43c
000000a0: e0d0 fcbc 79f2 8fbd a92a 5d3d adf4 ba3b
000000b0: ca41 ca3d 242a b13c 7a4c c1bd d52a 41bd
000000c0: 21b2 dd3c d13d a6bd e844 0f3c 445f 61bc
000000d0: 26a1 1cbd eda8 04bd 0635 c8bb 6649 94bd
000000e0: 0f9c eabc ee14 48bd 0882 993a 5602 1a3c
000000f0: 96b2 8e3d 6ae6 c43d 0daa 4ebd 3b27 a03d
00000100: 92f3 17bd feb4 973d 1154 623d a3ae e63c
00000110: a878 763d 71b7 6e3c 1422 f5bb f498 883b
00000120: 070c fbbd 1602 f53c 47f5 633d b1c4 643d
00000130: c4e1 4b3d e9d3 af3a 4d54 373e 3369 fe3d
00000140: 139d 833b 9c4f 0f3d 4a83 c13d 918a 25bc
00000150: 2026 a73d d7cf 3e3b f12a 0bbd 1695 15bd
00000160: 06b5 5abd 290d 38bc 7e20 4f3e 50db f43c
00000170: 5ffa 70be bd7b bf3a 2cb5 e9bd 205b 4ebd
00000180: e5b7 133e af79 923d d574 ebbc f4be 37bd
00000190: b302 51bd 8da8 653d cf2c 1dbd 29c7 83ba
000001a0: 0457 403c fc68 84bd d250 40bc c550 77bd
000001b0: c021 8cbd 9558 0f3d 9b43 f13d b9c2 8a3d
000001c0: d685 a13d 0d70 823d 1055 bf3d 2be8 12bc
000001d0: e025 3d3d 1f88 95bd 3e8c af3d 6c1f bebd
000001e0: d573 a33d f44c e5bc 3ae0 453d 3c70 bdbc
000001f0: c41a fa3d 8f1b bdbd 29fc 3ebd 3988 3e3b
00000200: 546b 633d d1de 52bd 1638 f83c 51a9 9e3d
00000210: a473 b53d eaf3 b93c b3e6 80bc 52f2 b4bc
00000220: 8648 3ebd 5c05 503c 338e 023d a91c c8bb
00000230: d010 bb3d 3803 263d e7fb 8abc 6949 9bbc
00000240: 8c39 c63d be39 8dbd 562d df3d 0fed d33c
00000250: 4fa7 283d 499b 863d ba42 cbbc 262e 593c
00000260: 2b19 343d 8ac2 d3bc 8593 d73c 0de5 213e
00000270: 5ca3 e3bd 961e 483d 1ad8 c63d 8f67 253d
00000280: e3e3 133d a531 61bd e50e 9fbd b6da c7bc
00000290: 8400 be3a 52f0 3c3c 9f47 643d b703 a5bd
000002a0: 60ce 3a3c 586f 59bd 02a6 133d a8af 05bd
000002b0: b258 4cbd 20e6 70bd 59cd abbd 9825 aebd
000002c0: e756 3a3b 3151 21bc e4c3 2a3d 8f09 9a3c
000002d0: 4492 cd3d f4e7 653d 94ad 6f3d 9212 91bc
000002e0: 30e0 123d 2d7d 66bd 16c0 7d3d 9b68 283d
000002f0: b914 173d 926a 843d 87c4 253c c5cf 79bd
00000300: f410 d73c c147 7fbd 7189 da3c dff9 ca3d
00000310: c477 103d b111 633e 09a2 57bc fdf0 713d
00000320: a8db 483d 385b 1c3d 2d9e 253c edcc 663d
00000330: f104 a4bc 554a b7bd b9c2 fabd 89b2 c8bb
00000340: 5bec 94bd a961 1b3b e401 a63c c616 86bd
00000350: 5574 d43a ba4f 8e3d 58bf 39bd b119 e13d
00000360: 77f9 233d b158 6fbd bc70 ab3b 9f7c e63c
00000370: 5919 a3bd 7fa6 da3c 0d07 873d bf30 84bd
00000380: bc43 2f3d af1b d1ba e79b ec3c 82cd 453a
00000390: b01f 29bd fefa 983d 0793 a53c 5706 98bd
000003a0: b872 f73c 36e4 4b3d 9e2c e43c 8859 aabd
000003b0: 9bc3 723d 1a99 fa3c 41f8 e1bd 70f5 b33c
000003c0: 481d e53c ebee e8bc 360d a83d da7b 3a3e
000003d0: 508e 40bd ae9d 003d e191 d7bd 2a19 963c
000003e0: 3e01 953b 06eb f9bc 9ed3 eabc 3188 133e
000003f0: 7d7f b7bd c50e b53c e515 593c 86e9 833c
-0.005482903 -0.06227963 -0.01999272 -0.01734338 0.081466556 0.07052918 0.038027085 -0.029671699
0.050797977 0.0936208 -0.0064410875 -0.043399714 0.060738407 0.013529146 0.008077765 -0.022371054
0.049413178 -0.094827905 -0.05617072 -0.101693355 -0.0830373 -0.10908819 -0.01418469 0.025998779
-0.04790336 0.053179108 -0.09930676 0.11879904 0.04169336 0.0061036213 -0.030481432 0.034537055
-0.039775513 0.046212185 -0.023496306 -0.087801516 0.022011602 -0.013857637 -0.0275805 0.0239536
-0.030861318 -0.0702867 0.053995762 0.005705437 0.098758295 0.02162654 -0.09438415 -0.04715999
0.027062478 -0.08117259 0.008744456 -0.013755623 -0.03823962 -0.032387663 -0.0061098365 -0.07240562
-0.028638868 -0.048848085 0.0011711726 0.009399971 0.06967656 0.096142605 -0.05045514 0.078199826
-0.03709752 0.074075684 0.055255953 0.028159445 0.06017366 0.014570103 -0.007480869 0.004168624
-0.122581534 0.029908221 0.055653837 0.055851642 0.049775854 0.0013414595 0.17903252 0.12422409
0.0040165274 0.03498803 0.094488695 -0.010103838 0.08161569 0.0029115581 -0.0339765 -0.036519133
-0.053395294 -0.011233606 0.20227239 0.029889733 -0.23533009 0.001460902 -0.11411509 -0.050379872
0.14425619 0.071521156 -0.028742233 -0.04485984 -0.051027965 0.056068946 -0.03837281 -0.0010053861
0.011739496 -0.06465337 -0.011738019 -0.060379762 -0.06842375 0.034996588 0.11780473 0.06775422
0.07886855 0.06369028 0.09342396 -0.008966486 0.0461787 -0.07301354 0.08571671 -0.09283337
0.079810776 -0.027990796 0.048309542 -0.023124807 0.122121364 -0.09233772 -0.046627197 0.0029072894
0.055522278 -0.051482026 0.030300181 0.07747138 0.08859947 0.022699315 -0.015735006 -0.022088204
-0.046455882 0.01269659 0.031873893 -0.006106932 0.09134066 0.040530413 -0.01696582 -0.018955903
0.09678945 -0.06895779 0.10897319 0.025869874 0.041175183 0.06572587 -0.024812091 0.013255632
0.043969315 -0.0258496 0.02631546 0.15810032 -0.11115143 0.048857294 0.09709187 0.040381964
0.036106 -0.054978985 -0.07766513 -0.024396282 0.0014496003 0.011531906 0.055732366 -0.08057349
0.011401743 -0.0530847 0.03604699 -0.032638222 -0.049889274 -0.058813214 -0.08388776 -0.08503264
0.0028433145 -0.009846018 0.041690722 0.018803386 0.100376636 0.05612941 0.058515146 -0.01770905
0.035858333 -0.05627172 0.061950766 0.041115385 0.036884997 0.06465639 0.010117657 -0.06098916
0.026253201 -0.06232429 0.026676865 0.099109404 0.035270467 0.22174717 -0.013161191 0.059067715
0.049037606 0.03817293 0.010108513 0.056347776 -0.020021887 -0.089497246 -0.12244172 -0.0061247987
-0.07271644 0.0023709333 0.020264573 -0.065473124 0.0016208986 0.069488004 -0.045348495 0.10991228
0.04003283 -0.058434192 0.005231945 0.028135596 -0.07963819 0.02669072 0.06593142 -0.0645461
0.042789206 -0.0015953685 0.028882934 0.00075455767 -0.041289985 0.07469748 0.02021171 -0.07423084
0.03020607 0.049778186 0.027853306 -0.08317858 0.059268575 0.030590583 -0.11033679 0.02196762
0.027968064 -0.028434237 0.08205645 0.18211308 -0.04701072 0.031400375 -0.10525871 0.018322546
0.004547267 -0.030507576 -0.02866536 0.14407422 -0.08959863 0.02210177 0.013249849 0.016102564

network_body._body_endoder.seq_layers.2.bias f4 [256]
00000000: 0576 4b3c 50f0 053c ef81 f43b 1e35 2b3c
00000010: 483d a3bb 70ae 5a3c c9c3 373c 9fa1 953c
00000020: 189a 513c ea7d c13b 5d37 593c cbf5 863c
00000030: 35ca 0b3c f115 f939 2122 243b ee09 913c
00000040: d1d6 203b 284d 343c 6c51 8d3c 2063 a13a
00000050: 2e20 3d3c 7e51 293c 0272 3c3c ee0b 5f3b
00000060: d83c 493a c30b 8b3c 8d49 793c c23c 8a3a
00000070: 6694 6b3c 90df 4a3b 3b83 a53c c3c5 2c3c
00000080: 52f8 7d3c c3be 483c 004c 1d3c dc44 fb3b
00000090: bf38 9f3c c3c0 a33b c11b 9d3c c292 523c
000000a0: 56a0 ba3b ff84 2e3c a555 873c 0dfb 883c
000000b0: 1a8c 873b 3330 6a3c 11de 943c 2766 0b3c
000000c0: ea39 aa3b 3531 3a3c c599 a43b d12f fe3b
000000d0: 2454 c53b efbb 393c 9c2d 753c 684b 083c
000000e0: 9570 843c 8ff8 3c3c 9363 ca3c 4d31 a13c
000000f0: cbdc 903c bdfc e73b 1ab4 873c 7dd8 193a
00000100: 2098 583b 6151 6b3c 631f 1d3b 4338 9f3c
00000110: fe1b 063c 0ae3 8bbb 500a 3c3c 5fb0 a83c
00000120: 691d 853c 5132 c8b9 cef4 333c 8df1 383c
00000130: cd62 fe3a 2a91 033c 92b5 903b 4fc6 493c
00000140: 2386 463c 30f5 6f3c 4e27 213c 7012 1fba
00000150: 3587 043c da73 083c 186c f23a f0d4 e13b
00000160: 716e 9c3c 9209 623c 7661 053b 668c bcbb
00000170: ea79 453c 9952 503c c62e be3c 4e53 48bb
00000180: c6b1 afb9 5a4a 123c 2aaa b93b a056 0b3c
00000190: 5933 a73c 4b54 8a3c a187 883c 829d 173c
000001a0: 4208 953b 067e 113c 85bb aabb 6bc4 643b
000001b0: 5f14 283c 2d71 ae3c f384 353c c0ef ab3c
000001c0: 49c9 4d3c d9af 3d3c c2e1 c53b 9d1c e03a
000001d0: 3420 6e3c ab24 1d3c 55cd df3b ba87 ce3b
000001e0: 32fe 343c c0af af3c b106 623c 4b4d 153c
000001f0: 6356 e13b 52e8 8f3c fb2b bf3c e73f 3f3c
00000200: f6d0 cc3b 9709 053c 7af8 883c a091 1abb
00000210: 8dab 753c 4970 013a 195d bb3b 442e 213c
00000220: 5d3c 4f3c 76b2 b63c 3ac9 723c 24de e33b
00000230: 8baa 883b 1a6f ab3c b3dd 553c 0d32 673c
00000240: c331 483c 7a80 4b3c 4627 7f3c c185 b93c
00000250: ee22 a63b eac0 233c 3bdb 6c3c 0662 4d3c
00000260: 494c e63b d25a 823b 1bb6 923c 1c34 5c3c
00000270: d1fa d23b a3a0 f23b 77ad a93b 61d6 c83b
00000280: 7783 123c f10d 8e3c 7032 5c3c 80be f53b
00000290: 7619 5b3c e5d0 1c3c d1f0 a4bb 2ad9 173c
000002a0: aca1 df3a c344 b83a 49b3 013c 57c3 d13c
000002b0: 8288 93b9 7f44 103c 8d33 d83b fa50 053a
000002c0: 46fe c83a 4762 6b3c c204 edba 3564 253c
000002d0: f501 333c 7170 5e3c 7ac9 b53c f7bf 5c3c
000002e0: ceb9 883c 300a ed3a 07f2 8f3c 4848 cd3b
000002f0: 5f81 fb3b e21e 443c 03c3 223c 5056 1d3c
00000300: 0a7c 943c b027 723c 2af0 713c 65de da39
00000310: cff4 893c f184 613c 75c6 a93a a642 4cbb
00000320: 7341 273c 03e2 133c b92b 3d3c fab5 a43c
00000330: 0ea8 993c 96b5 8e3c 92bb 2a3c 8c40 d5ba
00000340: b235 603c 2ed0 fd3b 6c83 d73b 76c8 863b
00000350: f5b5 20bb d7bd 9c3c cf42 e33b 6f03 bf3c
00000360: 841e afbb 8a1a 7e3c 3c95 a33c 854c 923c
00000370: b3ea 383c 37e3 4fba 983c b33c 34a1 773b
00000380: a476 4f3c 4c8f d03a 300d 253c 63e4 693c
00000390: a5cf 5d3c 392f 703c a4c9 dc3b 49eb b73a
000003a0: 1586 67ba a08a d23b 19ff 473c 70b1 783c
000003b0: 4117 0a3c 7e01 833c 2404 a03c 9d4b 613c
000003c0: a396 c9bb 4992 7c3c 5ec9 823c f353 0b3c
000003d0: 9a66 a53c 06dc af3b 625b d63a 6358 513c
000003e0: 599a 143c e610 e33c d935 573c 3dc9 3e3c
000003f0: 483e 623c 2d4d 9b3c 4318 b73b 8b85 bb3b
0.012418275 0.008174971 0.0074617784 0.010449676 -0.0049816705 0.013347253 0.011216112 0.018265544
0.0127930865 0.0059049027 0.013257829 0.016474625 0.008532097 0.0004750933 0.0025044756 0.01770493
0.0024542103 0.011004724 0.017250739 0.0012312867 0.011543317 0.010334371 0.011501791 0.003403421
0.0007676608 0.016973382 0.01521529 0.0010546672 0.014378643 0.0030956008 0.020204177 0.010545197
0.015501099 0.012252512 0.009600639 0.007668121 0.019436238 0.004997344 0.019178273 0.012852373
0.005695383 0.010651826 0.01652033 0.016721273 0.0041365745 0.014293718 0.018172296 0.008508242
0.005194892 0.011364271 0.0050232136 0.007757165 0.0060219932 0.011336311 0.014964487 0.0083187595
0.016166965 0.01153387 0.024705684 0.019676829 0.017683407 0.0070796893 0.016565371 0.0005868746
0.0033049658 0.014362664 0.0023975007 0.019436007 0.008185385 -0.0042690085 0.011477068 0.020591913
0.016249375 -0.0003818446 0.010983659 0.011288059 0.0019408107 0.008030215 0.004416176 0.012315347
0.012116942 0.01464586 0.009836031 -0.0006068116 0.0080888765 0.008328402 0.0018495349 0.006891839
0.019095631 0.013796227 0.002035228 -0.0057540415 0.012052992 0.012715005 0.023215663 -0.0030567232
-0.00033511053 0.00892886 0.005666037 0.00850454 0.020410227 0.016885897 0.016666235 0.009253861
0.0045481035 0.008880144 -0.0052103424 0.0034907113 0.010258763 0.0212942 0.011079061 0.020988345
0.012560197 0.01157757 0.0060388753 0.0017098371 0.014534045 0.009591262 0.0068298974 0.006302801
0.011046933 0.021446109 0.013795541 0.009112666 0.006876753 0.017566834 0.023336401 0.01167295
0.006250496 0.008119962 0.016720045 -0.0023585334 0.014994514 0.0004937691 0.005717885 0.009837691
0.012648669 0.022301894 0.014818484 0.0069539715 0.004170721 0.020927 0.0130533455 0.014111054
0.012218895 0.012420768 0.015573328 0.022646787 0.005070082 0.009994725 0.0144565655 0.012535578
0.007028137 0.003978112 0.0179091 0.013440158 0.006438591 0.0074044033 0.0051781493 0.0061290716
0.0089424765 0.017340632 0.01343976 0.007499516 0.01337277 0.009571289 -0.0050335904 0.009268085
0.0017061732 0.0014058579 0.00791628 0.02560584 -0.0002813973 0.008805393 0.006597942 0.0005085614
0.0015334568 0.014366693 -0.0018083083 0.010094692 0.01092576 0.013576613 0.022190798 0.013473502
0.016690161 0.0018084701 0.017571462 0.00626472 0.0076753343 0.011970254 0.00993419 0.009603098
0.018125553 0.01477997 0.014766732 0.00041745897 0.016840367 0.013764606 0.0012952822 -0.0031167655
0.010208475 0.009026053 0.011546069 0.020106304 0.018756893 0.017420571 0.010420697 -0.0016269847
0.013684677 0.007745764 0.006576946 0.0041132523 -0.0024522517 0.019133491 0.0069354544 0.023317067
-0.005344214 0.015509257 0.019968621 0.017858753 0.011286425 -0.0007930281 0.02187948 0.0037785294
0.0126625635 0.0015911846 0.010073945 0.014275643 0.013538276 0.014659696 0.0067379046 0.0014031912
-0.00088319305 0.006425217 0.012206816 0.015179023 0.008428396 0.015991922 0.019533224 0.013750938
-0.0061519905 0.0154157365 0.01596516 0.008503902 0.020190526 0.005366805 0.0016354138 0.012777421
0.0090700025 0.027718019 0.013135397 0.011644659 0.013808794 0.018957699 0.005587609 0.0057227067

action_model._discrete_distribution.branches.0.weight f4 [3, 256]
00000000: 27fb 25bc 9ea6 1bbc 4d16 683c 6c99 d5bc
00000010: a459 343c 9c7c e33b edfe e4bb 0d3e 25bc
00000020: ebb8 02bc e246 bcbb 9d9e 39bc ce3a c7bb
00000030: 351b e23a beda 8d3b dd09 373b 0a9e 23bb
00000040: 5555 52bc 816a 463a 211b b3ba 171f 47bc
00000050: 414d 4bbc fe70 2ebc 20d4 81bb d5b1 f23b
00000060: 904b 893c b784 f7ba 2fbe 2dbc eae7 8c3b
00000070: 6185 81bb 12e5 50bc 473e 9fbc fe19 85ba
00000080: 6878 51bc 05db 733c 3dd9 f53b 31d5 2dbb
00000090: f903 94ba 2e9c 8d3c 2b43 8f3a 820b a6bb
000000a0: 777f 15bc 98d9 68bc 6dbb 313b 2925 96bb
000000b0: 9375 0e3b aef5 41bb 1707 b2ba 5e82 1d3c
000000c0: 813b a3bb 121e 813b 9e46 c0bb 0b3f 59ba
000000d0: 74a5 d8ba 553f 28bc d6d1 a3bc b0e4 c33b
000000e0: cc3a c2bb 7a62 86bb 4539 89bb c671 3fbc
000000f0: 79ad b6bb 821a 4237 1587 14bc 0288 c53a
00000100: f884 9e3a 545d 04bc 6e7d 94bb 8ffa 023c
00000110: 278f 41bc bf46 093c 4892 9bbb 15be 14bb
00000120: 0fde 32bc 2f21 173c f126 e43a 2970 a8bb
00000130: ccff 8d3b 146c a6bc c31e 673c 489a 58bc
00000140: efb8 513a 6c4f 8c3c ef11 a4ba 2ef6 2c3b
00000150: 805a 06bb 5468 863b bdda d9ba b52b c73a
00000160: 507c 64bb 2fde 55bc 0831 ee3b be0d a83b
00000170: e88c 513b 6ba3 8bbc 8cee 91bb 3d9f 883c
00000180: c528 97bc 567e b8bc ca9f 33bc 6540 58bc
00000190: 4ce9 e1bb b7d7 37bc d4a1 a6bb 2185 cfbc
000001a0: 8ccc 40bc 7e24 a53a e495 97b9 e11a b63b
000001b0: 1e2e dc39 8e94 b2b7 178a 6abc fb6c 75bb
000001c0: a1d6 aebb 147d 40bc 5a32 69bb ae05 2fbc
000001d0: 549c 52bc 2126 403c 7cbb 91b9 966b 2ebc
000001e0: 9aec 95bc 4e33 46bc 72cc 2ebc 06a2 e23a
000001f0: d17f 9bbb e337 42bc 0ab7 973a ed03 d3ba
00000200: 91fb 603b 2546 2ebc 1e19 3cbc 05d7 663c
00000210: 2666 22bc e272 cdba b74e 4abc 13da 00bc
00000220: 8545 a4ba 62b3 45bc 58b1 61bb d2fc 6aba
00000230: b7c3 d0bb 9429 6cbc 8c9b e2bc d8cd 01bc
00000240: 500c 43bb 65dc 9fbb a156 20bc f8f4 98ba
00000250: 6bea 74bc 8a6b c239 0410 b9bb 6cd1 3ebc
00000260: c4ed 12bc 0109 f5ba 4c49 93bb 58c0 52bb
00000270: d91e ebbb f2f0 a13a ffad 9b3c d8a0 e73b
00000280: 85c3 ce3b a6bf c5bb 7f49 97bb c741 c6bb
00000290: d18c 683b 00ad e43b c01a f73b 4e4e e1bb
000002a0: ce4a 7a3b 150f 823b 49a6 abbb 0c71 f7bb
000002b0: 44bc 51ba 7b23 f8b8 c54b f8bb dd08 05bb
000002c0: df5d 973b a157 69bc 0049 073c 84d4 833c
000002d0: d686 83bb 193e 80bc af9d d43b b6c4 dfba
000002e0: d04a 8fbc 96f6 5bbc 06de 693b c196 153c
000002f0: 5b98 a5bb 2d7a 15bb be11 79bc 45f6 52bb
00000300: 45c9 7cbc 1640 5f3a a6b3 ee3b db41 a03b
00000310: 642b f53b 0046 bcbb a44f 6ebb 129e 70bb
00000320: c5fb 8b3c 71a1 e73b aa1a 61bc e531 0cba
00000330: 1d97 9dbc 2c71 913c cc5f 4cbc b245 50bc
00000340: a5db 42ba 868c d3bb 8ced 9ebb 547c 1ebb
00000350: 7766 753b d124 67bc d97c 31bc 33aa 6cbc
00000360: 17f1 d73b 4ccb 11bc 55a4 18bc 89e0 9bbc
00000370: 8ce9 f4bb 38b9 0bbc 9236 6abb 15d6 eb3b
00000380: 98e5 07bc 3d58 a93b 3e91 813b 7508 23bc
00000390: c0d1 543c 8242 a33b 8608 1c3c 91ce 483b
000003a0: 6c67 8e3c 95d8 3cbc 3f5e 62ba 2c0b 30bc
000003b0: 4caf a7bb 6d1d 8f3b 3296 3fbc 3615 ddba
000003c0: 9b1c 243b 33d5 5fbc dfac 88bb de0c afbb
000003d0: 161d 62bc 6e50 3dbc 353e 84b9 2cef 71bc
000003e0: 1916 463b ea2f 7c39 93a8 b8bb 9d22 b93a
000003f0: c51d 233c 8656 91bb b579 1fbc 55ae e4bb
-0.01013068 -0.009500174 0.014165473 -0.026074134 0.0110077 0.006942345 -0.0069883973 -0.010085595
-0.007978658 -0.0057457546 -0.01132932 -0.006080008 0.001725054 0.0043290546 0.0027929463 -0.0024966025
-0.012837728 0.0007568971 -0.0013664701 -0.0121534085 -0.0124085555 -0.010647057 -0.003962055 0.007406453
0.016759664 -0.0018884157 -0.010604425 0.0043001072 -0.0039526676 -0.012749927 -0.019438876 -0.0010154841
-0.012785055 0.014883761 0.0075027035 -0.0026524777 -0.0011292688 0.017286386 0.0010930052 -0.00506729
-0.009124628 -0.014212035 0.002711977 -0.0045820666 0.002173756 -0.00295959 -0.0013582435 0.0096136015
-0.0049814587 0.0039403522 -0.005867793 -0.0008287287 -0.0016528801 -0.010269006 -0.019997519 0.0059781894
-0.0059274193 -0.004101095 -0.0041877353 -0.011684841 -0.005574879 1.1569473e-05 -0.009065409 0.0015070441
0.0012094071 -0.008078892 -0.004531554 0.007994308 -0.011813915 0.008378684 -0.0047476627 -0.0022696306
-0.010917201 0.00922422 0.0017406625 -0.0051403237 0.004333472 -0.020315208 0.014106455 -0.013220377
0.00080002745 0.017127715 -0.0012517552 0.0026391852 -0.002050072 0.0041017924 -0.0016620975 0.0015195521
-0.0034864135 -0.013053461 0.0072690286 0.0051285913 0.0031974856 -0.017045697 -0.004453486 0.016677493
-0.018452058 -0.02252118 -0.01096339 -0.013198947 -0.0068942662 -0.011220864 -0.0050852094 -0.025332035
-0.011767518 0.0012599376 -0.00028912642 0.0055574034 0.0004199603 -2.128843e-05 -0.01431515 -0.003744899
-0.0053356444 -0.011748571 -0.003558299 -0.0106825065 -0.012854654 0.011727841 -0.00027796242 -0.010645768
-0.018301297 -0.012097193 -0.010668861 0.0017290718 -0.0047454615 -0.011854145 0.0011574936 -0.0016099192
0.0034329633 -0.010636841 -0.011480598 0.014089351 -0.009912049 -0.0015674497 -0.012347869 -0.007864493
-0.0012532925 -0.012066694 -0.003443798 -0.0008964065 -0.0063709873 -0.01441421 -0.027662061 -0.007922612
-0.0029761977 -0.004878568 -0.009786279 -0.0011669686 -0.014948468 0.00037082686 -0.005647661 -0.01164661
-0.008967821 -0.00186947 -0.0044948217 -0.0032158103 -0.007175308 0.0012355132 0.019003866 0.0070687346
0.006309929 -0.006034809 -0.0046169157 -0.0060503217 0.0035484324 0.006978631 0.0075410306 -0.0068757897
0.003819156 0.003969083 -0.0052383286 -0.007551318 -0.0008000771 -0.0001183217 -0.007577392 -0.0020299472
0.0046193446 -0.014242084 0.008257151 0.016092546 -0.0040138764 -0.01565461 0.006488524 -0.0017072174
-0.017491728 -0.01342549 0.0035685315 0.009130181 -0.0050535626 -0.0022808418 -0.015201984 -0.0032190245
-0.015428846 0.00085163245 0.0072845994 0.004890663 0.007481979 -0.0057456493 -0.0036363387 -0.003671531
0.017087827 0.007068806 -0.013739267 -0.0005348011 -0.019237095 0.01775416 -0.012474012 -0.012711929
-0.0007433242 -0.0064559607 -0.004850095 -0.0024182992 0.0037445107 -0.014107899 -0.010832989 -0.0144448755
0.0065900194 -0.008898567 -0.009316524 -0.019027965 -0.00747413 -0.008528046 -0.0035738093 0.0071971514
-0.0082944855 0.0051679895 0.003954082 -0.009950747 0.012989461 0.0049822936 0.0095235165 0.0030640701
0.0173833 -0.011526247 -0.00086352596 -0.010744851 -0.0051173326 0.0043675215 -0.011693524 -0.0016867283
0.0025041464 -0.0136616705 -0.0041709985 -0.00534211 -0.01380088 -0.01155482 -0.0002522335 -0.014766496
0.0030225574 0.00024050442 -0.00563533 0.0014124695 0.009955828 -0.004435363 -0.009733607 -0.00697879

action_model._discrete_distribution.branches.0.bias f4 [3]
00000000: af0e c0bb c953 d23b a542 8dba
-0.0058611254 0.0064186794 -0.0010777308

action_model._discrete_distribution.branches.1.weight f4 [3, 256]
00000000: b2cb da3a 605e 4e3b 6254 4cbc 80d3 3d3a
00000010: d021 f9b9 2d2c f73a a2f1 7abc 70e3 d938
00000020: ad78 d9b9 e776 653a d7d1 adbb aeb1 b1bb
00000030: e045 b9bb ca1e 6c3c 2998 203c 9be4 0b3b
00000040: 2e00 b5bb f21b 36bb 433b d0bb 1eb7 acbb
00000050: 64fa 31bc 542b 86bb 3e81 333c 60c8 673c
00000060: 01e2 7f3c 06c6 ac3b 3831 b9b9 f959 ea3b
00000070: 3177 cb3b b8c3 1bbb 0703 1cbc a7fd 913b
00000080: 2387 7fbc 8235 1cbc 8f1f 0ebc eb35 ee3b
00000090: 3e24 92bc 9e75 acbb 6798 19bc c043 493c
000000a0: a624 943c 2acd 043c 5b7a 8bbb a433 9138
000000b0: 4e1f a8bb 2e9c 383b 7b77 9fbb 4cba 2ebc
000000c0: 6b25 383b 4a04 8ebc 7fbd f63a 8556 2abb
000000d0: 0ff4 3ebb 0fa2 7fbc 43e5 caba 827b 203c
000000e0: 6fd8 35bc c684 32bc 54c2 27bc 9385 43bc
000000f0: 1ddc 18bc 5099 88bb 8a6a 473c 2252 863b
00000100: ccdd 0cbc 958c a2bc f632 61ba 8920 b4bc
00000110: aa13 2b38 6780 db3a 7ea4 2d3c a87c 84b9
00000120: 1547 863b 1c63 42bc 78eb 823a a343 60bc
00000130: 912b 993a 825f 193b 068d 183c 05b2 a03b
00000140: a1cc ff3b f354 ed3a 29a9 04bc 72fd 383b
00000150: 969f 5e3b 3e58 52bc 2672 5f3c b9df 87bb
00000160: 9f68 353b de80 46bc 79f0 0f3c 509f 0e39
00000170: 073e 52bc 8add 2f3c 6933 3bbb 02b5 183c
00000180: 452b 843a 42b7 513b de0e b73b 199b 1fbc
00000190: 3151 d8bb 66f0 aeba 7b68 c1ba 26d8 6a3c
000001a0: 72fe 0fbb 1452 f5bb 1351 41bb c117 e83b
000001b0: 04a0 64bb a8df 78bc 8867 c03b 36ce 8dba
000001c0: 6c9a 24bc e095 f1bb 4e89 de39 d366 853b
000001d0: e4c0 343b b97c 4d3b 93c4 1dbc 6ae7 d43b
000001e0: fe44 4ebb d0e1 07bc ebcf 053b ce04 e9bb
000001f0: c0e5 40bb 7f90 f8bb e004 78bb 7467 8a39
00000200: 438d 1439 67e6 6f3b 5534 d6bb 7c38 73bb
00000210: 2571 8dbb 57a8 a03b 8485 08bc c617 58bc
00000220: 6fbd 8bbb 3b33 35bc 63e5 dbbb c658 52bc
00000230: e09f aaba fc82 02bc 1444 f3bb 1768 3c3c
00000240: 8f64 303c a0ff 383b 4c35 b7bb 82b0 81ba
00000250: f626 1f3b b702 0e3b 5a27 88bc 7218 9cbb
00000260: 5847 e73b bfe5 7f3c 8eea a43b 5811 a13b
00000270: 9efd 1cbc e9ef 72bc a26e 66bc 5954 aa3b
00000280: 80b5 74bc 1e16 1637 00c1 dc39 291f 7e3b
00000290: 57f9 68bc 52ff a8bb fbfb 3e3b f2cd 8ebc
000002a0: 62cd 1fbc 4bb9 9ebc 3460 7a3c 4383 7bbc
000002b0: 951c 94bb 9aad b3bb 3b62 813b b444 48bb
000002c0: d782 57bc 8a86 d0bb 8bc8 b6bb a521 90bb
000002d0: 146f 09bc ddf1 18ba 000c ae39 61c6 da3a
000002e0: d0c1 14bb f726 f4bb f5a9 81bb 56d6 7fbb
000002f0: 21a2 b4bb a864 f4bb 2e47 613b 1225 913b
00000300: 90c3 05ba e9a2 00bc 9e8c 713b 5b4a 193c
00000310: af07 61ba df5d 1ebc 8f0c 99bb d835 ae3b
00000320: 8cbd 88bc 2eba 27bc 96fc 663b f0be 19bc
00000330: 5e9b 2d3b 0120 61bb ba4e d4bb ffcb 253c
00000340: c9d6 5abc 9e80 f0bb 26f9 e7bb 9013 97bc
00000350: e397 433c 24d0 e93a e3dc 43bc 9990 70bb
00000360: 7274 933c 4264 cdbb 8272 99ba dba3 56b8
00000370: ec30 97bb 5627 e93b 3aff 833b 7cba 31bb
00000380: 36d1 8cbb 7101 54bc 4139 11b8 4f85 ecbb
00000390: 1168 5cba b5c8 943b 4681 6fbc 0a2a 693b
000003a0: 9b64 b4bb 4be5 53bc aa1a 4ebc 5f38 15bc
000003b0: fe6c 823c 3d48 373c 1608 48bc 134a 3cbc
000003c0: a470 693b 8d21 ce3b 0ee2 32bc 89ed 4f3c
000003d0: 7167 a8ba 8848 0d3b 748f 893c dba4 0d3b
000003e0: 9070 0c3c 6c2a 98bc 5187 553b 1d84 67ba
000003f0: 0c07 f83a b5a7 2abc 710d 97bb 9c4c a23c
0.0016692786 0.0031489357 -0.01247129 0.0007241294 -0.00047518173 0.001885777 -0.015316399 0.0001038973
-0.00041479376 0.00087533746 -0.005304556 -0.0054227924 -0.0056540817 0.014411638 0.009801903 0.0021345976
-0.005523703 -0.0027787653 -0.006354721 -0.0052708527 -0.01086292 -0.0040945206 0.010956107 0.014146894
0.015617848 0.0052726297 -0.0003532262 0.007151839 0.006209277 -0.002376778 -0.009522206 0.0044552865
-0.015596184 -0.009534242 -0.008674516 0.007269611 -0.017839547 -0.0052630445 -0.009374714 0.012284219
0.018083882 0.008105556 -0.0042565293 6.9237576e-05 -0.005130685 0.0028169262 -0.004866538 -0.010664534
0.0028098475 -0.01733603 0.0018824785 -0.002599151 -0.002913717 -0.015602603 -0.0015479702 0.009795072
-0.011098965 -0.0108959135 -0.0102392025 -0.011933702 -0.009329823 -0.004168667 0.012171397 0.0040991465
-0.008597802 -0.019842425 -0.00085906626 -0.02198817 4.078789e-05 0.0016746641 0.0105983 -0.00025269878
0.004097829 -0.01186445 0.0009988388 -0.013688001 0.0011685957 0.0023402874 0.009310966 0.004904034
0.007806376 0.0018106982 -0.008096972 0.0028227237 0.0033969632 -0.012838421 0.013638055 -0.004146543
0.0027680767 -0.012115685 0.0087853605 0.00013601524 -0.012832171 0.010733971 -0.0028564578 0.009320499
0.0010083696 0.00320001 0.005586489 -0.009741568 -0.0066014756 -0.0013346791 -0.0014755869 0.01433376
-0.002197173 -0.007486591 -0.0029497787 0.00708291 -0.0034885416 -0.015190043 0.005871717 -0.0010818902
-0.010046583 -0.007372603 0.0004244544 0.0040710955 0.0027580792 0.0031354858 -0.0096293865 0.0064973133
-0.0031474228 -0.008293584 0.0020418118 -0.0071111685 -0.0029433817 -0.0075855847 -0.0037844703 0.0002639849
0.00014167004 0.0036605836 -0.006537 -0.0037112525 -0.0043164664 0.00490288 -0.008332614 -0.013189262
-0.0042645256 -0.011059578 -0.0067106946 -0.012838548 -0.0013017617 -0.007965799 -0.007423887 0.011499426
0.010766163 0.0028228536 -0.0055910703 -0.0009894522 0.0024284697 0.0021669099 -0.016620327 -0.0047636563
0.0070580654 0.015618741 0.005032844 0.0049153976 -0.009581951 -0.014827707 -0.014064463 0.0051980433
-0.014935851 8.945846e-06 0.00042105466 0.0038775897 -0.0142196035 -0.0051573897 0.0029141891 -0.017432187
-0.009753557 -0.019375464 0.015281726 -0.015351119 -0.004520009 -0.0054833414 0.0039484776 -0.0030558528
-0.013153753 -0.0063636946 -0.005578106 -0.004398542 -0.0083882995 -0.000583438 0.00033196807 0.0016691202
-0.002269853 -0.007450934 -0.003957028 -0.0039037666 -0.0055124913 -0.007458288 0.0034374702 0.004429468
-0.00051026884 -0.007851341 0.0036857496 0.009356107 -0.0008584214 -0.009665935 -0.0046706866 0.0053164773
-0.016691945 -0.01023726 0.0035245768 -0.009383902 0.002649031 -0.0034351351 -0.0064791115 0.010119437
-0.013356873 -0.007339551 -0.0070792614 -0.018441945 0.011938068 0.001783852 -0.011954519 -0.003670728
0.017999861 -0.006268055 -0.00117071 -5.117418e-05 -0.0046139862 0.007115285 0.004028228 -0.002711921
-0.004297401 -0.012939797 -3.4624016e-05 -0.00721804 -0.0008407841 0.0045405277 -0.0146182235 0.0035578036
-0.005505157 -0.012933086 -0.012579599 -0.009107678 0.015921112 0.011186657 -0.012208959 -0.01149227
0.0035620118 0.0062906207 -0.010918153 0.01269091 -0.0012848211 0.0021558125 0.016792037 0.0021613154
0.008571759 -0.018574916 0.0032581876 -0.0008831637 0.0018922999 -0.010415961 -0.0046097566 0.01981192

action_model._discrete_distribution.branches.1.bias f4 [3]
00000000: 53a1 88bb b523 4b3b fcd5 903a
-0.004169622 0.0030996625 0.00110501
