Assets/AIModels/(Medium-Walls)Agent.onnx (onnx, 481399 bytes, 21 tensors)

discrete_act_size_vector f4 [1, 3]
3.0 3.0 2.0
00000000: 0000 4040 0000 4040 0000 0040

network_body.observation_encoder.processors.0.normalizer.running_mean f4 [78]
0.0062195687 0.17675169 0.05503817 0.75353676 0.008451423 0.241566 0.005787594 0.17202187
0.055436075 0.75899625 0.007755456 0.23411573 0.006103573 0.17353004 0.05429821 0.75859064
0.0074754762 0.23389676 0.004575679 0.15703063 0.05354023 0.7784007 0.0064495606 0.21695562
0.0051396387 0.1607188 0.049472526 0.77891266 0.0057535907 0.21594921 0.0036317417 0.14022028
0.05061646 0.80102205 0.004507695 0.19435765 0.0039057212 0.14697158 0.045866754 0.79914486
0.0041097207 0.19258273 0.0029157943 0.12508735 0.04382699 0.8247403 0.0034277586 0.1735941
0.0030917854 0.13209674 0.040143173 0.8216699 0.0029977935 0.17302412 0.0025558178 0.11427002
0.039469257 0.8410645 0.0026378145 0.1602025 0.002647817 0.12192932 0.03566753 0.8370362
0.0027178093 0.16062741 0.0023378346 0.10867021 0.03453159 0.8519023 0.0025558197 0.15688297
0.00232584 0.11383609 0.032165784 0.84932894 0.0023418395 0.15659732
00000000: 86cd cb3b 65fe 343e b46f 613d c9e7 403f
00000010: d677 0a3c 145d 773e dba5 bd3b 8026 303e
00000020: f010 633d 944d 423f 7b21 fe3b 09bc 6f3e
00000030: 7b00 c83b dcb1 313e cd67 5e3d ff32 423f
00000040: d7f4 f43b a282 6f3e 94ef 953b a3cc 203e
00000050: 004d 5b3d 4545 473f d656 d33b 9d29 5e3e
00000060: 6a6a a83b 7893 243e b4a3 4a3d d266 473f
00000070: 9e88 bc3b ca21 5d3e 8402 6e3b e895 0f3e
00000080: 3553 4f3d c80f 4d3f 49b5 933b b105 473e
00000090: 21f7 7f3b b87f 163e c7de 3b3d c294 4c3f
000000a0: d6aa 863b 6834 453e e916 3f3b e616 003e
000000b0: ee83 333d 2e22 533f 3fa4 603b a7c2 313e
000000c0: 8d9f 4a3b 5e44 073e 2b6d 243d f558 523f
000000d0: a176 443b 3c2d 313e 827f 273b 6606 ea3d
000000e0: 84aa 213d 0150 573f 2fdf 2c3b 200c 243e
000000f0: ff86 2d3b 14b6 f93d 1e18 123d 0148 563f
00000100: 461d 323b 837b 243e 5b36 193b 7d8e de3d
00000110: ff70 0d3d 4516 5a3f 8a7f 273b eea5 203e
00000120: 1f6d 183b e522 e93d 45c0 033d 9f6d 593f
00000130: 8c79 193b 0c5b 203e

network_body.observation_encoder.processors.1.normalizer.running_mean f4 [26]
0.8317962 0.8591447 0.8276105 0.8559065 0.8312555 0.8587699 0.82280445 0.85145575
0.82880604 0.85662025 0.8138324 0.84434414 0.8209933 0.85034305 0.80628395 0.8377223
0.81166106 0.8426477 0.7957154 0.8293185 0.8016036 0.8344012 0.78816694 0.8233516
0.79144424 0.82650244
00000000: 99f0 543f e8f0 5b3f 48de 533f b01c 5b3f
00000010: 29cd 543f 58d8 5b3f 50a3 523f 01f9 593f
00000020: a22c 543f 774b 5b3f 5257 503f f026 583f
00000030: 9e2c 523f 15b0 593f a068 4e3f f874 563f
00000040: 05c9 4f3f c2b7 573f 01b4 4b3f 384e 543f
00000050: e535 4d3f 519b 553f 4fc5 493f 2cc7 523f
00000060: 179c 4a3f aa95 533f

network_body.observation_encoder.processors.2.normalizer.running_mean f4 [28]
0.38711122 0.08240431 0.05868595 0.49691495 0.35999095 0.070977084 0.04875256 0.47827175
0.36431643 0.06684932 0.04686664 0.47844478 0.30921406 0.04391095 0.029073965 0.4378547
0.31490007 0.039565217 0.027748058 0.43765816 0.2900857 0.024666289 0.02024856 0.41453844
0.2963807 0.021926487 0.020300562 0.41618168
00000000: 7133 c63e 97c3 a83d ae60 703d a36b fe3e
00000010: bc50 b83e 6f5c 913d c4b0 473d 09e0 f43e
00000020: af87 ba3e 4ce8 883d 3cf7 3f3d b7f6 f43e
00000030: 4e51 9e3e f8db 333d 862c ee3c 7e2e e03e
00000040: 953a a13e 230f 223d e54f e33c bb14 e03e
00000050: 1d86 943e f510 ca3c 4fe0 a53c 623e d43e
00000060: 36bf 973e 2d9f b33c 5d4d a63c c415 d53e

network_body.observation_encoder.processors.3.normalizer.running_mean f4 [36]
0.09935701 0.036397483 0.044528864 0.41701716 0.08628192 0.032349747 0.039635245 0.39653194
0.08976164 0.029375937 0.037071466 0.39589196 0.06304556 0.020238588 0.027452098 0.35018712
0.06570945 0.017718794 0.024652263 0.3484432 0.046172827 0.010903222 0.015526959 0.3065432
0.048462592 0.009403332 0.015258932 0.30707148 0.0445789 0.007071514 0.012229146 0.29153228
0.045524817 0.0059615835 0.012143155 0.29211175
00000000: b07b cb3d 8715 153d e663 363d 4683 d53e
00000010: 93b4 b03d 2b81 043d 9158 223d 3c06 cb3e
00000020: f3d4 b73d cea5 f03c 40d8 173d 5ab2 ca3e
00000030: 081e 813d 65cb a53c 39e3 e03c ba4b b33e
00000040: ad92 863d 0127 913c 8bf3 c93c 2667 b23e
00000050: b81f 3d3d 6da3 323c c964 7e3c 3bf3 9c3e
00000060: b680 463d 6f10 1a3c 9900 7a3c 7938 9d3e
00000070: 5d98 363d 29b8 e73b c25c 483c b843 953e
00000080: 3b78 3a3d 6359 c33b 15f4 463c ac8f 953e

network_body.observation_encoder.processors.4.normalizer.running_mean f4 [21]
-0.025221072 0.6682412 0.08138854 0.0006472715 0.0033377663 0.91766036 0.0 -0.025062125
0.6760581 0.08139523 0.00063926156 0.0033377663 0.919348 0.0 -0.025011333 0.68253964
0.08142413 0.00061732996 0.0034397652 0.9210265 0.00024598258
00000000: 6c9c cebc db11 2b3f 09af a63d a8ad 293a
00000010: 6dbe 5a3b caeb 6a3f 0000 0000 164f cdbc
00000020: 2512 2d3f 8bb2 a63d 1e94 273a 6dbe 5a3b
00000030: 645a 6b3f 0000 0000 91e4 ccbc ebba 2e3f
00000040: b2c1 a63d 50d4 213a af6d 613b 65c8 6b3f
00000050: 39f7 8039

network_body._body_endoder.seq_layers.0.weight f4 [256, 189]
0.023347344 -0.088899024 -0.07694719 -0.042737823 -0.010861726 -0.10621747 0.10612437 -0.13627537
-0.017636148 0.02129307 0.099208035 -0.015417251 -0.039906397 0.026432808 0.018216107 -0.0005248092
0.0016621071 -0.035664115 -0.011695001 -0.019234868 0.055349786 -0.03063706 -0.0465207 0.02057723
-0.0094270995 0.07921625 0.026357593 -0.12536375 0.0037135994 -0.017367765 -0.0035389178 0.063584335
0.02728562 -0.03172652 0.13239218 0.02726639 0.031664252 0.078760654 0.0071100355 -0.060230713
0.0026792688 -0.06829564 -0.096497275 0.010372021 -0.004633294 -0.0690469 -0.032881025 0.027733287
0.036825713 -0.023019157 0.0846359 -0.15459253 -0.05466743 -0.024726653 -0.101511486 0.0112767685
0.024269432 0.023355147 -0.042612486 0.01779269 0.011422475 -0.069291495 -0.109565824 -0.091327876
0.10556325 0.12457517 -0.054266103 -0.01736086 0.015035933 0.035468068 -0.045509953 0.024242051
-0.06032034 -0.004351303 0.12183432 -0.01663547 -0.019997217 -0.092842236 0.0764049 0.011523365
-0.010091191 -0.032558065 0.15930358 0.12074898 0.052656654 -0.055714488 0.047611658 0.032206558
-0.06865456 -0.019382192 0.08241523 -0.007977093 -0.021076305 -0.029228868 -0.11830205 0.04355135
0.010107979 -0.031372137 0.10181354 0.057282943 -0.027197296 -0.09747194 0.18360507 -0.02003765
0.007582091 -0.023091076 0.018019311 -0.05472023 0.057141237 -0.0048437333 -0.15948069 0.08819462
0.037337355 -0.017981054 -0.11118159 -0.04643197 -0.043623406 -0.19145533 0.119991876 0.048757717
0.037405062 0.00810464 0.05846809 0.032567948 0.017672827 -0.06713799 -0.031187735 -0.1423978
0.08680809 -0.04525391 0.07680564 -0.11479256 -0.12977804 0.022418609 0.20235552 0.082131974
-0.08489977 -0.03818792 -0.07911052 -0.09627818 -0.039233435 -0.022285676 0.0046112207 0.106042214
0.05208161 -0.0055531147 -0.060766377 -0.05501115 0.020078395 0.040742885 0.016798643 0.04411443
-0.0025643846 -0.0013519903 -0.044461552 0.017337661 0.054169312 0.096160024 -0.0537482 0.061843168
-0.050816834 0.032215584 0.04175004 0.13446662 -0.05608065 -0.016931197 -0.078888394 0.011267517
-0.0486054 0.001677788 0.0045124176 0.030292809 0.08999351 0.08219397 0.11437041 0.14041269
0.062517814 0.07835016 0.027086165 0.06251097 0.08055174 -0.033720292 0.075081125 0.026217509
-0.03482076 -0.09814365 0.0062548057 0.02983595 -0.018842047 0.05565626 0.08170814 0.009124633
0.043524466 -0.13287975 0.036477566 0.027669571 0.019126588 0.026166366 0.12670003 -0.010466865
0.076283514 0.015583454 -0.021705365 -0.030553767 0.06393148 0.040700573 -0.20153978 0.023911647
-0.027789198 -0.004892702 -0.111481935 0.09348691 0.109278694 -0.028567921 0.011058297 -0.154483
-0.023164552 -0.032010827 -0.06407254 -0.026580036 -0.05168725 -0.022389723 0.07055895 0.09941592
-0.012708622 -0.0030455543 -0.10651571 0.0062293736 0.01788537 0.036105197 0.10281872 0.045113824
0.08145303 0.14075093 -0.0734686 -0.0058685727 0.031038873 -0.016656449 -0.06490613 -0.044119827
-0.042055808 -0.07237997 -0.12045931 -0.08973519 -0.0925755 0.06345994 -0.083371 -0.15492052
0.039620727 -0.06950716 0.069536634 -0.028246801 -0.030975923 -0.08254408 0.02476767 0.1005284
00000000: ee42 bf3c b110 b6bd 7d96 9dbd db0d 2fbd
00000010: 61f5 31bc 8b88 d9bd bc57 d93d c58b 0bbe
00000020: af79 90bc ce6e ae3c 952d cb3d a398 7cbc
00000030: e474 23bd 9e89 d83c f239 953c 5993 09ba
00000040: 0fdb d93a 8914 12bd 649c 3fbc 7192 9dbc
00000050: 75b6 623d 92fa fabc 7d8c 3ebd 9491 a83c
00000060: 1f74 1abc 213c a23d e1eb d73c 5b5f 00be
00000070: dc5f 733b d846 8ebc 30ed 67bb 8138 823d
00000080: 1886 df3c abf3 01bd d191 073e c45d df3c
00000090: 60b2 013d 444d a13d 4dfb e83b 7bb4 76bd
000000a0: ac96 2f3b 96de 8bbd 5da0 c5bd 69ef 293c
000000b0: e3d2 97bb 7668 8dbd 41ae 06bd eb30 e33c
000000c0: 8fd6 163d ac92 bcbc 9655 ad3d 814d 1ebe
000000d0: f5ea 5fbd 8d8f cabc 41e5 cfbd 32c2 383c
000000e0: b0d0 c63c 4b53 bf3c 6e8a 2ebd fac1 913c
000000f0: 5525 3b3c b3e8 8dbd 0c64 e0bd 1c0a bbbd
00000100: 8c31 d83d 4421 ff3d 2246 5ebd 5d38 8ebc
00000110: 4659 763c f746 113d a568 3abd 4497 c63c
00000120: 7612 77bd 6095 8ebb 4684 f93d 1c47 88bc
00000130: 34d1 a3bc 1224 bebd 2c7a 9c3d 7fcc 3c3c
00000140: 8655 25bc 9b5b 05bd 7a20 233e 3e4b f73d
00000150: 81ae 573d e034 64bd 7104 433d 06eb 033d
00000160: c39a 8cbd 67c7 9ebc 51c9 a83d 5ab2 02bc
00000170: 37a8 acbc 6171 efbc 5848 f2bd e662 323d
00000180: f09b 253c 1280 00bd 9e83 d03d 85a1 6a3d
00000190: ddcc debc 5e9f c7bd f802 3c3e ff25 a4bc
000001a0: 3073 f83b 7f29 bdbc 3c9d 933c 5222 60bd
000001b0: ee0c 6a3d 2eb8 9ebb e84e 23be 629f b43d
000001c0: 0eef 183d 014d 93bc 2cb3 e3bd 732f 3ebd
000001d0: 75ae 32bd de0c 44be 4dbe f53d 2cb6 473d
000001e0: 0d36 193d 53c9 043c 3c7c 6f3d f865 053d
000001f0: 9bc6 903c a47f 89bd 6c7d ffbc bbd0 11be
00000200: 71c8 b13d 2a5c 39bd 464c 9d3d 5d18 ebbd
00000210: 89e4 04be 3ba7 b73c 4936 4f3e cf34 a83d
00000220: eedf adbd f06a 1cbd b204 a2bd 7f2d c5bd
00000230: 3db3 20bd 7390 b6bc b919 973b a92c d93d
00000240: 8753 553d e7f6 b5bb 2ae6 78bd 5f53 61bd
00000250: 727b a43c 03e2 263d 4f9d 893c 55b1 343d
00000260: 3c0f 28bb 4435 b1ba 511d 36bd b607 8e3c
00000270: a4e0 5d3d 8cef c43d 1327 5cbd 434f 7d3d
00000280: 5025 50bd 7df4 033d 1702 2b3d 9eb1 093e
00000290: d3b4 65bd 4bb3 8abc 3d90 a1bd 649b 383c
000002a0: 7516 47bd 39e9 db3a e7dc 933b a028 f83c
000002b0: 844e b83d 5055 a83d 093b ea3d 58c8 0f3e
000002c0: 5709 803d 0c76 a03d cee3 dd3c c005 803d
000002d0: 50f8 a43d 4a1e 0abd 22c4 993d 1ac6 d63c
000002e0: 37a0 0ebd 8aff c8bd 1df5 cc3b 866a f43c
000002f0: a35a 9abc d2f7 633d 9956 a73d 7c7f 153c
00000300: b646 323d a111 08be 8069 153d 4cab e23c
00000310: 5daf 9c3c d95a d63c a7bd 013e 377d 2bbc
00000320: 883a 9c3d be51 7f3c 73cf b1bc e54b fabc
00000330: 82ee 823d a5b5 263d 7260 4ebe 5ce2 c33c
00000340: 2ca6 e3bc f652 a0bb a450 e4bd 1176 bf3d
00000350: 82cd df3d 4607 eabc dc2d 353c cb30 1ebe
00000360: 96c3 bdbc c91d 03bd 7738 83bd 60be d9bc
00000370: 03b6 53bd a76a b7bc 3681 903d 939a cb3d
00000380: d337 50bc ec97 47bb e924 dabd c61f cc3b
00000390: 5784 923c 0be3 133d 9f92 d23d 46c9 383d
000003a0: d9d0 a63d 0321 103e b576 96bd 284d c0bb
000003b0: 3c45 fe3c 1b73 88bc 81ed 84bd feb6 34bd
000003c0: b642 2cbd f33b 94bd 5fb3 f6bd 15c7 b7bd
000003d0: 3998 bdbd 49f7 813d 6abe aabd 7ca3 1ebe
000003e0: 5849 223d c559 8ebd 3969 8e3d d665 e7bc
000003f0: 38c1 fdbc df0c a9bd 92e5 ca3c d5e1 cd3d

network_body._body_endoder.seq_layers.0.bias f4 [256]
0.009014528 0.0104105 0.0035051294 0.021917658 0.017733986 0.0012473756 0.0068381773 0.02479174
0.009099299 -0.023886977 0.018026644 0.015610907 0.008942805 0.016696734 0.020724595 0.017505804
0.030902203 0.022511132 0.010855362 0.020297747 0.014970109 0.015333881 0.014520968 -0.0038176992
0.021229707 0.008688953 0.0075940685 0.0112708 0.02034961 0.008777555 0.013918504 0.011515222
0.0040101367 -0.0049911384 0.012243581 0.002223019 0.01869033 0.016253665 0.02046864 0.0072326777
0.00952186 0.015925482 0.022763122 -0.0065175747 0.0035387208 0.011494775 0.013756995 0.00903873
-0.0017748096 -0.00051245035 0.0123780025 0.003750571 -0.0009555206 0.024138568 0.010152141 0.012550635
0.004481578 0.0028242331 0.013357446 0.010852071 0.02757766 0.009623241 0.006667247 0.012310282
0.028320579 0.01146219 0.011469717 0.019083949 0.020579897 0.0016793743 0.009650369 0.021582128
-0.003134665 0.013024097 0.012911418 -0.0016009185 0.00846651 0.00645657 0.022443904 0.00030239506
0.01337455 0.014861184 -0.003053591 0.018051632 0.011130007 0.0017184961 0.011028768 0.0033175151
0.013260254 0.018662134 -0.0088132555 0.022821689 0.002321079 0.008389546 0.03532378 0.004871452
0.013285154 0.014173625 0.014429176 0.009176041 0.02571211 0.012528421 0.018781133 0.011624669
0.015075421 -0.016890464 0.01228316 0.0099471975 0.015851133 0.017478175 0.012410902 0.01217403
0.028324846 0.011059287 0.012727613 0.0053112754 -0.0065992996 0.01673847 0.007749709 0.008836364
-0.015530608 0.026690423 0.004355461 -0.019845724 0.02251259 0.0074363314 0.02024118 0.020038288
0.006449179 -0.00062851433 0.013077689 0.016911687 0.020083793 0.0028618053 0.010145662 0.016670993
0.0072947396 0.013581444 0.0057584946 0.016777705 0.01055792 0.019054234 0.010472411 0.016925635
0.018374732 0.014547397 0.012665038 0.012245517 0.0051731807 0.01777039 0.007471915 -0.0034648294
0.0030347328 0.01896532 0.02464136 0.024501955 0.011442798 0.019407269 0.00938954 0.012094444
0.01961091 0.0061569684 0.00045721728 0.0010084664 0.012662595 0.012402714 0.0010360816 0.017095147
0.0042563314 0.02644204 0.013452244 0.023488546 0.018940164 -0.011241195 0.01195614 0.011074962
0.0048767887 0.024545476 0.00305766 0.013630042 0.015807252 0.0034451957 -0.0038378139 0.0020226687
0.013523112 0.020268263 -0.00080753234 0.001850978 0.006710011 -0.01147739 0.0055582784 -0.0046132104
0.018935543 0.011101616 0.008077444 0.020274898 0.009225974 0.009101133 0.012521701 0.024048446
0.009875374 0.0069936956 0.006816993 0.010644767 0.018517317 0.015978498 0.017932748 0.010529184
-0.0068244776 0.018040793 0.007107849 0.014264955 0.011094936 0.008298353 0.018342333 0.00040739612
0.014491928 0.005903262 0.0090039885 0.018634172 -0.005219966 0.0077746385 0.0270654 0.018917454
0.014389449 0.021152338 0.024707565 0.020345878 0.015481013 0.003804219 0.016729038 0.0029374082
0.02275099 0.022486594 0.013242362 0.0062830336 -0.014293147 0.008508479 0.0015451653 0.0030597432
0.02068712 0.016436439 0.0141599 0.012187058 0.023346294 0.0076920227 0.006518117 0.007735277
0.019130986 0.0041858274 0.015458889 0.014163871 0.02370696 0.008834506 0.0136819985 0.012883102
00000000: acb1 133c cd90 2a3c 50b6 653b a98c b33c
00000010: dd46 913c fb7e a33a ca12 e03b 0c18 cb3c
00000020: 3a15 153c 9fae c3bc 9dac 933c e4c4 7f3c
00000030: d884 123c 97c7 883c a0c6 a93c 5568 8f3c
00000040: 9e26 fd3c 4469 b83c b0da 313c 7647 a63c
00000050: 3045 753c f53a 7b3c 5be9 6d3c 5d32 7abb
00000060: ece9 ad3c 1c5c 0e3c aad7 f83b 29a9 383c
00000070: 3ab4 a63c bccf 0f3c 700a 643c 57aa 3c3c
00000080: 7767 833b b48c a3bb 4d99 483c 12b0 113b
00000090: 771c 993c 6826 853c d9ad a73c 1900 ed3b
000000a0: 9301 1c3c 2876 823c ba79 ba3c 6191 d5bb
000000b0: e2e9 673b 9554 3c3c 0565 613c 2e17 143c
000000c0: baa0 e8ba f655 06ba 1bcd 4a3c 24cc 753b
000000d0: e77b 7aba 3fbe c53c 2a55 263c 2ea1 4d3c
000000e0: 33da 923b c516 393b 30d9 5a3c e3cc 313c
000000f0: 8bea e13c ccaa 1d3c ec78 da3b 11b1 493c
00000100: 8f00 e83c e9cb 3b3c 7beb 3b3c f155 9c3c
00000110: 2c97 a83c 731e dc3a 951c 1e3c 01cd b03c
00000120: f46e 4dbb 0663 553c 6a8a 533c e9d5 d1ba
00000130: 1eb7 0a3c a291 d33b 47dc b73c c78a 9e39
00000140: ee20 5b3c 537c 733c c11e 48bb 04e1 933c
00000150: a25a 363c 293f e13a 01b2 343c ab6a 593b
00000160: 8941 593c 55e1 983c 7965 10bc 8df4 ba3c
00000170: 3e1d 183b 4e74 093c abaf 103d b4a0 9f3b
00000180: f9a9 593c 7e38 683c 5a68 6c3c 1b57 163c
00000190: 34a2 d23c 0244 4d3c e4da 993c 6575 3e3c
000001a0: e6fe 763c df5d 8abc 4f3f 493c 92f9 223c
000001b0: 3cda 813c 642e 8f3c 1957 4b3c 9575 473c
000001c0: 8209 e83c 0332 353c 7a87 503c 350a ae3b
000001d0: f03e d8bb 1e1f 893c 45f1 fd3b 66c6 103c
000001e0: 1774 7ebc e0a5 da3c 41b8 8e3b 8093 a2bc
000001f0: 536c b83c 78ac f33b d5d0 a53c 5627 a43c
00000200: a253 d33b e2c2 24ba ce43 563c 618a 8a3c
00000210: c486 a43c 208d 3b3b fe39 263c 9b91 883c
00000220: b608 ef3b b484 5e3c c1b1 bc3b 6671 893c
00000230: 20fb 2c3c a017 9c3c 7a94 2b3c a1a7 8a3c
00000240: 9b86 963c 3558 6e3c 0581 4f3c 6ca1 483c
00000250: c983 a93b 3593 913c f7d6 f43b 3112 63bb
00000260: 5ee2 463b 295d 9b3c addc c93c 53b8 c83c
00000270: 937a 3b3c fefb 9e3c 96d6 193c c627 463c
00000280: 0fa7 a03c 65c0 c93b aab6 ef39 842e 843a
00000290: c676 4f3c c134 4b3c 21cd 873a 1f0b 8c3c
000002a0: b278 8b3b fa9c d83c cd66 5c3c 0d6b c03c
000002b0: 6728 9b3c fd2c 38bc b0e3 433c c273 353c
000002c0: 78cd 9f3b 9813 c93c 0663 483b 8a50 5f3c
000002d0: 367e 813c cbc8 613b d583 7bbb c08e 043b
000002e0: 0b90 5d3c a109 a63c 94b0 53ba 849c f23a
000002f0: a7df db3b aa0b 3cbc 3822 b63b 6a2a 97bb
00000300: b61e 9b3c 8de3 353c 4157 043c 8b17 a63c
00000310: 8a28 173c eb1c 153c d227 4d3c 3f01 c53c
00000320: 52cc 213c 5f2b e53b 1561 df3b 6467 2e3c
00000330: a1b1 973c 57e5 823c b3e7 923c 9982 2c3c
00000340: de9f dfbb 49ca 933c f5e8 e83b 8fb7 693c
00000350: 89c7 353c d1f5 073c a942 963c c897 d539
00000360: 8d6f 6d3c 2770 c13b 7785 133c b1a6 983c
00000370: 400c abbb 65c2 fe3b 42b8 dd3c c7f8 9a3c
00000380: b9c1 6b3c ab47 ad3c 8567 ca3c 66ac a63c
00000390: 13a4 7d3c 3450 793b 560b 893c 8881 403b
000003a0: 4960 ba3c ce35 b83c 7ef6 583c e8e1 cd3b
000003b0: ce2d 6abc 2667 0b3c 2587 ca3a f985 483b
000003c0: 0978 a93c b6a5 863c edfe 673c 3aac 473c
000003d0: ba40 bf3c 5d0d fc3b ee95 d53b 3578 fd3b
000003e0: 96b8 9c3c 4429 893b 4847 7d3c 950f 683c
000003f0: 1935 c23c 9bbe 103c 762a 603c a513 533c

network_body._body_endoder.seq_layers.2.weight f4 [256, 256]
0.03279981 0.11927251 -0.016326044 -0.030260935 0.15455163 0.015128263 0.044282056 0.041461967
-0.074180715 -0.025125429 -0.06312166 0.026562879 -0.01005046 0.024168652 0.031854205 0.069157444
-0.0016240361 0.07173043 0.10210542 -0.022242405 0.12266923 0.09579732 0.034472328 0.07397014
0.056590497 0.034164723 -0.041592374 0.038769357 -0.008393493 0.06278002 -0.014616242 0.094976276
0.07467535 -0.021845 0.03628599 -0.061648715 -0.09156056 0.0863199 -0.07265658 0.029557897
0.09060458 0.10717845 -0.04426292 -0.058784727 0.17504571 -0.018217612 -0.042720247 0.015218922
0.066992275 -0.0012036181 0.059520822 -0.07176933 -0.071711905 0.0029664699 -0.010396115 0.11165822
-0.03458972 0.042175647 0.011950487 0.018499356 -0.0042829895 -0.004414898 0.13407584 -0.052638188
0.18444514 -0.03825562 -0.049968977 -0.033788472 -0.04414123 -0.0043777176 0.09874788 -0.015678238
0.102679595 -0.051121224 0.06566196 0.0031525083 -0.017109854 -0.053366944 -0.0014570174 0.029818246
0.07030687 0.01102462 -0.030265152 0.037037913 0.03555087 -0.101851426 -0.0634072 -0.02892625
0.05233257 0.02122778 -0.0948131 0.010323428 0.10333779 -0.042500477 0.07318571 0.02812397
0.07664428 -0.021769598 0.019144727 0.031579003 -0.058635324 0.0030979638 0.04688674 -0.07622926
0.031423017 0.07388976 0.016862055 -0.054344103 0.14342624 -0.06613542 -0.018696688 0.022222472
0.063693054 -0.05099115 -0.07916376 0.016490977 -0.085866384 -0.04773246 -0.03916196 0.035912387
0.012698072 0.037207715 -0.07254151 -0.06645769 -0.038254753 -0.00599352 -0.038994044 0.01954888
-0.014041172 0.0035389874 0.09738613 -0.05308364 0.012495605 -0.016654754 -0.031160194 0.10659428
-0.010261463 0.0702525 0.0480514 -0.02638953 0.010949098 -0.031926233 0.10449096 0.017688857
-0.07353056 -0.063364424 0.08942665 0.06683198 0.036344513 0.05882542 -0.061875314 0.05289946
0.00952145 -0.11890483 0.045070045 0.09397282 0.00010351075 0.13914384 0.03289525 0.100620225
0.09180148 -0.15853237 -0.041619454 -0.057324708 0.012142891 0.061621103 0.0026879308 -0.053337667
0.05087257 0.10408469 -0.10494748 0.13422589 -0.07331757 -0.040624607 0.11800607 -0.034297276
-0.005639072 0.0067882366 -0.11617128 0.058506023 0.007299367 -0.11239441 0.0046877353 0.051843315
0.02501428 -0.0997551 0.07677229 0.031224832 -0.09451439 -0.0054593035 0.015565813 -0.009618445
0.11544106 0.009726034 -0.014675523 0.043978386 -0.0075161615 0.104273714 0.14416046 0.102931336
-0.021716643 -0.12545435 0.11166321 0.110578895 0.07859723 -0.11970777 -0.04388742 -0.09086125
-0.021347165 0.046579964 0.03265051 0.02137647 -0.04312486 0.001323558 0.012274725 -0.045728724
0.06597001 0.10204713 0.059972767 0.012600341 -0.030050004 -0.023228591 -0.007939448 -0.057634752
0.013013533 -0.020866646 0.06008837 -0.019836674 -0.07613255 0.00547649 0.07444471 -0.02407307
0.102057815 0.019094653 -0.017652627 -0.041286614 -0.06739309 0.06045149 -0.024999838 0.030175315
0.043977052 -0.0033850514 -0.018022578 0.058393095 -0.097831585 -0.12467761 -0.09125517 0.022786412
0.016318057 -0.05306596 -0.11920552 0.009812142 0.05628889 0.06328175 0.1440532 0.09370666
00000000: 1859 063d 2545 f43d 32be 85bc c8e5 f7bc
00000010: c842 1e3e 89dc 773c 1a61 353d 06d4 293d
00000020: 0fec 97bd d8d3 cdbc ee45 81bd 659a d93c
00000030: afaa 24bc 56fd c53c 8e79 023d 6ba2 8d3d
00000040: 9cdd d4ba 67e7 923d a51c d13d b435 b6bc
00000050: 013a fb3d 6331 c43d db32 0d3d a87d 973d
00000060: 70cb 673d 4ff0 0b3d c45c 2abd 9ecc 1e3d
00000070: dc84 09bc d092 803d f678 6fbc ec82 c23d
00000080: 64ef 983d 49f4 b2bc 9ea0 143d 5d83 7cbd
00000090: 1a84 bbbd 7dc8 b03d f9cc 94bd 6723 f23c
000000a0: e58e b93d 6080 db3d 094d 35bd 41c8 70bd
000000b0: 2f3f 333e 1a3d 95bc 6dfb 2ebd c958 793c
000000c0: 3f33 893d b9c2 9dba 1bcc 733d ccfb 92bd
000000d0: b1dd 92bd 1b69 423b 7754 2abc 11ad e43d
000000e0: f3ad 0dbd 5fc0 2c3d facb 433c f68b 973c
000000f0: 5258 8cbb d9aa 90bb 2d4b 093e 249b 57bd
00000100: 30df 3c3e edb1 1cbd 45ac 4cbd c865 0abd
00000110: 6fcd 34bd f572 8fbb 543c ca3d a66f 80bc
00000120: ae49 d23d 7d64 51bd c779 863d 509a 4e3b
00000130: f729 8cbc 4c97 5abd 64f9 beba 6545 f43c
00000140: 0cfd 8f3d 9ca0 343c a0ee f7bc 11b5 173d
00000150: ca9d 113d 7b97 d0bd a2db 81bd bef6 ecbc
00000160: ad5a 563d e2e5 ad3c 5f2d c2bd 9823 293c
00000170: c3a2 d33d fb14 2ebd 64e2 953d 3d64 e63c
00000180: adf7 9c3d 2856 b2bc 67d5 9c3c fc58 013d
00000190: 982b 70bd 3507 4b3b 4f0c 403d 161e 9cbd
000001a0: 6cb5 003d 8453 973d 4b22 8a3c ec97 5ebd
000001b0: 54de 123e 0272 87bd cc29 99bc e70b b63c
000001c0: 8171 823d 19dc 50bd 9c20 a2bd 1618 873c
000001d0: b7da afbd 1d83 43bd 4b68 20bd de18 133d
000001e0: 930b 503c 1e67 183d a590 94bd f81a 88bd
000001f0: 04b1 1cbd 4a65 c4bb 38b8 1fbd f924 a03c
00000200: f20c 66bc 5bee 673b 6172 c73d 3b6e 59bd
00000210: 5eba 4c3c 8d6f 88bc aa43 ffbc 1a4e da3d
00000220: b21f 28bc 8be0 8f3d 8bd1 443d db2e d8bc
00000230: d863 333c 15c5 02bd 5bff d53d 39e8 903c
00000240: 3197 96bd 35c5 81bd 5225 b73d 35df 883d
00000250: fcdd 143d ecf2 703d f870 7dbd 1bad 583d
00000260: dbff 1b3c 6084 f3bd 5e9b 383d d274 c03d
00000270: e913 d938 b97b 0e3e 2bbd 063d fa11 ce3d
00000280: 6a02 bc3d 4f56 22be 2979 2abd 50cd 6abd
00000290: faf2 463c 6966 7c3d ff27 303b 9978 5abd
000002a0: c25f 503d 5b2a d53d b4ee d6bd 8372 093e
000002b0: 8627 96bd fd65 26bd 2bad f13d 4d7b 0cbd
000002c0: f7c7 b8bb db6f de3b 35eb edbd 03a4 6f3d
000002d0: 872f ef3b 0a2f e6bd 939b 993b a859 543d
000002e0: bfea cc3c 674c ccbd ca3a 9d3d 38cb ff3c
000002f0: c390 c1bd f5e3 b2bb c007 7f3c af96 1dbc
00000300: 5d6c ec3d f159 1f3c 9b71 70bc ae22 343d
00000310: 224a f6bb 758d d53d cd9e 133e aacd d23d
00000320: 1ae7 b1bc 1b77 00be aeaf e43d 3077 e23d
00000330: 96f7 a03d 5929 f5bd 4cc3 33bd 7715 babd
00000340: 40e0 aebc a2ca 3e3d 8bbc 053d b51d af3c
00000350: b1a3 30bd 3d7b ad3a ee1b 493c 0b4e 3bbd
00000360: 491b 873d 16fe d03d 01a6 753d a971 4e3c
00000370: 6d2b f6bc e349 bebc 7514 02bc 6b12 6cbd
00000380: b736 553c 87f0 aabc 391f 763d 8580 a2bc
00000390: 62eb 9bbd 2174 b33b 7876 983d e334 c5bc
000003a0: b003 d13d 646c 9c3c 3e9c 90bc 271c 29bd
000003b0: 6305 8abd fb9b 773d 76cc ccbc 3932 f73c
000003c0: 4821 343d bdd7 5dbb 16a4 93bc 992d 6f3d
000003d0: ed5b c8bd fa56 ffbd fee3 babd 92aa ba3c
000003e0: 72ad 853c b15b 59bd 0622 f4bd 1bc3 203c
000003f0: 2e8f 663d dd99 813d af82 133e 47e9 bf3d

network_body._body_endoder.seq_layers.2.bias f4 [256]
0.01148714 0.013496722 0.0021031226 0.01005946 0.011922699 0.0111470735 0.01075425 0.0051759295
0.017186794 0.00801629 -0.002521094 0.013288736 0.011669426 0.011584204 -0.0013476858 0.0029025932
0.017294 0.009671474 0.0020967831 0.011968807 0.018011682 0.009972089 0.011398715 0.006214965
0.007568208 0.01434341 -0.0036169486 0.013646151 0.010937212 0.0027108423 0.005755088 0.016823785
0.0054444624 0.013158159 0.014303593 0.008827501 0.015875079 0.010459625 0.0006594428 0.020835053
0.0015081761 0.0069581554 0.01319227 0.009169328 0.010846922 0.0031852236 0.016357291 0.002314401
0.012314852 0.01252879 0.015028399 0.014409388 0.008912643 -0.0020235346 0.0060470174 0.016793497
0.005808164 0.007175499 0.01569172 0.008484715 0.009531814 0.009832027 -0.0007883115 0.0028375061
0.018016709 0.007663559 0.003163957 0.004171106 -0.0012695527 0.0063111354 0.011854909 0.00889842
0.013398095 -0.004217805 0.004924094 0.011450592 0.016381096 0.020061873 0.0071319984 0.00012026225
0.011347086 0.012568297 0.012162245 0.0045422334 0.012493607 0.0112799285 0.0034033875 0.007557758
0.016920403 0.01598539 0.0087776575 0.011090643 0.009141413 0.009658546 0.017715156 0.0008715115
0.017740933 0.025779149 0.013584694 0.019159907 -0.00022435514 0.008261146 0.0001295487 0.013327884
-0.0037455936 0.01135316 0.009429237 0.007900135 0.010226836 -0.0013963864 0.012510205 -0.0015946961
0.00024090933 0.009241747 0.003974854 0.0067406106 0.0036648416 0.011119215 0.0006963853 0.014758518
0.0247059 0.0026916051 0.0050019315 0.008950209 0.0076484005 0.0085745435 0.007476024 0.018791726
0.01134617 0.01048482 0.008924162 0.012577106 0.011157188 -0.0011571144 0.010572622 0.01519986
0.00069247285 0.001171325 0.010627639 -0.0011594434 0.019992974 -1.7808225e-05 0.0033368096 0.006097599
0.014265002 0.011363832 0.0020953098 -0.00063061103 0.019711519 0.0035450622 0.008276034 0.0021756603
0.007957183 0.0036234492 0.0023454814 0.010995412 0.001226827 0.0073743514 0.017496647 0.009250433
0.00043619605 0.009660671 0.00958667 0.01619234 0.012817128 0.012049202 0.01097479 -0.0050159707
0.014119767 0.0038895586 0.009560893 0.013103942 0.003957768 0.0051333923 0.00905833 -0.0008644102
0.008857637 0.0077418126 0.015204625 0.0142161865 0.008602712 0.019277718 0.004003106 0.007853994
0.0053355303 0.013483979 0.006967421 0.007784162 0.002794784 0.018565284 0.00021700552 0.009110909
0.0119681 0.0033225259 0.013569815 0.012216219 0.00288853 0.020445572 0.008447018 0.015419896
0.011232663 0.0041606626 0.013524096 0.008427016 0.006812582 0.016522285 0.008979811 -0.005974317
0.011644667 0.0051250067 0.004083625 -0.0030316892 0.013620123 -0.0075921714 0.0051112194 0.009795681
0.0035060777 0.02173121 0.005761143 0.011504351 0.003375692 0.0042636045 0.0027886685 -0.0036169838
0.013840297 0.0092482865 0.01901792 0.011986263 0.010971605 0.010389363 0.0017102102 0.0069115763
0.014307861 0.007980513 0.004824442 0.003027178 0.022884011 -0.0031199516 0.019725455 0.029571407
0.014621378 0.011228375 0.0074265446 0.0007154973 0.013254129 0.0096501885 0.013317506 0.0101596955
0.0114038745 0.009969414 0.0048249066 0.019590335 0.014478562 0.0059191966 0.0064967023 0.0031194445
00000000: 8f34 3c3c 5b21 5d3c 8bd4 093b 6fd0 243c
00000010: 6d57 433c 37a2 363c 9832 303c d89a a93b
00000020: 52cb 8c3c c256 033c f038 25bb 00b9 593c
00000030: 1f31 3f3c accb 3d3c d5a4 b0ba 6f39 3e3b
00000040: 26ac 8d3c 1a75 1e3c 2f6a 093b d118 443c
00000050: 3c8d 933c f961 233c adc1 3a3c e8a6 cb3b
00000060: bbfe f73b 9f00 6b3c 540a 6dbb 1b94 5f3c
00000070: fe31 333c 63a8 313b 2d95 bc3b 09d2 893c
00000080: 7667 b23b 5295 573c 9e59 6a3c 39a1 103c
00000090: 740c 823c d95e 2b3c 75de 2c3a 46ae aa3c
000000a0: fead c53a 3d01 e43b 6424 583c f33a 163c
000000b0: 4ab7 313c 2fbf 503b baff 853c 35ad 173b
000000c0: 3cc4 493c 8e45 4d3c ad39 763c 5b15 6c3c
000000d0: 5606 123c 479d 04bb 0f26 c63b 8492 893c
000000e0: 6952 be3b 7320 eb3b ec8b 803c 7903 0b3c
000000f0: 532b 1c3c 8316 213c b0a6 4eba 74f5 393b
00000100: c797 933c 981e fb3b 645a 4f3b c6ad 883b
00000110: 1f67 a6ba a4cd ce3b 183b 423c aeca 113c
00000120: af83 5b3c 8335 8abb 4b5a a13b 449b 3b3c
00000130: a631 863c cc58 a43c 8ab3 e93b 4e35 fc38
00000140: 21e9 393c 42eb 4d3c 2744 473c 04d7 943b
00000150: fcb1 4c3c 73cf 383c 5e0b 5f3b 12a7 f73b
00000160: a89c 8a3c cbf3 823c 2ad0 0f3c 87b5 353c
00000170: ddc5 153c e13e 1e3c 601f 913c 2676 643a
00000180: 6f55 913c cb2e d33c 5692 5e3c 3df5 9c3c
00000190: e040 6bb9 c259 073c 77d7 0739 325d 5a3c
000001a0: a278 75bb 9b02 3a3c 167d 1a3c 916f 013c
000001b0: 768e 273c f406 b7ba 9af7 4c3c 1f05 d1ba
000001c0: 9b9c 7c39 b26a 173c 7e3f 823b 57e0 dc3b
000001d0: d72d 703b 5e2d 363c a08d 363a b6cd 713c
000001e0: 0764 ca3c a465 303b 3ee7 a33b e6a3 123c
000001f0: 6f9f fa3b 3e7c 0c3c 6ff9 f43b 1bf1 993c
00000200: 49e5 393c 86c8 2b3c a636 123c 3510 4e3c
00000210: a3cc 363c 51aa 97ba ca38 2d3c d508 793c
00000220: 1187 353a 2587 993a 8c1f 2e3c 77f8 97ba
00000230: 4ec8 a33c df62 95b7 60ae 5a3b 5ece c73b
00000240: c1b7 693c 5e2f 3a3c 7751 093b 974f 25ba
00000250: 0d7a a13c 4654 683b 3498 073c 8695 0e3b
00000260: d85e 023c 6477 6d3b a6b6 193b 1a26 343c
00000270: 7ccd a03a 8ba4 f13b 2155 8f3c 218f 173c
00000280: 3eb1 e439 cb47 1e3c 6911 1d3c cca5 843c
00000290: eefe 513c 046a 453c 9bcf 333c 035d a4bb
000002a0: 9856 673c f7e7 7e3b 4ba5 1c3c ebb1 563c
000002b0: 2ab0 813b 0436 a83b 6469 143c 9699 62ba
000002c0: 9f1f 113c 08af fd3b d21c 793c 02eb 683c
000002d0: 64f2 0c3c 4eec 9d3c 7d2c 833b 0aae 003c
000002e0: acd5 ae3b e8eb 5c3c f74e e43b 4912 ff3b
000002f0: b228 373b 3916 983c fa8b 6339 ec45 153c
00000300: da15 443c bcbe 593b ee53 5e3c 8926 483c
00000310: 7e4d 3d3b 797d a73c 5d65 0a3c bba3 7c3c
00000320: 3409 383c 2b56 883b 2c94 5d3c 7811 0a3c
00000330: 143c df3b be59 873c 0f20 133c 34c4 c3bb
00000340: 46c9 3e3c acef a73b eecf 853b 4eaf 46bb
00000350: f026 5f3c c0c7 f8bb 047c a73b 107e 203c
00000360: 39c6 653b a705 b23c f8c7 bc3b bf7c 3c3c
00000370: b73a 5d3b b5b5 8b3b 18c2 363b eb0a 6dbb
00000380: 6ac2 623c 2086 173c 78cb 9b3c 0862 443c
00000390: 3fc2 333c 2638 2a3c 2229 e03a 817a e23b
000003a0: 856b 6a3c b3c0 023c 5a16 9e3b 9f63 463b
000003b0: 4077 bb3c 1a78 4cbb 4797 a13c bc3f f23c
000003c0: 818e 6f3c 38f7 373c 5f5a f33b 3690 3b3a
000003d0: d927 593c d31b 1e3c ab31 5a3c da74 263c
000003e0: 51d7 3a3c c156 233c 401a 9e3b e97b a03c
000003f0: 7e37 6d3c d2f5 c13b 4ae2 d43b 986f 4c3b

action_model._discrete_distribution.branches.0.weight f4 [3, 256]
-0.008606017 -0.007903226 0.0053186924 0.0002037787 -0.011221298 -0.023476347 -0.0067625395 -0.008525142
0.0030772863 -0.007420879 0.013749929 -0.0025962985 0.0074455473 -0.015714992 -0.0026689693 -0.0048891655
-0.018558836 -0.008152353 -0.00046272157 -0.00243277 -0.01859708 0.0022215482 -0.010171625 0.0030868684
-0.0075534903 -0.012507566 0.013274077 -0.0043546697 -0.011791272 -0.005652341 -0.0024390705 -0.0025352016
-0.005993206 -0.009543276 -0.0071382714 0.007380157 -0.0024244634 -0.0038428358 0.009440249 -0.00772624
-0.010793616 -0.00013428685 -0.012006633 0.0021424098 0.002216987 -0.006153373 -0.008851051 0.0072747283
-0.027247278 -0.0125033455 -0.013422756 -0.010859015 -0.010021585 -0.0039155777 0.00019303523 0.0074861445
-0.00827675 -0.0013768894 0.0014989256 -0.003808931 -0.00091004424 -0.0038827937 0.015707035 -0.0028389061
-0.0005171046 -0.004123013 -0.0030355111 -0.013765919 0.008593966 -0.013307088 -0.011920083 -0.0054696403
-0.005055133 0.012410948 0.002425616 -0.012239229 -0.020457782 -0.0039902357 0.002759423 0.00139243
-0.015791794 -0.015597397 -0.005367204 0.0005822671 0.002220642 -0.0024975135 -0.0155227445 -0.010907752
-0.012695509 -0.005764106 -0.01160938 -0.009988051 0.0035594064 -0.012383731 -0.00310094 0.004180149
-0.00988762 -0.00023950677 -0.0040740455 0.0014172656 0.0035328872 -0.016797505 -0.0040075565 0.006125664
0.016508881 -0.0062501957 -0.0006293 -0.0014668211 -0.009278877 -0.0038162703 -0.014790701 -0.0016058243
0.0055123894 0.0017500849 0.00059966446 0.0014488122 0.0012247452 -0.0010201038 -0.0030842917 -0.0028752063
-0.008168581 0.014026423 -2.277458e-05 -0.009568219 -0.008923309 -0.007883915 0.0013787934 -0.017953789
-0.012611581 -0.0040307385 -0.007487748 -0.0041602007 -0.0121801635 -0.005318351 0.005678145 -0.010677106
0.003782665 0.0006853183 0.0025807736 0.015206608 -0.02051234 0.00092773855 0.012993461 -0.005926718
-0.018954204 -0.011390858 -0.00041251298 -0.002461722 -0.0227416 -0.001653804 -0.0016335576 0.01473845
-9.511323e-05 0.002612548 -0.014145144 -0.0045469683 0.009350915 -0.011031654 -0.010439548 -0.004380432
-0.0047851424 -0.0126460325 -0.0060335365 -0.021236055 -0.0074358485 -0.014628895 -0.008059673 0.004797571
-0.013560615 -0.007098471 -0.005360364 -0.012342438 -0.018553548 -0.001511782 -0.004229497 -0.0024683706
-0.0041735866 -0.016296703 0.0020970053 -0.0091652535 -0.011688983 -0.006098764 0.0020177807 -0.003956754
0.0014400521 -0.011126317 -0.008719457 -0.008694451 -0.002547352 -0.010491599 0.0005700603 -0.009147822
-0.010786673 -0.004643475 -0.002195198 -0.004762903 0.007010634 -0.007934977 -0.01507429 -0.005554249
-0.012600039 0.0065436694 -0.0036525861 0.0020099913 0.003159953 0.00018018733 -0.0077086664 0.004342603
-0.015753862 0.008210573 -0.0104119135 0.020991832 0.0027216137 0.0041132076 0.010879514 -0.006426369
-0.005644553 0.0003782754 0.0023493606 -0.0026157834 0.0044289296 0.0010000292 -0.010202466 -0.0044980166
-0.0041382867 -0.009082001 0.014883479 -0.0013536887 -0.00936511 -0.017573576 -0.0033716976 0.0074552977
-0.011270803 -0.014936858 -0.004109962 -0.0022058075 -0.0024061676 0.0066146804 -0.0011898155 -0.0070060445
-0.0036074268 -0.013146048 0.010104562 -0.0077387234 -0.018123018 0.0062798746 -0.014234093 0.014289013
-0.0043653334 -0.006005947 -0.025937399 0.0007576671 -0.011080789 -0.0020096956 0.00093137764 0.009418827
00000000: 4000 0dbc 887c 01bc 6d48 ae3b 6ead 5539
00000010: 89d9 37bc 7851 c0bc 4b98 ddbb 0aad 0bbc
00000020: 4cac 493b d82a f3bb 6247 613c a926 2abb
00000030: c7f9 f33b babc 80bc e0e9 2ebb 4b35 a0bb
00000040: b308 98bc 7291 05bc 7099 f2b9 1c6f 1fbb
00000050: e758 98bc 6597 113b e3a6 26bc 0f4d 4a3b
00000060: 4583 f7bb 89ec 4cbc 847b 593c 9eb1 8ebb
00000070: 2e30 41bc 4637 b9bb d0d8 1fbb a025 26bb
00000080: a862 c4bb 675b 1cbc 29e8 e9bb 3ed5 f13b
00000090: bfe3 1ebb 16d8 7bbb 46ab 1a3c 662c fdbb
000000a0: b5d7 30bc 5acf 0cb9 78b7 44bc ac67 0c3b
000000b0: df4a 113b 3ca2 c9bb 0004 11bc d860 ee3b
000000c0: af35 dfbc d5da 4cbc 1feb 5bbc 03ea 31bc
000000d0: 9331 24bc 3f4e 80bb 8069 4a39 554e f53b
000000e0: 359b 07bc be78 b4ba 9977 c43a 429f 79bb
000000f0: 0990 6eba 7876 7ebb 0aac 803c f10c 3abb
00000100: 4d8e 07ba 571a 87bb 6def 46bb 738a 61bc
00000110: b5cd 0c3c f905 5abc 744c 43bc ab3a b3bb
00000120: 87a5 a5bb 4a57 4b3c 15f7 1e3b 0c87 48bc
00000130: 1497 a7bc 86c0 82bb 70d7 343b 3382 b63a
00000140: cb5d 81bc 3a8c 7fbc 5fdf afbb 49a3 183a
00000150: 3188 113b 53ad 23bb 1c53 7ebc 6eb6 32bc
00000160: d300 50bc d3e0 bcbb 4535 3ebc eca4 23bc
00000170: ee44 693b 22e5 4abc 2439 4bbb a2f9 883b
00000180: afff 21bc 1c24 7bb9 927f 85bb 8bc3 b93a
00000190: 0388 673b ec9a 89bc d251 83bb cbb9 c83b
000001a0: a23d 873c 71ce ccbb 9cf7 24ba 5942 c0ba
000001b0: 6e06 18bc 641a 7abb b254 72bc 867a d2ba
000001c0: 46a1 b43b 1b63 e53a cd32 1d3a 12e6 bd3a
000001d0: a187 a03a 01b5 85ba d421 4abb f56d 3cbb
000001e0: 83d5 05bc 15cf 653c 0a0c bfb7 05c4 1cbc
000001f0: 1233 12bc 892b 01bc a1b8 b43a d313 93bc
00000200: cea0 4ebc 4914 84bb c85b f5bb 4b52 88bb
00000210: 4f8f 47bc 9045 aebb bc0f ba3b 07ef 2ebc
00000220: 96e6 773b efa6 333a 3222 293b 2325 793c
00000230: 7f09 a8bc 7b33 733a 87e2 543c ea34 c2bb
00000240: d945 9bbc b9a0 3abc 8e46 d8b9 d754 21bb
00000250: 984c babc 74c4 d8ba 191d d6ba 8a79 713c
00000260: 8777 c7b8 4837 2b3b 09c1 67bc bcfe 94bb
00000270: 9534 193c 1cbe 34bc a30a 2bbc ba89 8fbb
00000280: afcc 9cbb 4e31 4fbc f9b4 c5bb 3cf7 adbc
00000290: 6ba8 f3bb 08ae 6fbc b80c 04bc f134 9d3b
000002a0: 572d 5ebc 4a9a e8bb fea5 afbb f037 4abc
000002b0: 9cfd 97bc fc26 c6ba 9897 8abb 63c4 21bb
000002c0: 95c2 88bb aa80 85bc e96d 093b dc29 16bc
000002d0: 2683 3fbc 24d8 c7bb be3c 043b a9a7 81bb
000002e0: 21c0 bc3a 284b 36bc 0edc 0ebc 2c73 0ebc
000002f0: 7af1 26bb f5e4 2bbc 1970 153a bfe0 15bc
00000300: 96ba 30bc 4b28 98bb 50dd 0fbb 2012 9cbb
00000310: 76b9 e53b b501 02bc 28fa 76bc 6b00 b6bb
00000320: 6570 4ebc 476c d63b 3a60 6fbb 0fba 033b
00000330: 3717 4f3b abf0 3c39 fb98 fcbb 654c 8e3b
00000340: 3e0e 81bc a485 063c bb96 2abc 10f7 ab3c
00000350: 1a5d 323b 16c8 863b fd3f 323c 4a94 d2bb
00000360: f1f5 b8bb 4453 c639 bbf7 193b 906d 2bbb
00000370: 8e20 913b 6913 833a 3e28 27bc 1964 93bb
00000380: 779a 87bb accc 14bc d6d9 733c 416e b1ba
00000390: 1e70 19bc 76f6 8fbc b3f7 5cbb 924b f43b
000003a0: 2da9 38bc b9b9 74bc dcac 86bb 4f8f 10bb
000003b0: cbb0 1dbb f6bf d83b 95f3 9bba f692 e5bb
000003c0: 946a 6cbb 8662 57bc 9b8d 253c 1e95 fdbb
000003d0: b976 94bc 68c7 cd3b 1d36 69bc 771c 6a3c
000003e0: 120b 8fbb 89cd c4bb ab7a d4bc 2e9e 463a
000003f0: 338c 35bc 19b5 03bb b227 743a 6c51 1a3c

action_model._discrete_distribution.branches.0.bias f4 [3]
-0.0071701114 0.0034488929 0.0032169262
00000000: 41f3 eabb d206 623b 11d3 523b

action_model._discrete_distribution.branches.1.weight f4 [3, 256]
0.0175713 0.011923139 -0.004610832 0.010645516 0.005812715 0.0065240944 -0.010218523 0.0032875212
-0.0005407685 0.004845046 -0.0046859263 0.013219404 -0.0012477136 0.015228206 -0.011901329 0.00013727971
0.018793022 -0.0016343868 -0.006326761 0.019917147 -0.006704915 -0.0027556033 0.007772337 0.0010185301
-0.0018691778 -0.010509837 -0.014863175 -0.007032162 -0.009511702 -0.0009031816 0.0076381955 0.013796322
0.0042609693 0.0011767019 0.0012980315 -0.0022722187 -0.00075984414 0.0012858947 -0.006827126 0.0072526895
0.00043886562 0.007290444 0.0024835712 0.004892502 0.0054154578 -0.011721084 -0.002783118 0.0033510004
-0.0015703335 -0.0054612886 -0.0018896397 0.010769389 0.002419368 -0.011267332 -0.019289952 0.0047979015
0.008337983 0.0005041051 -0.0016609237 0.013092802 0.0010462564 0.0076199844 0.0019405966 0.009412245
-0.01966042 0.021690056 0.004604563 -0.0046102344 -1.932575e-05 -0.0040776148 0.019848682 -0.0010056151
0.00092367927 0.004654323 0.0077043483 0.0027096192 0.0031514356 -0.0051949737 0.012658754 0.004396477
0.003096468 0.022368215 -0.009921229 -0.006218603 -0.0013332184 -0.009661331 0.006126719 -0.009254353
0.0029180667 -0.012329861 0.006148172 0.008348944 -0.0065023582 -0.0021815554 -0.008585226 -0.006551515
0.0057156803 -0.0017635641 -0.006810339 0.008458109 -0.008186639 -0.00028991443 0.00583765 -0.007930678
-0.012158477 0.008921403 0.023760218 0.012955392 0.0004738939 -0.010791787 -0.0011648025 0.0022520437
-0.00046527135 -0.014818948 0.0048652785 0.007996387 -0.003519333 0.0051791547 0.0039997506 0.0057926406
-0.0088204425 0.0008307472 -0.0021858683 0.0045051617 -0.009549117 -0.006576436 0.020318769 0.009209545
-0.012694745 -0.0019843658 -0.015532589 -0.00061946263 -0.013903541 -0.008941348 -0.001631195 0.002612449
0.0021699634 -0.006608516 0.010558267 0.0037214786 -0.004125349 -0.0064847083 -0.0070341313 -0.009692479
-0.009758564 -0.0079239085 -0.0051168087 0.005698818 0.0024806676 0.005191235 0.011214951 -0.01580526
0.0048361234 -0.009941321 -0.01294825 -0.0041630254 0.0042915205 0.005038897 -0.0008564776 0.012026189
-0.0140368445 0.0063960217 -0.004947811 0.010855284 -0.014670767 0.004150815 0.015279125 -0.0034685717
-0.004429748 0.0008214606 -0.008715834 0.009776694 0.012547065 -0.0076973634 0.0009720177 -0.016538389
-0.009858837 0.012059334 -0.00017996224 -0.0020436093 0.000618165 -0.005696551 -0.0024659918 0.009033584
-0.010163148 -0.005982417 0.00724419 -0.004995359 -0.0047384123 -0.0027156197 -0.007861581 -0.0018567329
0.001632193 0.00084145507 -0.0007004442 -0.012022526 -0.0036394438 -0.0037756977 0.007330249 0.0068823
0.0032469044 -0.0024298956 0.006538383 0.0055665844 0.0005682201 -0.0004159683 0.0016039292 -0.0070453975
0.0071266135 -0.0023516132 0.0016891225 -0.0024009089 0.0038056471 0.0061236667 -0.017799078 -0.0076446407
0.0053984364 -0.0050993734 0.0024691331 0.02639895 -0.0050057434 -0.0022451777 -0.0025499542 0.005721725
0.0070932917 0.012291554 -0.0023108986 0.000190132 -0.0031209292 -0.0040843296 -0.0008324941 -0.0025269664
0.006042174 0.009324833 0.0017271441 0.0071657533 -0.007964793 0.0018128143 -9.906921e-06 -0.01203064
-0.010855307 0.0025903226 -0.007292391 0.020129101 -0.004814309 -0.005835867 -0.0019577944 0.0028724854
-0.011452379 0.00520796 -0.006601085 0.003869627 -0.024693284 -0.005521668 0.00091634184 -0.005580597
00000000: b0f1 8f3c 4559 433c 7616 97bb 886a 2e3c
00000010: 9678 be3b 12c8 d53b 986b 27bc 7473 573b
00000020: 5cc2 0dba 31c3 9e3b 668c 99bb 3396 583c
00000030: 528a a3ba ba7f 793c cbfd 42bc bef2 0f39
00000040: d3f3 993c ec38 d6ba b850 cfbb 4929 a33c
00000050: e7b4 dbbb 5a97 34bb 17af fe3b 3380 853a
00000060: 33ff f4ba 7431 2cbc ad84 73bc 0d6e e6bb
00000070: f8d6 1bbc 7ec3 6cba d449 fa3b f809 623c
00000080: 9a9f 8b3b 903b 9a3a b622 aa3a 81e9 14bb
00000090: 4730 47ba 778b a83a 15b6 dfbb f8a7 ed3b
000000a0: 8c17 e639 ade4 ee3b 69c3 223b 4851 a03b
000000b0: 2774 b13b ca09 40bc f964 36bb 759c 5b3b
000000c0: a6d3 cdba 9cf4 b2bb c9ad f7ba 1772 303c
000000d0: 428e 1e3b 9e9a 38bc f605 9ebc b737 9d3b
000000e0: 099c 083c ec25 043a 5ab3 d9ba 3183 563c
000000f0: 8a22 893a 10b1 f93b 9e5b fe3a d135 1a3c
00000100: e40e a1bc 58af b13c e0e1 963b 7311 97bb
00000110: bb1d a2b7 839d 85bb b499 a23c d8ce 83ba
00000120: 1123 723a 4b83 983b c274 fc3b de93 313b
00000130: 5188 4e3b 993a aabb aa66 4f3c 5210 903b
00000140: 1dee 4a3b 8c3d b73c a78c 22bc 6cc5 cbbb
00000150: 63bf aeba 8f4a 1ebc a5c2 c83b 929f 17bc
00000160: 093d 3f3b 2f03 4abc 9b76 c93b 02ca 083c
00000170: bc11 d5bb 6df8 0ebb 0ca9 0cbc 17ae d6bb
00000180: 9a4a bb3b 6427 e7ba 4429 dfbb e193 0a3c
00000190: 4121 06bc a8ff 97b9 c249 bf3b adef 01bc
000001a0: 5934 47bc 142b 123c caa4 c23c da42 543c
000001b0: f674 f839 09d0 30bc 49ac 98ba 0697 133b
000001c0: aaef f3b9 2ccb 72bc ea6c 9f3b 4703 033c
000001d0: 9ca4 66bb e6b5 a93b 5710 833b 31d0 bd3b
000001e0: 9e83 10bc 80c6 593a c940 0fbb 09a0 933b
000001f0: e673 1cbc 257f d7bb 8c73 a63c a2e3 163c
00000200: 9ffd 4fbc 220c 02bb 667c 7ebc 6f63 22ba
00000210: adcb 63bc bb7e 12bc d2cd d5ba 9f35 2b3b
00000220: f235 0e3b 408c d8bb 95fc 2c3c 0de4 733b
00000230: f02d 87bb ad7d d4bb 927e e6bb 34cd 1ebc
00000240: 62e2 1fbc 48d3 01bc e7aa a7bb 26bd ba3b
00000250: b292 223b 3c1b aa3b eabe 373c 087a 81bc
00000260: 5878 9e3b ece0 22bc e624 54bc fd69 88bb
00000270: e29f 8c3b 551d a53b 3d85 60ba 7e09 453c
00000280: cbfa 65bc b895 d13b 3f21 a2bb 5cda 313c
00000290: a85d 70bc 8f03 883b 4c55 7a3c fa50 63bb
000002a0: 6b27 91bb 4a57 573a dbcc 0ebc 6d2e 203c
000002b0: 3492 4d3c 2a3a fcbb 01cf 7e3a 847b 87bc
000002c0: f686 21bc 8394 453c 3fb4 3cb9 13ee 05bb
000002d0: 5a0c 223a 22aa babb 7a9c 21bb 9901 143c
000002e0: 5583 26bc 2708 c4bb ac60 ed3b 1cb0 a3bb
000002f0: af44 9bbb 8af8 31bb dccd 00bc 9e5d f3ba
00000300: 4fef d53a 1895 5c3a 049e 37ba 21fa 44bc
00000310: bc83 6ebb b271 77bb 9632 f03b eb84 e13b
00000320: 04ca 543b e23e 1fbb ef3f d63b e567 b63b
00000330: 9bf4 143a 5216 dab9 ef3a d23a 14dd e6bb
00000340: 5e86 e93b 861d 1abb 8c65 dd3a 9158 1dbb
00000350: 2a68 793b 0aa9 c83b 5fcf 91bc e57f fabb
00000360: 5ee5 b03b a518 a7bb 2ed1 213b 9c42 d83c
00000370: 3807 a4bb d523 13bb 221d 27bb 4f7d bb3b
00000380: d86e e83b 8462 493c 7272 17bb 2c5e 4739
00000390: 8188 4cbb d7d5 85bb bc3b 5aba 769b 25bb
000003a0: 6efd c53b 2fc7 183c 5761 e23a b2ce ea3b
000003b0: c37e 02bc f49b ed3a e735 26b7 291c 45bc
000003c0: 75da 31bc 67c2 293b 02f5 eebb c9e5 a43c
000003d0: 5ac1 9dbb cd3a bfbb 574e 00bb 4f40 3c3b
000003e0: c2a2 3bbc 89a7 aa3b ea4d d8bb 9199 7d3b
000003f0: 9249 cabc 1cef b4bb a936 703a 71dd b6bb

action_model._discrete_distribution.branches.1.bias f4 [3]
0.0034116397 -0.0012773875 -0.002027512
00000000: d195 5f3b 036e a7ba 02e0 04bb

action_model._discrete_distribution.branches.2.weight f4 [2, 256]
-0.008817057 -0.005401307 0.002409176 -0.0041645668 -0.016146159 -0.0065941582 0.0047142594 0.005606679
0.0022772443 0.0007564029 -0.005271008 0.00045572023 -0.002407754 -0.010423577 0.011133849 0.027122477
-0.00092295004 -0.0023764747 0.00067716464 0.0149433585 -0.008552251 0.015967898 -0.0048894566 0.00062996283
-0.00048599177 -0.012442831 0.0019290753 -0.013483654 -0.012090493 0.0010591244 -0.0037930838 -0.0035179465
-0.006083192 0.0028655587 -0.0026226353 0.00036472362 -0.0025866944 -0.0002882477 -0.0035614318 -0.004109262
-0.007978448 0.0009091712 -0.006383382 -0.0073488085 -0.0010036076 0.0029720485 8.950607e-05 0.0056664883
-0.012701436 -0.0070659514 -0.0016515445 -0.010630238 -0.011451455 -0.00076636707 0.006448227 -0.00690533
0.012350309 -0.0041298987 0.00033426413 -0.015336942 0.0053540813 -0.0043490753 0.007697279 0.0017984002
-0.008379776 0.004124719 0.0142446095 0.0045979028 0.016652154 -0.011473351 -0.003866315 -0.010732277
-0.0053516887 0.011409423 0.0033659732 -0.00421788 -0.011792122 0.0078931125 -0.0051880195 -0.013584829
0.0023025663 -0.0025814474 0.011816051 -0.0022858353 0.0006218211 0.0015639366 0.0029781791 0.0021154345
-0.006204964 0.006755255 0.003032239 -0.014049317 -0.0043959985 -0.0008833781 0.0042813206 0.0067989025
-0.008964213 -0.009192462 -0.012611675 -0.0020021352 0.0032187174 -0.004165907 -0.0009417405 0.0026614324
0.008511828 -0.014310342 0.0050272066 0.0003550651 -0.0010080958 -0.0028268925 -0.016312407 0.012879102
0.0055633513 -0.005205576 0.0028905268 0.002256526 -0.0019065307 -0.013387773 0.010989444 -0.004644933
0.0006275907 -0.014311777 -0.0008988661 0.0051585897 -0.008978722 0.008220031 -0.009974328 -0.0031383706
-0.017583964 0.0018430192 0.0036309655 -0.013452654 -0.0018136568 0.011587085 -0.0033003057 -0.004090308
-0.0013071501 -0.0054323757 -0.005755687 0.017952343 -0.005751953 0.0072110374 -0.0062266574 -0.001529785
0.0072552385 0.0066161435 -0.00429946 0.006383561 -0.016431432 0.009551846 0.00054036576 -0.0010187749
-0.016988266 0.006323666 0.010239213 -0.023473546 0.0033168462 -0.0008935367 -0.005464838 0.009330598
0.0016215132 -0.011963922 -0.007767292 -0.006655054 0.0008414584 -0.0053034853 -0.006927228 0.0139670605
0.0010616553 0.01996547 -0.00053367275 0.0010676491 0.025114045 0.0031926814 -0.018902456 -0.0030751722
0.0022565552 0.008154634 0.0015795348 -0.016407339 -0.017107677 -0.0115181925 -0.018655023 -0.014440214
-0.013745007 -0.003907376 0.003263077 0.0043312986 -0.0078532 0.017681073 -0.0009699755 -0.015930805
-0.0004095214 0.006820701 0.008739309 0.004721403 0.00055239856 -0.0013671955 0.00041428264 -0.009046335
-0.010900962 -0.0023431012 -0.0073212 0.0014772682 -0.0077486704 -0.0038258664 -0.0089395605 0.005299013
-0.0046969955 -0.017516822 0.0013490801 0.013468862 0.0017104571 0.002914903 -0.0049428497 -0.010122177
0.010378831 -0.013152017 -0.005900657 0.0038323954 -0.018276023 -0.008581291 0.0045809895 0.0065695844
0.00036301266 -0.018454876 0.0038024369 -0.0109089585 -0.008661798 -0.0066636126 -0.0015879979 0.0022443281
0.005773643 -0.0066447426 0.011745629 -0.001486235 -0.0027743327 0.0057172514 -0.005279858 -0.0029615369
-0.0024098966 -0.013467152 0.0059471508 0.008624359 0.006924963 -0.0066443677 -0.010676452 0.0031921351
0.0066623418 -0.0048277234 0.006873526 -0.008917122 -0.014804217 0.0024097594 -0.00044062815 0.0041150036
00000000: 6b75 10bc 72fd b0bb 44e3 1d3b eb76 88bb
00000010: f344 84bc cf13 d8bb 137a 9a3b 3bb8 b73b
00000020: d23d 153b 5749 463a 6bb8 acbb bced ee39
00000030: 69cb 1dbb a7c7 2abc bf6a 363c f52f de3c
00000040: 21f2 71ba a1be 1bbb c083 313a fdd4 743c
00000050: be1e 0cbc 1ccf 823c bc37 a0bb 1724 253a
00000060: b6cc feb9 04dd 4bbc 07d9 fc3a 8bea 5cbc
00000070: 3417 46bc 51d2 8a3a 6395 78bb 598d 66bb
00000080: 8355 c7bb 19cc 3b3b 85e0 2bbb 6038 bf39
00000090: 8885 29bb f41f 97b9 e966 69bb fda6 86bb
000000a0: 09b8 02bc 7255 6e3a b02b d1bb 46ce f0bb
000000b0: 7c8b 83ba b3c6 423b 35b5 bb38 f3ad b93b
000000c0: af19 50bc 7f89 e7bb a378 d8ba 732a 2ebc
000000d0: e29e 3bbc 06e6 48ba a64b d33b 1b46 e2bb
000000e0: f358 4a3c 1a54 87bb 2c40 af39 cc47 7bbc
000000f0: 4a71 af3b b082 8ebb 7539 fc3b 4cb8 eb3a
00000100: 544b 09bc a728 873b 3962 693c 01aa 963b
00000110: 196a 883c b9fa 3bbc 0062 7dbb 6fd6 2fbc
00000120: 385d afbb 97ee 3a3c a997 5c3b 2436 8abb
00000130: bf33 41bc 1d52 013c 4300 aabb e792 5ebc
00000140: a7e6 163b 802d 29bb 1c98 413c f4cd 15bb
00000150: b501 233a 01fd cc3a 8e2d 433b 1aa3 0a3b
00000160: 0353 cbbb 305b dd3b 87b8 463b 1b2f 66bc
00000170: 4f0c 90bb 8092 67ba 524a 8c3b 54c9 de3b
00000180: a2de 12bc fb9b 16bc 33a1 4ebc 4136 03bb
00000190: 1ef1 523b 2982 88bb 23df 76ba 6d6b 2e3b
000001a0: 3275 0b3c ed75 6abc 44bb a43b 0828 ba39
000001b0: 1522 84ba 6343 39bb 99a1 85bc de02 533c
000001c0: c64c b63b 8993 aabb fe6e 3d3b 39e2 133b
000001d0: 8ee4 f9ba 6458 5bbc 120d 343c 8634 98bb
000001e0: e684 243a f27b 6abc e2a1 6bba 6309 a93b
000001f0: 7d1b 13bc 4fad 063c 5d6b 23bc 1fad 4dbb
00000200: 3f0c 90bc 7691 f13a 7ef5 6d3b 8568 5cbc
00000210: 39b8 edba c2d7 3d3c f149 58bb fe07 86bb
00000220: ae54 abba 1202 b2bb 349a bcbb cb10 933c
00000230: e17a bcbb 914a ec3b fd08 ccbb 1183 c8ba
00000240: 5abd ed3b 3ccc d83b 7ce2 8cbb 312d d13b
00000250: 369b 86bc 597f 1c3c 55a7 0d3a 6a88 85ba
00000260: fa2a 8bbc c136 cf3b 5fc2 273c 984b c0bc
00000270: 725f 593b 3c3c 6aba 6212 b3bb 5ddf 183c
00000280: f488 d43a 5304 44bc c584 febb a412 dabb
00000290: 5195 5c3a dcc8 adbb cdfd e2bb 19d6 643c
000002a0: 3e27 8b3a a08e a33c 2ce6 0bba 5cf0 8b3a
000002b0: f8bb cd3c 4e3c 513b 53d9 9abc d488 49bb
000002c0: b7e2 133b 049b 053c 6508 cf3a af68 86bc
000002d0: 6625 8cbc cdb6 3cbc 6bd2 98bc a696 6cbc
000002e0: bd32 61bc 7209 80bb 59d9 553b 91ed 8d3b
000002f0: b5aa 00bc e6d7 903c f445 7eba 5281 82bc
00000300: 08b5 d6b9 3080 df3b 522f 0f3c 00b6 9a3b
00000310: d7ce 103a 7833 b3ba 1334 d939 1437 14bc
00000320: f399 32bc b78e 19bb ade6 efbb e5a0 c13a
00000330: 8fe8 fdbb 63bb 7abb 3c77 12bc 58a3 ad3b
00000340: 41e9 99bb 707f 8fbc 9ed3 b03a 80ac 5c3c
00000350: 6b31 e03a f507 3f3b a1f7 a1bb 7dd7 25bc
00000360: f90b 2a3c 8f7b 57bc 4c5a c1bb ed28 7b3b
00000370: 99b7 95bc 8b98 0cbc 201c 963b ab45 d73b
00000380: bc52 be39 ae2e 97bc 4e32 793b 7dbb 32bc
00000390: 37ea 0dbc 6f5a dabb 5e24 d0ba 9415 133b
000003a0: d430 bd3b 24bc d9bb bd70 403c c5cd c2ba
000003b0: 94d1 35bb c857 bb3b a902 adbb 5816 42bb
000003c0: 5bef 1dbb 54a5 5cbc 51e0 c23b 2f4d 0d3c
000003d0: cdea e23b ffb8 d9bb 49ec 2ebc 2433 513b
000003e0: c64f da3b e131 9ebb 513b e13b 1f19 12bc
000003f0: 638d 72bc 0eed 1d3b 1c04 e7b9 27d7 863b

action_model._discrete_distribution.branches.2.bias f4 [2]
-0.0054151984 0.0054152
00000000: fa71 b1bb fd71 b13b
