Assets/AIModels/Agent-200036.onnx (onnx, 469998 bytes, 17 tensors)

discrete_act_size_vector f4 [1, 2]
000000 00 00 00 40 00 00 40 40
       2.0 3.0

network_body.observation_encoder.processors.0.normalizer.running_mean f4 [78]
000000 00 00 00 00 2b 18 bc 3c 39 aa 6f 3f 00 00 00 00
       0.0 0.022960743 0.93619114 0.0
000010 65 4a 27 3d 3a e7 9e 3e 00 00 00 00 da a5 8b 3c
       0.040842433 0.31035787 0.0 0.017046858
000020 81 f9 74 3f 00 00 00 00 cd 1d d5 3c b6 c2 8e 3e
       0.9569321 0.0 0.026015187 0.27882928
000030 00 00 00 00 80 f9 97 3c f7 33 74 3f 00 00 00 00
       0.0 0.018551588 0.9539179 0.0
000040 03 7c e1 3c ec 62 93 3e 00 00 00 00 b2 21 41 3c
       0.027524954 0.2878641 0.0 0.011787819
000050 a1 a0 78 3f 00 00 00 00 f4 51 8b 3c fc 41 72 3e
       0.971201 0.0 0.017006852 0.23657984
000060 00 00 00 00 33 fa 49 3c 4b 7b 78 3f 00 00 00 00
       0.0 0.012327719 0.9706313 0.0
000070 e4 90 8b 3c db 79 79 3e 00 00 00 00 71 2b 0f 3c
       0.017036863 0.2436289 0.0 0.008738385
000080 da 93 7a 3f 00 00 00 00 6b c7 4b 3c 0f 27 55 3e
       0.97881854 0.0 0.012437682 0.20815681
000090 00 00 00 00 87 62 0c 3c c4 15 7a 3f 00 00 00 00
       0.0 0.008568413 0.9768946 0.0
0000a0 eb 18 6e 3c de bf 5a 3e 00 00 00 00 28 bf e0 3b
       0.014532308 0.21362254 0.0 0.006858725
0000b0 fa ec 7a 3f 00 00 00 00 1c 4c 54 3c 64 12 49 3e
       0.9801785 0.0 0.012957599 0.19635922
0000c0 00 00 00 00 5b 7a d3 3b 93 a2 7b 3f 00 00 00 00
       0.0 0.006453795 0.98294944 0.0
0000d0 74 8e 2d 3c a1 7c 49 3e 00 00 00 00 ec 7b b6 3b
       0.0105930455 0.19676448 0.0 0.005568972
0000e0 13 01 7b 3f 00 00 00 00 bd 6e 64 3c 1f 29 44 3e
       0.98048514 0.0 0.013942418 0.19156311
0000f0 00 00 00 00 fa b4 a9 3b 89 37 7b 3f 00 00 00 00
       0.0 0.005179045 0.98131615 0.0
000100 98 24 5d 3c c3 bb 44 3e 00 00 00 00 10 25 9a 3b
       0.013497494 0.1921225 0.0 0.004704125
000110 b4 bb 7b 3f 00 00 00 00 a9 ea 43 3c 9c 03 3e 3e
       0.9833329 0.0 0.011957803 0.18556064
000120 00 00 00 00 b3 24 87 3b 91 1d 7c 3f 00 00 00 00
       0.0 0.004124248 0.98482615 0.0
000130 7e ed 34 3c f0 63 41 3e
       0.011042951 0.1888578

network_body.observation_encoder.processors.1.normalizer.running_mean f4 [42]
000000 75 aa 29 3f 29 c1 d6 3b 9b 06 2c 3e 94 32 b3 3d
       0.6627572 0.006553788 0.16799395 0.087498814
000010 b9 d0 5c 3b 95 af bd 3d 22 11 24 3f 07 8b 7f 3b
       0.0033693744 0.09262005 0.6408864 0.003899278
000020 af 14 55 3e 83 99 92 3d 5f cc 5d 3b ae d5 b8 3d
       0.20808671 0.07158186 0.0033843738 0.09025131
000030 39 2e 27 3f 2a 86 97 3b 74 6b 43 3e cc d4 94 3d
       0.65304905 0.004624148 0.19083959 0.0726715
000040 3b 97 56 3b 2a 7a ba 3d ad af 1d 3f bf 31 da 3a
       0.003274395 0.09105332 0.61596185 0.0016646906
000050 c8 40 87 3e 01 55 21 3d e6 54 52 3b 9e 76 b1 3d
       0.26416612 0.039387707 0.003209406 0.086652026
000060 d8 de 1f 3f 63 55 e5 3a df 6c 7f 3e c5 fb 26 3d
       0.6244941 0.0017496761 0.24943875 0.04076745
000070 6d 1b 4c 3b 3b 88 b3 3d 51 b4 1c 3f 97 16 3a 3a
       0.0031144277 0.08766218 0.6121264 0.0007098703
000080 5a 39 93 3e 14 3a 70 3c ed ee 42 3b 62 84 ae 3d
       0.28754693 0.014662284 0.0029744462 0.08521344
000090 39 1c 1f 3f 6e 16 3a 3a 83 56 8b 3e 7e 3e 6f 3c
       0.6215244 0.0007098679 0.2721444 0.014602302
0000a0 df 1a 39 3b c5 b1 b0 3d
       0.0028244776 0.08627657

network_body.observation_encoder.processors.2.normalizer.running_mean f4 [54]
000000 81 0d a4 3e ee 97 87 3c 85 4f b0 3e b1 69 99 3e
       0.32041553 0.016551938 0.3443567 0.2996345
000010 5c e1 32 3b fe fa 8a 3e d8 fd a0 3e 42 82 2b 3c
       0.002729497 0.27144617 0.31443667 0.010468068
000020 31 57 d0 3e d2 05 7e 3e 36 35 33 3b bf bd 84 3e
       0.40691522 0.24806908 0.0027344949 0.25926015
000030 27 df 9d 3e 4a 09 3d 3c 96 dc c8 3e b3 10 89 3e
       0.30834314 0.011537859 0.39230794 0.26770553
000040 db a7 2c 3b de 0e 87 3e 6c e1 9b 3e c7 80 c8 3b
       0.0026345167 0.2637853 0.3044542 0.006118867
000050 a7 f1 00 3f 39 30 27 3e 03 28 36 3b 0b 8f 75 3e
       0.5036873 0.16326989 0.0027794845 0.23980348
000060 2c 6b 96 3e 56 e4 ce 3b 4a 57 fc 3e 0e 88 3b 3e
       0.2937864 0.006313841 0.49285346 0.1831362
000070 33 23 24 3b 96 a3 79 3e 1c 2a 9c 3e 69 55 8f 3b
       0.0025045394 0.2437881 0.30500877 0.0043741954
000080 74 97 12 3f 48 25 bc 3d 52 e1 32 3b f5 c9 66 3e
       0.5726235 0.09186798 0.0027294946 0.22537978
000090 15 a3 9b 3e 92 10 82 3b 9c 80 0f 3f 1e 92 d0 3d
       0.3039786 0.0039692605 0.5605562 0.1018412
0000a0 e5 41 1d 3b c3 91 6a 3e 35 71 a1 3e 62 66 4e 3b
       0.0023995575 0.22907166 0.31531683 0.003149413
0000b0 e3 2a 1b 3f e9 7a 3b 3d 8c 88 20 3b 9e 9d 5f 3e
       0.60612315 0.045771513 0.002449545 0.2183747
0000c0 6a 93 a5 3e 1c 61 29 3b 98 cb 17 3f 40 11 3a 3d
       0.3233903 0.0025845235 0.59295034 0.045426607
0000d0 ca 45 09 3b c3 8f 63 3e
       0.0020946139 0.2222281

network_body.observation_encoder.processors.3.normalizer.running_mean f4 [10]
000000 e2 4a 80 bf 40 91 ff 3e 6a 5f 6e 42 a4 72 d2 bf
       -1.0022852 0.49915504 59.593178 -1.6441236
000010 a3 fe ff 3e c0 2c fc 42 34 7b 3e bd bb c6 ae 40
       0.4999896 126.0874 -0.046504214 5.461759
000020 98 9f 41 3e 63 92 44 3a
       0.18908536 0.000749862

network_body._body_endoder.seq_layers.0.weight f4 [256, 184]
000000 32 b2 36 be b9 2f 1a 3e 76 13 21 bc 05 05 78 3c
       -0.17841414 0.15057267 -0.0098313 0.0151379155
000010 93 26 13 bc 03 40 8d bc 19 20 5e bd 46 6a 86 bb
       -0.008981365 -0.017242437 -0.05422983 -0.0041020242
000020 df 0d 9e 3d f0 70 ed 3c d9 e8 90 3d c4 c1 b1 3c
       0.077174895 0.028984517 0.07075662 0.02169884
000030 6c a7 0f 3e 8b 2f fe bc 86 12 f7 3c 21 f1 3a 3e
       0.1402871 -0.03102853 0.0301602 0.18256046
000040 74 67 03 bd f1 3a cc bc 80 72 be 3d cb 92 6a 3d
       -0.032081082 -0.02493045 0.09299183 0.0572689
000050 01 eb d7 3c 0e 8f 60 3e 9b 58 18 3e a9 46 00 be
       0.026357176 0.21929571 0.1487755 -0.12526955
000060 ee a5 eb 3d 0a 8f c7 3c c3 08 8f 3d 74 4e 92 bc
       0.11506258 0.024360199 0.06984093 -0.017859675
000070 c0 36 1c bd 2b 38 b7 bc 4e cb 99 bc a5 1b a6 3b
       -0.03813815 -0.02236565 -0.018773701 0.0050692135
000080 af 75 ce bc 55 32 a3 3d ff 80 20 bd 99 6c 7a 3c
       -0.0252026 0.079685844 -0.03918552 0.015284681
000090 9f 2e 10 bb b9 44 b5 3b d5 e3 0e be 45 66 48 3d
       -0.0022000445 0.005531874 -0.13954099 0.048925657
0000a0 15 d9 07 bd f0 0e ac bc b8 12 d0 bd c5 79 ad bd
       -0.03316601 -0.021003217 -0.1015982 -0.08470491
0000b0 4b f7 4f 3d c0 26 99 bd a6 cf b6 3b 4c ed 33 bc
       0.050772946 -0.07478094 0.005578953 -0.010981869
0000c0 db 64 1b 3d 0a 76 50 bc f8 63 e5 3c 28 b5 37 bd
       0.03793798 -0.012723455 0.02800177 -0.0448505
0000d0 e6 5a 4e 3d ef 18 2e bd 9a a8 0b be ab ec 4d 3d
       0.050379656 -0.042504247 -0.13638535 0.050274532
0000e0 7a 04 86 bc dc 9a d6 bc de bd 7f 3d e1 6e b4 bd
       -0.016359556 -0.02619689 0.06243693 -0.08810211
0000f0 b3 44 26 bd 44 d0 aa bd d8 2a 6f 3c ac ca 73 bd
       -0.04059286 -0.08340505 0.014597617 -0.059519455
000100 41 74 4e 3d a8 6e 6b bd 9c 22 55 3e 2e 8f f1 bd
       0.050403837 -0.057478577 0.20813984 -0.117948875
000110 b5 31 b0 3c c8 0e a7 3c ab 1b 82 3d 75 3f 0e 3d
       0.021508077 0.02039279 0.063529335 0.034728486
000120 a9 fe 87 3c 78 9a 68 bd 48 ee 26 3e 51 08 d4 3d
       0.016600924 -0.056787938 0.16301835 0.10353149
000130 61 5f 9c bd 6a be 5f 3c 48 f9 d1 3b 5d 1e 6b ba
       -0.076353796 0.013656238 0.0064078905 -0.0008969063
000140 d1 fd a7 3d 69 0c 9f bd 3a 15 5b 3c bf 76 89 3d
       0.082027085 -0.07766039 0.01337176 0.06712102
000150 49 bb e0 bb 07 41 95 bd 58 62 01 bc 5a 18 9b 3d
       -0.0068582636 -0.072877936 -0.007896982 0.07573004
000160 3d 9e 05 3e ef a0 0f 3d 74 e1 29 bd 95 45 9c 3b
       0.13048644 0.035065588 -0.041474774 0.004769037
000170 97 e2 bf bd 1b 4d c2 3d a7 27 05 3b 98 90 7e 3c
       -0.093693905 0.09487363 0.0020317824 0.0155374035
000180 a3 2c 26 3d cc ab a2 bd a6 ea 9a 3c a4 08 be bd
       0.040569913 -0.07942924 0.018910717 -0.09278992
000190 e9 b0 ad 3d 14 25 6c 3c 51 3b dd bd 5c 71 09 be
       0.084810086 0.014413137 -0.10802329 -0.1342215
0001a0 f1 8b 4d 3d ba 7b 1a 3d 16 e2 b3 bb 0a 89 e7 3d
       0.050182287 0.03771565 -0.005489598 0.11305435
0001b0 b4 16 ed bc 34 71 04 3a d2 d4 9e bd 4b cc b6 bd
       -0.02894149 0.0005052269 -0.07755436 -0.089256845
0001c0 b1 a7 99 3d ff a5 9a 3d 86 df 5e 3c bb a0 b4 bd
       0.07502688 0.075511925 0.013603097 -0.088197194
0001d0 3c 92 5c 3d 04 1d b6 3d 05 92 d7 bc 13 c1 9f bd
       0.053850397 0.08892253 -0.026314745 -0.07800498
0001e0 e4 43 09 bd b8 65 a5 3c da 42 13 be cc 98 1c 3d
       -0.03351201 0.020190105 -0.1438097 0.038231656
0001f0 37 35 b4 3c 8b 8f 40 bd d2 09 8c bc 49 42 83 3c
       0.021998031 -0.047011893 -0.017094526 0.016022818
000200 b7 bb b7 bd 2f a9 06 3e bd 13 a8 3c cd 5e 83 3c
       -0.08971351 0.13150476 0.020517224 0.016036415
000210 db 64 4f 3e f4 e5 e4 bd 06 fd 3e be 0e 18 7d bd
       0.20253317 -0.111766726 -0.18651208 -0.06179052
000220 00 ec aa bd 31 63 08 3d cb 6f a0 3d 45 58 e1 3c
       -0.08345795 0.03329772 0.07833823 0.02750791
000230 a8 80 a8 bc 8a b4 8c bd d4 64 3c 3e 2c 35 c7 3c
       -0.02056916 -0.068703726 0.18397838 0.024317347
000240 a8 fa e9 bd 42 70 1c be 2e ac 64 3d af f1 0d be
       -0.11424762 -0.15277198 0.055828266 -0.13861726
000250 54 81 14 3d 4d 2e 39 3d 8e 20 3e 3e 69 70 aa bc
       0.03625615 0.04521017 0.18567106 -0.020805554
000260 a1 e5 98 bd f6 6d 71 bc 7b bf 31 3e 90 ad b7 3c
       -0.07465673 -0.014735689 0.173582 0.022421628
000270 87 9b c1 bd 7d 16 38 3c 55 27 5c bc b9 0d cd bd
       -0.094534926 0.01123583 -0.013437112 -0.10012383
000280 75 ab 99 3b 09 43 cb bd 41 44 cc 3d 0c 8b 26 bd
       0.0046896287 -0.09924895 0.09973956 -0.04065995
000290 94 5c e3 3c dd 56 d6 3c 1c be 38 3d 15 9b 2f bd
       0.027754106 0.026164467 0.045103177 -0.042872507
0002a0 eb 4e 8c bb 8e 09 bf 3c b0 14 94 3d 95 73 46 3d
       -0.0042818687 0.023319986 0.07230508 0.04845007
0002b0 7d dc 29 3e 6b c4 83 3d d4 11 35 bd b6 b9 f9 bb
       0.16588016 0.06433948 -0.044206455 -0.0076210154
0002c0 6b 0f e5 3c a0 69 c8 3a b4 54 4e bc a6 eb 37 3e
       0.027961453 0.0015290268 -0.012593437 0.17960986
0002d0 65 6a bf 3d 2c 5c c7 3c 89 1a 6f bc b6 bc d8 3c
       0.09346465 0.024335943 -0.014593729 0.026457172
0002e0 8c 6a 5a 3d 92 e1 85 3d ef ce c7 bd 82 40 8c bd
       0.053324267 0.06537165 -0.09756266 -0.068482414
0002f0 cb cc 92 3a bb ac 6f 3d 0e 1c 79 3d 4e 1e 12 bd
       0.0011199949 0.058514338 0.06081777 -0.035673432
000300 70 d4 57 3d 23 0b f9 3d bc f6 25 3d de 03 bb 3d
       0.05269283 0.12160327 0.040518507 0.09131597
000310 08 01 d6 3d 21 a1 d0 bd 96 47 a9 bd 9e 8f e7 3c
       0.104494154 -0.10186983 -0.08265607 0.028266724
000320 cc a0 22 3d e0 e1 6b 3d 28 51 32 bd 9e d8 6e 3d
       0.03970413 0.057588458 -0.043534428 0.05831205
000330 fe ca 3f 3d 32 5c 0a be 2c 98 98 bd d4 62 8d 3d
       0.046824448 -0.13511732 -0.074508995 0.069036156
000340 a2 77 77 3d f2 05 94 bc 9d 0c ec 3c 06 0e 6b 3d
       0.060416825 -0.018069241 0.028814608 0.05738642
000350 a4 12 08 3e fd 4a 37 bd be 79 20 bc 41 21 9e 3d
       0.13288361 -0.04474925 -0.009794651 0.077211864
000360 27 76 c2 3c 84 83 2f bd 8e dd 80 3c ca 19 8f bb
       0.02373798 -0.042850032 0.015730646 -0.004367088
000370 6d ab 33 3d 0c d9 e0 3c 68 5c 27 bd 2f f3 86 3d
       0.043864656 0.027447246 -0.04085961 0.06589352
000380 fb 16 d2 bd 4e 8c f8 3d 3d 62 37 3d a4 78 5e bd
       -0.102582894 0.12136136 0.04477142 -0.05431427
000390 b7 99 c4 3d 8e 79 c8 bd ed 63 9d 3d 06 3a d6 bd
       0.09599631 -0.0978881 0.07685075 -0.10460286
0003a0 f0 c4 cf bd 55 13 bd bd 68 c1 b1 bd f5 7e 1e 3e
       -0.10144985 -0.09232203 -0.086794674 0.15478118
0003b0 b5 4a 3b 3d 5c 63 09 3d 41 82 b7 bd ba 85 10 3d
       0.045725543 0.033542022 -0.08960391 0.03528378
0003c0 f9 28 a1 bc bb 9f f9 3c cf 67 d8 bd c4 e6 99 bd
       -0.019672858 0.030471673 -0.10566675 -0.07514718
0003d0 96 fb 84 3c 68 b0 0b bd e2 62 64 bd 05 bb df 3b
       0.016233247 -0.03410378 -0.055758364 0.0068277144
0003e0 ed 78 86 3d 44 41 33 bd 4b 66 f9 3d af 24 a9 3d
       0.065660335 -0.043763414 0.12177714 0.0825895
0003f0 f5 19 91 3d 85 c7 80 bc aa a7 5b 3d ed f0 62 bd
       0.07085029 -0.015720138 0.053626694 -0.055405546

network_body._body_endoder.seq_layers.0.bias f4 [256]
000000 29 ae 30 3c 65 4e cf 3c c2 b0 1a 3c f6 d4 db 3b
       0.0107837105 0.025305936 0.009441556 0.0067087365
000010 de 8e 06 3d 21 68 ba bc 1b 9f a4 3c 22 41 88 3c
       0.032851093 -0.02275473 0.020095399 0.01663262
000020 df 7e 92 3a 7d 28 5f bc 97 c7 77 3b f4 cc 79 3c
       0.0011176727 -0.013620493 0.0037808174 0.015246619
000030 e9 22 90 3c 4d 03 c1 3c 8b a8 b9 3b fc 54 3a bb
       0.017594771 0.023561144 0.005665844 -0.0028432002
000040 95 4c 2c 3c 9e cd cb 3b 4b 4d 02 3b c1 58 a2 3c
       0.010516305 0.00621958 0.0019882496 0.019817712
000050 3a 16 9b 3b ac be bb 3c df 08 7b bb e7 56 93 3c
       0.004732874 0.022918068 -0.0038304848 0.017985774
000060 3f fa a3 3c fd 81 01 3c 03 cf cd 3b 1b 21 0c 3c
       0.020016788 0.007904527 0.0062807812 0.008552815
000070 c1 7a 94 3b 14 5c 6d bb ee cb 9d 3c 32 b3 e9 3c
       0.004531235 -0.0036218213 0.01926228 0.02852783
000080 2b c0 16 3c ae 00 8c bb c1 1e 1d 3d 68 8b bb 3c
       0.00920109 -0.004272542 0.038359407 0.022893623
000090 9b 11 b4 3b 98 90 67 3c af 9c eb 3b 1f 6a 68 3c
       0.005495263 0.014133595 0.007190309 0.0141854575
0000a0 7b 5d e4 3b 35 52 22 3c 34 6c 11 3c b6 93 e8 bb
       0.0069691516 0.009907295 0.008875895 -0.0070976866
0000b0 4e 73 40 3a ed 3a 9e 3c 13 65 b9 3c 44 9c 85 3c
       0.00073414005 0.019315207 0.022631204 0.016309865
0000c0 12 bc b4 bb ce 2e ca 39 d4 e2 d6 3a fa d5 e8 3c
       -0.005515584 0.00038563315 0.0016394504 0.028422344
0000d0 a6 a8 65 3c a8 23 85 3b f0 53 71 3c 2c 72 32 b8
       0.01401726 0.0040630884 0.014729485 -4.2544838e-05
0000e0 58 f5 a8 3b bd d9 c9 ba 02 75 e3 3c 1a ae bf 3c
       0.0051562004 -0.0015399974 0.027765755 0.023398448
0000f0 4d 20 96 ba 7a 83 6c 3c ca c7 d6 3b b0 ab 15 3c
       -0.0011453718 0.014435643 0.0065545784 0.009135172
000100 8d 05 4c 3c 2d 1f c3 bb eb a6 22 3c c1 1c b7 3c
       0.012452495 -0.005954644 0.009927492 0.022352578
000110 13 1a 8e 3c 8d 2c c9 3c 49 bc 78 3b 11 ba fd 3a
       0.017346418 0.024557376 0.0037954024 0.001935782
000120 11 60 53 3c fd ee 02 3c ce 2c 4d 3c be b8 16 bc
       0.012901322 0.00799155 0.012522889 -0.009199319
000130 92 6b 58 bc ed 25 45 3b 2b ab 13 3c 15 18 08 bc
       -0.0132092405 0.003008242 0.009012978 -0.008306523
000140 48 83 c0 3b c2 c2 6a 3c a3 b3 4c 3c 2a e9 9e 3c
       0.005875025 0.01432866 0.012494001 0.01939829
000150 32 de a1 3b 01 e7 a6 3c 63 23 1b bc c5 87 ec 3c
       0.004939818 0.020373823 -0.009468886 0.028873334
000160 05 96 d0 3b 11 51 25 3b 1d 71 52 3c 64 2a f7 3b
       0.00636554 0.0025225321 0.012844351 0.007542895
000170 9f 29 32 3c 90 76 0a 3d 1d 0e 2f bb 00 36 ea 3a
       0.010874181 0.033804476 -0.0026711293 0.0017868876
000180 63 9b b8 3c 4e 35 7c 3b 13 26 b6 3c 3e d1 de 3b
       0.022535032 0.003848392 0.022234952 0.006799846
000190 db c9 07 3c 52 df 11 ba 23 a7 be 3c e7 dc 42 3c
       0.008287872 -0.00055645884 0.023273056 0.011893488
0001a0 d3 e5 10 3c aa 0c a1 3c a8 ef 9e 3c 79 12 bd 3c
       0.008843857 0.019659359 0.019401386 0.023080098
0001b0 cc aa 6c 3c ea 28 5a 3c d3 87 3a 3b 3c 94 03 3d
       0.014445018 0.013315419 0.0028462305 0.03212379
0001c0 a4 2c 30 bb d2 4d bb 3c f6 44 8e 3c b2 9c 1a bc
       -0.0026882077 0.022864256 0.017366868 -0.009436773
0001d0 53 22 ef 3c 71 66 cd 3b c1 e1 91 bb 0f e8 54 b9
       0.029191172 0.0062683155 -0.004451961 -0.00020304344
0001e0 1a c1 33 3d e0 bb ab bc e8 80 46 3c 72 7a 59 3c
       0.043885328 -0.02096361 0.012115695 0.013273822
0001f0 0e b8 22 3c 90 d5 6c 38 ca 85 3d 3c b5 eb 23 3c
       0.009931577 5.646568e-05 0.011567542 0.010004927
000200 2c 03 a9 3c 20 35 79 3c cb 2a 0c 3d c7 a6 14 bc
       0.020631395 0.01521042 0.034220498 -0.009072966
000210 e2 a1 d8 bb 57 86 f1 3b cd 20 f7 3c 1e 4f 27 3c
       -0.006611095 0.007370751 0.030167008 0.010211734
000220 f7 b9 57 3c 5a 0b 56 ba f0 f1 3c bc 68 57 3b 3c
       0.013166896 -0.00081651437 -0.011532292 0.0114344135
000230 ed fa c0 3c f7 37 92 3b 28 e5 27 3c ad 90 c9 ba
       0.02355715 0.004462238 0.010247506 -0.00153782
000240 d7 3e 83 3c 30 01 01 3d 30 00 56 bc eb aa f0 3a
       0.016021175 0.031495273 -0.013061568 0.0018361484
000250 e7 ac 29 bc af 84 57 3c 54 be 09 3b 60 a0 d0 bc
       -0.010356165 0.013154193 0.0021017985 -0.025467098
000260 25 83 2f 3c 7e ac 0b 3d 4a e2 79 3c ce a9 81 3c
       0.01071242 0.03410005 0.015251705 0.01582804
000270 ff fb 13 3c e7 5a b9 3b cc 6e 63 bc 5e 8e 1b bc
       0.0090322485 0.0056565884 -0.0138813965 -0.009494392
000280 74 e2 38 3c 14 fe 08 3c 18 bb c8 3c 22 89 f5 3c
       0.011284459 0.008361358 0.024503276 0.029972617
000290 bf ec 4c 3c 6d 93 0d 3d 80 45 12 3d 90 43 e7 3b
       0.012507617 0.034564424 0.03571081 0.0070576146
0002a0 5a 9e 86 3c 39 7c 66 3c e4 6c 04 3c 2f 68 bc 3c
       0.01643293 0.014067703 0.008082602 0.022998897
0002b0 3f dd c8 39 8d ed 95 3b 20 f0 00 3d a0 dd ca 3c
       0.00038311814 0.0045754374 0.031479 0.024763882
0002c0 57 2f cc 3b a4 10 23 3c bb 04 18 3c 71 b9 6b 3b
       0.0062312293 0.009952698 0.009278472 0.0035968686
0002d0 d0 55 47 bc 66 93 b8 3b 7a f1 94 3c 79 a6 0b 3c
       -0.012166455 0.0056328056 0.018181551 0.008523577
0002e0 1a c6 e0 bb 0f d5 40 3c 5b a1 0d 3b 70 c8 8a 3c
       -0.006859553 0.011769547 0.0021611068 0.01694128
0002f0 bd a6 e7 3c a5 31 59 bb ae da f2 3b b1 07 67 3b
       0.02827775 -0.0033141163 0.0074113226 0.0035252387
000300 9a 24 d2 3c 96 c6 19 3c 9c ef 29 bc 0b 4f 15 bc
       0.025652219 0.0093857255 -0.010372069 -0.009113084
000310 d1 12 ed ba 42 8f 30 b9 84 bb ec bb f4 2c fc bb
       -0.0018087273 -0.00016838036 -0.007224502 -0.0076957885
000320 92 6e e6 3c 1f 7c e8 3b 96 00 19 3d fd 1f 98 3c
       0.028128896 0.0070948745 0.037354074 0.01856994
000330 13 c1 61 3c 27 b1 88 3b a3 09 2f 3c 16 62 a7 3c
       0.013778943 0.004171509 0.01068345 0.020432513
000340 a2 a5 a3 3c ff 40 1a 3c 25 68 ba 3c 49 a5 69 3b
       0.01997644 0.00941491 0.022754738 0.0035651496
000350 84 53 df 3c a7 65 98 3c 95 0f c5 bb 3f 55 2d bc
       0.027261503 0.01860316 -0.0060138204 -0.010579406
000360 8c 79 df b7 6c 80 a5 3c 4f 2b b7 3c a6 00 a2 3c
       -2.6640271e-05 0.020202838 0.022359518 0.0197757
000370 18 ba e4 ba da 5c b8 3c 78 b3 e4 3b 87 1f 5e 3c
       -0.001745048 0.022505213 0.006979402 0.013557321
000380 49 b5 01 3c 8c cb 2e 3c f4 85 84 3c f2 ec 22 3d
       0.007916757 0.010668647 0.016177155 0.03977675
000390 bb 01 20 bb 48 e7 ce 3c 0c 5a a0 3c ce ff ea 3b
       -0.0024415094 0.025256768 0.019574188 0.0071716076
0003a0 3e 69 c6 bb a6 b4 82 3c b0 d0 90 3c a0 5d ee 3c
       -0.0060550263 0.01595528 0.017677635 0.029097378
0003b0 c9 35 a8 ba 27 d4 93 bc 9f f3 47 3c 0f 25 a1 3b
       -0.0012833412 -0.018045498 0.01220408 0.004917748
0003c0 bb eb 85 bc 4f 85 1c 3d c4 22 4e 3c 85 fd c9 3c
       -0.016347757 0.03821307 0.012581531 0.02465702
0003d0 4c 7c ff ba fe b2 95 3c e5 b9 1c 3c f9 08 97 3c
       -0.0019491999 0.018273827 0.009565805 0.018436896
0003e0 37 88 a8 3c 68 12 0e 3c 24 1c a3 3c fc 8a 24 3a
       0.020572765 0.008671381 0.01991088 0.0006276814
0003f0 44 b7 c4 3b 3d c0 88 3c da c3 c5 3c 1f bb 99 bb
       0.0060032923 0.016693229 0.02414124 -0.004691496

network_body._body_endoder.seq_layers.2.weight f4 [256, 256]
000000 6f a8 0e be e3 25 d4 3d 43 7c 4e bd e8 bf b7 bc
       -0.1393144 0.10358789 -0.050411474 -0.022430375
000010 6f 2e 1d bd 9f 3c 1a bd 4d 77 a6 bd 82 43 d1 3d
       -0.03837436 -0.03765547 -0.081282236 0.10217954
000020 0e f9 6d bd f7 61 a0 3d d2 dc 74 bc 3f 28 8f 3c
       -0.058098845 0.07831185 -0.014945226 0.017475246
000030 5e 0b 4f 3d 43 8b ae 3d 81 9e 00 be 9f 99 da bd
       0.05054795 0.08522656 -0.12560464 -0.10673832
000040 6e 37 22 bd af ee 84 bd a2 ba d1 bd a8 e4 9f bd
       -0.039603643 -0.06490838 -0.102406755 -0.078072846
000050 f6 f2 ba 3d 4d 1f 81 3c 33 eb bd bd 34 a0 be 3d
       0.09128372 0.015761996 -0.09273376 0.093079
000060 e9 18 c6 bd 42 cc 61 3d 0f 95 7e 3c de aa 00 bd
       -0.0967272 0.055126436 0.015538468 -0.03141295
000070 02 94 da 3d 27 0d 0b 3d fa 8c fc 3d 73 7d 84 bc
       0.106727615 0.03394809 0.12331577 -0.0161731
000080 c8 e9 c2 3d bd bc 28 3d 98 56 69 bd 6d f6 c8 3d
       0.095172465 0.04119562 -0.056967348 0.09812627
000090 f3 f3 63 3c 79 48 de bc 9b 13 56 bd 1f 45 cc 3d
       0.0139131425 -0.027134167 -0.05226479 0.09974121
0000a0 25 f7 65 bb 68 dd a2 3d 4b 8b 8e 3d d4 80 fa 3d
       -0.0035089937 0.07952386 0.06960162 0.12231603
0000b0 8c 40 8a bd 1c 84 1b 3d 18 21 1c 3d 6f b5 f3 3b
       -0.067505926 0.037967786 0.0381175 0.0074374
0000c0 62 90 dd bd 22 41 94 bd 2b 8d 26 3d 8d b1 4d 3c
       -0.108185545 -0.072389856 0.040661972 0.012554538
0000d0 5e 10 34 bc cf 2e 42 3c 61 f3 d5 3d c9 73 16 3d
       -0.01099023 0.01185198 0.104468115 0.036731515
0000e0 97 58 18 bd 64 88 0c 3e cc d1 4e 3b c7 24 aa bd
       -0.03719386 0.13723904 0.0031558154 -0.08307796
0000f0 01 aa af bc 99 26 2e 3d a3 83 57 bd 73 78 f2 3d
       -0.021443369 0.04251728 -0.052615773 0.1183938
000100 46 24 5b be 2d d3 f8 3c 4e 7b 4e bd 02 fa 93 3d
       -0.21400556 0.030374134 -0.05041056 0.072254196
000110 c4 d9 d4 bc 9c 07 a5 3c 9d 9d 2a bd 0d 37 4e 3c
       -0.025982745 0.02014523 -0.041654218 0.012586367
000120 78 74 c0 bd 51 2c b4 bc 01 81 8b 3c 3c 54 8f bd
       -0.09397215 -0.021993788 0.017029287 -0.06998488
000130 d8 8c 4d 3d 6b 58 46 3d 4b 70 d6 3d 34 56 9f ba
       0.050183147 0.048424166 0.10470637 -0.0012156428
000140 f3 c4 72 3d 92 e6 76 bd 4f ec b2 bc 80 3e dd 3a
       0.059269857 -0.060278483 -0.021841196 0.0016879588
000150 96 dd cc bb 83 a9 8a 3c 0f 1b 84 bc 4a 51 89 3d
       -0.006252001 0.016926533 -0.016126184 0.06704958
000160 a9 b4 9b bc 6e ee 26 bd 88 d7 31 3d 39 64 e4 bc
       -0.019007044 -0.040754728 0.043418437 -0.027879821
000170 f2 1f 40 bd 00 19 96 3d 2d 19 14 3e 43 5f 97 3c
       -0.046905465 0.07328987 0.14462729 0.018478042
000180 0d 06 a9 3c 1e 59 d2 bd 3b 8b 7b 3d 30 95 00 3c
       0.020632768 -0.10270904 0.061412077 0.007848069
000190 04 83 e8 3d 71 e0 b8 3c a1 83 b8 3c d2 92 95 bd
       0.11353114 0.02256796 0.022523703 -0.073033944
0001a0 f0 e5 f8 3d a4 fe 0e 3c 93 9e ae bd 09 83 34 3d
       0.12153232 0.008727703 -0.085263394 0.044070277
0001b0 bc 10 ce 3d 65 a3 3b 3d 8a c0 63 bc 9b 00 50 bd
       0.100617856 0.045810122 -0.013900885 -0.050781827
0001c0 34 8e c1 bd f9 b0 8f 3d 73 75 64 3d 91 ef 71 bb
       -0.09450951 0.07016177 0.05577607 -0.0036916474
0001d0 22 47 be 3a 7a aa 96 3d ff cd 7b 3c 2c 58 3e 3d
       0.0014517049 0.073567346 0.0153689375 0.046470806
0001e0 27 46 f0 3d 22 1d 73 3d 67 45 38 bd 8d 54 7b 3d
       0.117321305 0.059353955 -0.044988062 0.06135993
0001f0 41 85 5a bd ad 21 91 bc 82 15 07 bb bf 15 36 3c
       -0.053349737 -0.017716253 -0.0020612185 0.011113583
000200 98 25 6a 3d 34 90 70 bc d4 bf 4d 3c c1 ab 61 3d
       0.05716476 -0.014682818 0.012557942 0.055095438
000210 7b 4e e7 bd c0 f1 73 3d 4c dd c4 bb 34 92 d8 bd
       -0.11294266 0.059556723 -0.006007826 -0.10574761
000220 58 51 28 bd 4c 39 87 bd d6 de db bc 58 fa 5b 3d
       -0.0410932 -0.066027254 -0.026839655 0.053705543
000230 ac 1c c7 3d f5 c1 05 3d da e8 9a bd 05 9d f0 3c
       0.097222656 0.032655675 -0.07563944 0.029371748
000240 99 5e fc 3c b3 c9 d9 bb 81 ff 2b bd 21 bc c1 bc
       0.030806826 -0.006646359 -0.041991714 -0.023649277
000250 bf 6f 3b 3d e8 c4 d9 3c 5a b6 a9 bc 2a e3 22 be
       0.045760866 0.02658315 -0.020716835 -0.15906969
000260 aa 2a f1 3d 2f 09 8b 3d 2c c6 31 bd f2 be 9d bd
       0.11775716 0.06788861 -0.043401882 -0.077024356
000270 6d ec bc bc fb b1 84 bd 55 66 1c 3b f4 cf 0a 3d
       -0.023061955 -0.064792596 0.0023864706 0.033889726
000280 d1 44 05 be b9 7a c8 3d b8 bb a6 3c 26 09 50 ba
       -0.13014533 0.097890325 0.020353183 -0.00079359335
000290 e0 cb 31 bd bc 24 5a bc da 6b 8a bc 97 36 ab bd
       -0.04340732 -0.013314422 -0.01689713 -0.083600216
0002a0 11 79 53 3d 3b c2 8b bd d8 60 62 3c 62 2b d3 3d
       0.05162913 -0.06824156 0.013817035 0.10311009
0002b0 05 79 ee 3c 63 85 d4 3c ec 49 a4 bd 10 a2 67 bd
       0.029110441 0.02594251 -0.08021912 -0.05655104
0002c0 2a 16 c4 3d ab 0d 98 3d 94 8d 20 3d 51 1e 4d bd
       0.0957454 0.07424482 0.03919752 -0.05007774
0002d0 8a 8c 9e 3c f9 7c 55 3d 5a e9 11 3d 05 76 ea 3c
       0.019354124 0.052121136 0.035622932 0.02862073
0002e0 eb d9 89 ba fa 6e 6f 3b 6d aa 71 3d e7 24 2d 3d
       -0.0010517215 0.0036534653 0.05900042 0.04227152
0002f0 6c e7 31 bd d4 79 2f 3d d3 e7 0e 3c bb 0e e3 bb
       -0.04343359 0.042840794 0.008722263 -0.0069292462
000300 76 3f af 3c cd c3 b6 3d ca 1c 8a bd e5 49 a6 3c
       0.021392565 0.08924065 -0.06743772 0.020298908
000310 aa b7 84 3c 24 27 f9 3d 3a 0e 0c 3e 67 57 56 bd
       0.01620086 0.121656686 0.13677302 -0.052329447
000320 7f e6 81 3c 0f 56 c5 3c ad 34 a0 b9 b7 4b e1 bc
       0.01585698 0.024088887 -0.00030556825 -0.027501924
000330 54 38 48 3d 65 c1 b7 bc fe 81 ca bc 7a 96 ee bc
       0.048881844 -0.022431085 -0.024720188 -0.029124487
000340 d0 14 2b be 70 5b 85 3c 09 79 67 bd b9 9a 56 bc
       -0.16707158 0.016278952 -0.056511912 -0.013098412
000350 f6 80 47 3d 45 d0 ef 3d 63 8f c1 bd 54 0c 90 3b
       0.04870697 0.11709646 -0.09451177 0.004396001
000360 c7 fb 9e bc ae a0 b3 3d c2 1b e5 bd 1c 8b b6 3c
       -0.019407166 0.087708816 -0.11186935 0.02228313
000370 c9 96 dd 3c a1 4d 1c bd c3 20 6a bd 73 4c ad bd
       0.027049439 -0.03815997 -0.05716015 -0.08461847
000380 05 d6 27 bc ce 1a d1 3b 3d 9c 8e bd dc 35 e8 3c
       -0.010243897 0.006381369 -0.06963394 0.028345995
000390 79 34 c4 3d 4f ad c6 3d e3 4a cb bd 1d af 74 bd
       0.09580321 0.09701025 -0.09926393 -0.059737314
0003a0 d7 92 eb 3c 11 4a 52 3d ed 6b bc bc 53 e6 4b 3d
       0.028756542 0.051340166 -0.023000682 0.0497802
0003b0 cd e7 df 3c b8 66 94 3d a5 1f c4 3d de ec 17 bc
       0.02733221 0.072461545 0.09576348 -0.009272782
0003c0 ba 0f be bd d8 2b a9 bc bc 1f ce bd 02 27 7b 3c
       -0.09280343 -0.02065079 -0.100646466 0.015329124
0003d0 03 46 aa 3d a3 21 55 bd 9f 1a b7 3d 65 e1 92 3c
       0.08314135 -0.05203403 0.089406244 0.017929742
0003e0 dc 9b 38 3d 94 38 2c 3e 41 c0 9c 3d 9e 3e f2 3c
       0.045070514 0.16818458 0.07653857 0.029570874
0003f0 a4 14 3a bd cf 49 f1 3b 5e a0 e6 3d f0 e8 99 3a
       -0.04542984 0.007363535 0.11261056 0.0011742394

network_body._body_endoder.seq_layers.2.bias f4 [256]
000000 2e eb 58 3c cb 47 4d 3c e7 77 32 3c 3b 66 7c 3c
       0.013239665 0.012529324 0.010892845 0.015405233
000010 94 21 95 3c c5 fb c9 3c 66 93 a8 3c 48 a1 64 3c
       0.018204488 0.024656186 0.020578098 0.013954468
000020 26 7f 97 3c f8 25 1e 3b 55 2a 98 3b db 46 b6 bb
       0.018493246 0.0024131518 0.0046437182 -0.005562646
000030 a9 85 11 3d bc 05 03 3d b7 48 ed 3b c1 7a 77 bc
       0.03552786 0.03198789 0.0072413343 -0.01510495
000040 a7 a1 ef 3b 55 52 ea bb 68 8d a8 3c b8 ab 3c bb
       0.0073129716 -0.007150928 0.02057524 -0.0028788876
000050 4d 82 ee 3b 0a e3 a0 3c 21 bf bc 3c 3e e3 b1 3c
       0.0072787167 0.01963951 0.023040356 0.021714803
000060 b7 d8 8a bb 11 1c 23 3c 5f 42 c7 3a ae 4a 1c 3c
       -0.00423726 0.009955422 0.0015202275 0.009539289
000070 dc 4a 8f 3c 31 94 13 3c e6 c0 dd 3c 49 da a7 3c
       0.01749175 0.0090075 0.02706952 0.020489829
000080 da 41 b7 3c e8 1a 90 3c de 33 56 3a 6f f6 2d 3c
       0.022370268 0.017590955 0.0008171181 0.010617836
000090 c6 67 f4 3c ea c9 f3 3b 47 32 22 3c 78 f4 af 3b
       0.02983464 0.0074398415 0.009899682 0.005369719
0000a0 57 ce a5 3b bc ba 81 3c ed 51 70 3b 12 5b 1d 3c
       0.005059998 0.015836112 0.0036669925 0.009604232
0000b0 40 b2 3f bc 91 b4 87 3c 8a dc 63 3c b6 2a 44 3c
       -0.011700213 0.016565593 0.013907561 0.011973074
0000c0 12 58 8b 3c 2a 19 c9 3b 8f 52 50 3c 03 80 0c 3d
       0.017009769 0.006137033 0.012714996 0.03430177
0000d0 c5 32 95 bb ba e3 ba 3b 2b b9 23 bb 31 a2 c7 3c
       -0.0045531713 0.0057034167 -0.0024982195 0.024369331
0000e0 7a 35 c5 3a bb 17 82 3c c5 df 8b 3c 82 39 b2 bb
       0.0015045844 0.015880456 0.017074475 -0.0054389844
0000f0 4f 61 cc 3c c0 22 ac 3c a0 0c 36 3c 47 84 03 3c
       0.024948744 0.021012664 0.0111114085 0.008027143
000100 ed a5 9d 3c b7 67 69 3b 29 97 97 3b 5a c5 11 3c
       0.019244159 0.0035614797 0.004626174 0.00889715
000110 6c 15 68 3c 2c 19 b1 3c d3 8b 54 3b d2 79 b7 3c
       0.014165264 0.021618448 0.0032431975 0.022396956
000120 1b 64 89 3c 61 8c af 3c 57 da 3a 3c 9b 55 02 bc
       0.016771367 0.021429243 0.011404595 -0.00795498
000130 4b 58 1e bc 11 19 80 3b 23 64 cd 39 3b 13 3b 3c
       -0.009664605 0.003909238 0.00039175255 0.011418159
000140 1c de 4a 3c 57 7b 02 3d 40 61 4a 3c 1f a3 b7 3c
       0.012382057 0.031855907 0.012352288 0.02241665
000150 b4 63 46 3b ba 53 f4 3b ac 2c ff 3b a3 be 14 bb
       0.003027183 0.00745627 0.0077873077 -0.0022696636
000160 2a 8c 6a 3c bd 94 67 3c 01 e1 86 3c 91 a1 f5 3b
       0.014315644 0.014134583 0.016464712 0.007496067
000170 02 38 52 bc 02 8c 39 bc 53 42 88 3c 4e b3 66 3c
       -0.012830736 -0.011324884 0.016633188 0.0140808355
000180 3e 45 48 3a ea 3e 69 3c 75 d7 76 bb 34 82 3a 3c
       0.00076397124 0.014236191 -0.0037665043 0.011383582
000190 bb fc ca 3b 5e 57 da 3b 80 01 51 3c 87 43 73 3c
       0.0061946786 0.006663247 0.012756705 0.014847643
0001a0 0c 4c 49 bc 38 b0 99 3b 59 1b 7c 3c 9b 51 92 3c
       -0.012286197 0.0046901964 0.01538738 0.017861178
0001b0 20 41 9f 3c 7c c9 9c 3c 9d b0 00 3c 97 af 50 bb
       0.019440234 0.019139044 0.007854608 -0.003184294
0001c0 28 c7 7a 3b c6 6a 60 3c 9b 5e 01 3d f0 1d f9 3c
       0.003826568 0.013697332 0.031584363 0.030409783
0001d0 22 a5 ec 3c 67 ef a5 3c 0c ee a4 3c 09 be da ba
       0.028887335 0.020255757 0.02013304 -0.0016688715
0001e0 a1 11 8f 3c 60 84 d7 3c aa f1 a1 3a b4 3c c8 3c
       0.01746446 0.026308239 0.0012355347 0.024443008
0001f0 03 20 10 3c 2c d5 54 3c de 13 0f bb e8 4a ba 3c
       0.008796695 0.012990277 -0.002183191 0.022740796
000200 d6 76 44 bc d6 ed 68 3c e3 a5 ba 3c ab a8 6d 3c
       -0.011991223 0.014216861 0.02278418 0.014505546
000210 e1 4c be 3c d5 d1 8a bb 1e 32 7c 3c d3 48 2c 3c
       0.023230018 -0.0042364397 0.015392808 0.0105154095
000220 43 2d ea 3c 4b eb 7e 3c f7 2f 9a 3c fa 2c 65 3c
       0.028586036 0.015559028 0.0188217 0.013987774
000230 e7 ba 79 3a 0c 06 37 3c ba 4e ec 3c 94 81 38 bc
       0.0009526447 0.011170875 0.028846134 -0.011261363
000240 4e 88 92 bb b2 6d 50 3c ea 64 3e bc a8 30 63 3c
       -0.004471815 0.012721466 -0.0116207395 0.013866581
000250 4f ef b8 3c 2d 74 4a 3c e4 36 ce bb 3d 4d 09 3d
       0.022575049 0.0123568 -0.0062931646 0.033520926
000260 cd 89 a0 3b d2 a9 60 3c fa 52 f2 bb a7 5a c2 3c
       0.0048992396 0.013712363 -0.0073951455 0.023724867
000270 0c 94 66 3b 17 c2 bb 3c 63 c8 c0 3b 99 c9 9a 3c
       0.0035183458 0.022919698 0.005883263 0.018894957
000280 78 df 92 3c 83 38 74 bc b2 c7 9f bb 49 21 8a 3b
       0.017928824 -0.014906052 -0.0048761005 0.0042153937
000290 07 79 9a 3c f5 10 d1 39 26 6a d3 3c 3a 2b 8d b9
       0.018856538 0.0003987622 0.025807451 -0.00026925822
0002a0 d2 8a 5a 3c af 3a cf 3c b2 ea 61 3c 04 32 eb ba
       0.013338761 0.025296537 0.013788866 -0.0017943983
0002b0 db 02 f9 3c 28 fb 09 bc 4d 61 60 3c 35 a8 bf 3b
       0.03039687 -0.008421697 0.013695073 0.0058489093
0002c0 6b ea 00 3d d9 07 02 3c 9e ed 23 bb 59 f8 82 bb
       0.03147356 0.007936441 -0.0025013457 -0.0039968905
0002d0 b3 d6 39 3c 80 6e 4b 3c 38 b0 11 bc 74 2b 56 ba
       0.011342692 0.012416482 -0.0088921115 -0.0008169927
0002e0 ed c6 b1 b8 a5 50 56 3b 93 59 18 3c 2f c3 fc bb
       -8.4770705e-05 0.0032701876 0.0092987 -0.0077136974
0002f0 5d 93 19 bc 3a 40 77 3c 90 98 90 3b 91 9b 83 3b
       -0.009373513 0.015090996 0.004412718 0.0040163477
000300 71 8c b9 3c 0d 22 84 3b 96 19 cc 3c 24 c0 55 3c
       0.022649975 0.0040323795 0.024914544 0.013046298
000310 e9 98 29 3c cb 79 ba 3b 05 3c 94 3b 85 81 bc 3c
       0.010351398 0.0056907884 0.0045237564 0.023010978
000320 aa b2 97 bb 8b 49 74 3c f4 2b b0 3c 28 c1 a1 ba
       -0.0046294527 0.014910112 0.021505333 -0.001234089
000330 23 4e af bb af f0 bd 3b cb c6 b2 3c f1 eb 34 bb
       -0.005349891 0.005796514 0.021823307 -0.0027606452
000340 0f 83 6b bb 11 a0 ec bb 89 c4 d8 3b 4d c9 18 3c
       -0.0035936271 -0.00722123 0.0066152257 0.009325338
000350 40 69 56 3b fb 35 a1 3c c6 2f d3 3c e0 f8 0b 3c
       0.0032716542 0.01967906 0.025779616 0.008543223
000360 72 41 98 3c 23 33 96 3c 07 01 90 3c 7e d4 a3 3c
       0.018585894 0.01833493 0.017578615 0.019998785
000370 cf ff dc 3b ec 0a 08 3c 76 89 09 3c 16 0c d3 3c
       0.006744362 0.008303385 0.00839459 0.025762599
000380 d9 87 a2 3c de 4c ed bb d7 19 90 3b 93 c6 14 bb
       0.019840168 -0.0072418293 0.0043976116 -0.0022701367
000390 ab 2c c1 bb 15 46 3b b9 69 c9 6c 3b 44 91 34 3c
       -0.0058952174 -0.00017859817 0.0036130792 0.011020962
0003a0 31 cf fe 3b 9d 89 ad 3c 4e c5 bd 3c cd 36 35 3c
       0.007776164 0.021183783 0.023165371 0.011060429
0003b0 49 b0 d0 3c 83 4a 21 bc e5 a2 58 3c 33 94 09 3c
       0.025474684 -0.009844425 0.013222431 0.00839715
0003c0 33 a8 60 3c f5 29 97 3c 1a ba 45 3c dd 2f 92 3c
       0.013711977 0.018452624 0.012068296 0.017845089
0003d0 cb 01 a0 3c 84 3c 3f 3c 07 34 7e bc 70 e2 5f bb
       0.019532105 0.011672143 -0.015515334 -0.0034162067
0003e0 47 9b a5 bb 3b b9 06 3d 9e 4d 96 3c 23 ce 9b bb
       -0.005053911 0.032891493 0.018347558 -0.004754798
0003f0 98 ea 86 3c fd 73 dc bb 87 a3 87 3c 43 81 b2 3b
       0.016469285 -0.006727694 0.016557468 0.005447538

action_model._discrete_distribution.branches.0.weight f4 [2, 256]
000000 8a 08 3a bc 58 6f 0a bb be b5 ea 3b c8 c6 0a 3d
       -0.011354575 -0.0021123495 0.0071627786 0.03388098
000010 ed 68 a5 bb a5 aa 27 3c 61 db f0 bb cc c3 5f 3b
       -0.0050479085 0.010233556 -0.0073503708 0.0034143804
000020 b7 b2 e3 b9 38 ff ac 3c a4 5f 9c 3c 78 c7 a1 3b
       -0.00043429967 0.021117792 0.019088574 0.0049371086
000030 32 22 cc bc cc ce 7a bb 5e a0 45 bc 39 6b 2f 3b
       -0.02491865 -0.0038270233 -0.01206216 0.002676679
000040 91 95 62 3b 3b b8 74 3b 60 85 d8 bc 4f 59 7d bb
       0.0034574012 0.0037341255 -0.026430786 -0.0038657968
000050 df 72 c3 3b ba ac 73 3a e8 fb 89 bb 11 73 0b 3c
       0.0059646214 0.00092954526 -0.004210938 0.008511321
000060 7d 9b fe 3b 45 f5 0e 3c ce 8f 9a 3c 0b f7 7c bc
       0.0077700005 0.008725469 0.0188674 -0.015439759
000070 3d 68 9a 3b 8a b9 dc 3c 54 4e 9d bc 22 20 e6 bc
       0.004712133 0.02694394 -0.019202389 -0.028091494
000080 18 76 91 b9 72 4d 20 3b 17 92 33 bb 98 4a 55 3b
       -0.00027744542 0.0024460224 -0.0027400309 0.0032545682
000090 90 d3 b6 bb 56 f7 c8 3c 0b 75 7f bb 9b 3a 5b 3c
       -0.0055794194 0.024532001 -0.0038979675 0.013380672
0000a0 70 77 9e bc 63 07 c2 bc b6 e6 83 3c 92 ea 6c 3c
       -0.019344062 -0.023685163 0.016101222 0.014460223
0000b0 3e 40 8a 3c c0 a0 42 bc 66 65 a4 bc ca 72 96 bc
       0.016876336 -0.011879146 -0.020067882 -0.018365283
0000c0 f2 96 c7 bb b8 45 b0 3b a6 e9 70 3c de 2c 03 bc
       -0.006090992 0.005379405 0.014704144 -0.008006303
0000d0 fd 73 85 3b f9 7b 4d 3c 58 38 da ba 6f bd f4 bc
       0.004072665 0.012541764 -0.0016648872 -0.029875485
0000e0 b0 06 a8 3c d6 cf 54 3c 79 70 91 bc ae 3f 92 3c
       0.020511001 0.012989005 -0.017753826 0.01785263
0000f0 7d b8 f8 bc 2b 91 4c bc c4 b0 40 bb f7 6e 58 3b
       -0.030361408 -0.012485783 -0.0029402236 0.0033025125
000100 39 e6 09 3c 41 cf a3 3b 2c 68 cb 3b 32 e9 f2 3a
       0.008416706 0.004999072 0.0062074866 0.0018532632
000110 99 b3 61 bb 2f 65 c6 bc e5 95 c6 3a 24 05 05 bc
       -0.0034439324 -0.02421817 0.0015150873 -0.008118901
000120 7e 0e 25 bc 38 8c 39 bc cb 80 77 bc 15 bb eb 3a
       -0.010074256 -0.011324935 -0.01510639 0.0017984832
000130 88 72 b2 bb 28 2b c6 3c 34 58 b3 3b 4b ba ce 3a
       -0.005445782 0.0241905 0.005473161 0.0015772072
000140 07 5e e0 3b 23 b3 b9 bc 22 fd 58 3b 8e 9d a4 bc
       0.0068471464 -0.022668427 0.0033109863 -0.02009466
000150 da c8 2b b9 79 69 8d bc 8f 0a c6 3b 24 13 e3 3b
       -0.00016382654 -0.017262207 0.006043739 0.006929772
000160 d2 9e e7 3b 28 5f c6 bc 6d 7e 92 bb 98 b7 d5 b9
       0.0070684934 -0.024215296 -0.0044706375 -0.00040763314
000170 42 41 6d 3c 10 67 f5 3b 1d a2 41 bb b4 c3 ba bb
       0.014480891 0.0074890926 -0.002954609 -0.005699599
000180 d3 86 35 3c c4 f0 b8 3b 68 72 0d 3b 3e a3 bf bc
       0.011079508 0.005643936 0.0021583084 -0.02339327
000190 01 3a ca 3b f5 e4 4f 3b f1 4a 4c bc c3 ee 10 3c
       0.0061714654 0.0031722162 -0.012469039 0.008845988
0001a0 e5 b0 89 3c 07 95 dc bb 96 8c 40 3c cf 75 07 3b
       0.016807983 -0.0067316326 0.011752268 0.0020669585
0001b0 4f e1 13 bd ea 13 51 3c 3d e8 53 ba d7 fa 87 3c
       -0.036103543 0.012761096 -0.00080836174 0.016599102
0001c0 96 86 bf bb df ca 9c bb 1f 56 97 bc 66 57 e1 bc
       -0.0058449013 -0.0047849263 -0.018473683 -0.027507495
0001d0 66 e3 14 3a db 2d ab bb 00 8e be 3b a5 50 51 3b
       0.0005679637 -0.0052239723 0.0058152676 0.0031938937
0001e0 54 4e fd bc 9a 36 3b bb da 5d 28 bb 31 26 0e bd
       -0.030921139 -0.002856648 -0.0025690706 -0.03470439
0001f0 bf 55 3e b9 9f 67 cc 3a 76 8e 1c 3c 0b 33 81 bb
       -0.00018151755 0.0015594846 0.00955545 -0.0039428524
000200 fb d5 f4 3c e4 5e a9 3c 88 b5 97 3b 48 9a ca 3b
       0.02988719 0.02067513 0.0046297945 0.0061829425
000210 79 2d b0 bc ae 40 20 3c a5 88 73 bc 52 92 1f bc
       -0.021506058 0.009781046 -0.014864122 -0.009739475
000220 90 48 ff ba cd aa d3 bc 6e 55 a1 bc 13 b7 27 3b
       -0.0019476581 -0.02583828 -0.019694056 0.0025591298
000230 0f 66 8a bc 6b 01 88 bb 85 27 78 3c 12 d2 d0 ba
       -0.016894368 -0.0041505597 0.015146141 -0.0015931746
000240 e0 c4 5f 3c 5d 91 28 bc 7f 6e ce 3c de 58 99 3c
       0.0136577785 -0.010288564 0.025199173 0.018719133
000250 60 4d e1 bc ba 16 99 bc 80 83 41 ba 87 b2 02 bd
       -0.027502716 -0.018687595 -0.0007381961 -0.03190854
000260 38 54 5c 3c d2 a0 8e 3c 5d de b6 3c ea 50 2d 39
       0.013447814 0.01741067 0.022322828 0.00016528709
000270 ad d8 ee 39 5e b6 23 ba c6 b2 15 bc 0c 78 4f bc
       0.00045556333 -0.00062451314 -0.009136861 -0.012662899
000280 f0 d3 36 bb 42 95 a8 3b b9 5a 1e bb 26 8e 35 bc
       -0.002789732 0.005144746 -0.0024162962 -0.011081254
000290 c4 f9 59 bc c5 07 2d 3c f8 d2 a7 3b 2f f9 3a bb
       -0.013304178 0.010560934 0.005121585 -0.0028529873
0002a0 e7 44 74 3b a0 bd 8f 3c e6 b1 8f 3c c2 7a 38 3c
       0.0037272514 0.017546475 0.017540883 0.0112597365
0002b0 d3 63 aa bc 86 28 89 3c 32 9e 58 3c 77 c0 cb bc
       -0.020799553 0.016742956 0.01322131 -0.024872048
0002c0 88 9c 1a bc 4d 8f bb 3c 62 69 c3 3c a3 49 14 3b
       -0.009436734 0.02289548 0.023853961 0.0022626899
0002d0 5f 00 f0 39 75 85 ad 3b 95 00 36 3c 0c 46 47 bc
       0.00045776644 0.0052954503 0.011108537 -0.012162697
0002e0 ff 61 07 bb 0a f9 42 3c 09 e1 26 bb 0e 37 71 3c
       -0.0020657775 0.011900196 -0.0025463721 0.014722599
0002f0 e6 6f 03 3c 82 3d 7b bc 8b 43 38 3c 27 3c f3 3b
       0.008022284 -0.015334489 0.011246572 0.007422942
000300 f7 43 1e bd 6b f6 ab 3c c6 06 12 bc a2 90 63 bb
       -0.038639035 0.020991525 -0.008912748 -0.003472366
000310 6c ab c2 3c 68 fb 76 3c 83 e9 20 3c 62 31 2e bc
       0.023763381 0.015074588 0.0098212985 -0.010631891
000320 fd 03 12 3c b0 fa ba 3c df ce 6c 3b ac cf 65 3c
       0.008912084 0.022824615 0.0036134047 0.014026564
000330 6f 2e a2 bb 53 c3 08 3c d9 87 b8 bc 53 b6 3a 3b
       -0.004949383 0.00834735 -0.022525715 0.0028490021
000340 fe e6 d0 3b 78 c9 f1 3a 9f 40 e7 bc 3a 3d 25 3c
       0.0063751927 0.0018446883 -0.028229056 0.010085398
000350 6d 9d a7 3b c3 e4 c3 bc 20 95 58 bc 74 2a 6c 39
       0.005115202 -0.023912793 -0.013219148 0.00022522529
000360 28 15 87 bb d8 76 77 bc 26 ab 2c bc 10 43 e7 bc
       -0.004122395 -0.015104018 -0.010538852 -0.02823022
000370 78 f1 64 3a 57 08 44 3c 57 dd 88 bc 53 5a cd bc
       0.00087334914 0.011964879 -0.016707106 -0.025067484
000380 e7 23 21 3c 42 f8 66 3c b1 3b 7f 3c 7e 9e 2a bb
       0.00983522 0.014097275 0.015578196 -0.002603441
000390 34 14 38 bc 69 eb 75 bb 2b b8 01 3d db d5 d7 3a
       -0.011235286 -0.0037524349 0.031669777 0.0016466932
0003a0 24 c4 89 3c ed 64 47 bc 37 d6 16 3b 4f 26 28 3c
       0.01681716 -0.012170059 0.0023015866 0.01026304
0003b0 9e c2 a7 bc 59 f7 7b 3c 78 3a 8f 3c a7 6d e8 bb
       -0.020478543 0.0153787965 0.017483935 -0.0070931497
0003c0 8a 5c c5 bc 21 74 58 3c e4 87 2b 3c a6 ed 03 bd
       -0.024091978 0.013211281 0.010469411 -0.03220906
0003d0 ef 73 d6 3c e2 9f 96 bc be 20 a0 3b e8 59 48 bb
       0.026178328 -0.018386785 0.0048867157 -0.0030571166
0003e0 00 da cb 3a 82 e7 5b bc 76 2e dd bb 7c 21 17 bb
       0.001555264 -0.013421895 -0.0067499233 -0.002306073
0003f0 cd db c2 bc 29 e9 ed 3b c3 27 e4 3c 1d 0a 4d bc
       -0.02378645 0.007260461 0.027850991 -0.012514618

action_model._discrete_distribution.branches.0.bias f4 [2]
000000 2f 5b 5f bc 2d 5b 5f 3c
       -0.01363258 0.013632578

action_model._discrete_distribution.branches.1.weight f4 [3, 256]
000000 ce 11 ae bb 7a ce 97 bc de 5b 41 bc 98 ce 12 bd
       -0.005312181 -0.018531073 -0.011801688 -0.035841554
000010 51 1d 45 36 f0 ff f2 bc 4d b4 7e ba e4 3e a0 bb
       2.9372352e-06 -0.029663056 -0.0009716198 -0.0048903096
000020 5b cf c9 bc 02 7e b6 bb b6 d6 2f bc 04 b8 59 3b
       -0.024635008 -0.0055692205 -0.010732343 0.0033221254
000030 2c 12 79 3c 32 f8 94 bc 6e 1c fe 3c f7 bb 76 3c
       0.015202086 -0.018184755 0.031019416 0.015059463
000040 99 b8 51 3c 93 c8 a5 ba 2c 56 96 3c b5 03 6c bb
       0.012800359 -0.0012648277 0.018351637 -0.0036012952
000050 b8 17 05 bc de 31 83 bc d4 28 92 bc 30 c4 9d bc
       -0.008123331 -0.01601499 -0.017841734 -0.019258589
000060 56 cf d4 bb 4b 87 86 bc e9 0c 25 3b 18 f1 03 bb
       -0.006494443 -0.016421935 0.0025184697 -0.0020132717
000070 33 18 de bc c9 fe 4b bc 02 7a 1a bd 1f 87 f3 3a
       -0.027111148 -0.012450882 -0.037714012 0.0018579698
000080 0a f8 9e bc f6 44 e7 bc c2 52 09 3c 71 1e 5e bb
       -0.019405384 -0.028231125 0.008381547 -0.0033892656
000090 f7 e8 61 bc 51 c5 02 bd b9 22 52 3a 47 8a 67 bc
       -0.013788453 -0.031926457 0.00080160383 -0.014132089
0000a0 53 ef d5 3c fc ad f5 3b 7a d6 e1 bc 7b 7e 74 bc
       0.026115095 0.007497547 -0.02756809 -0.014922733
0000b0 42 5f a3 3c 3b 1e 7c bb 65 a6 1e 3d 09 de e1 3b
       0.019942883 -0.0038470167 0.038732905 0.0068929237
0000c0 0f 03 d6 3b d7 ae a3 bc ad 47 ef 3c 20 b8 ca bb
       0.0065311263 -0.019980831 0.029208982 -0.0061865
0000d0 6b cc 69 3c ff 07 19 3c 3c c1 c0 3c 53 cd 64 bc
       0.014269928 0.009340285 0.023529641 -0.013964969
0000e0 e0 93 1a bc fe f6 5c ba 4e ae c1 bc 03 e0 e5 3b
       -0.00943467 -0.00084291387 -0.023642685 0.0070152297
0000f0 f2 6a e7 3c bf 3e b1 39 5f f0 b2 bc 41 66 3a bc
       0.028249238 0.0003380682 -0.021843133 -0.011376918
000100 75 12 d3 bc 42 31 e1 bb c8 ef f5 b9 d1 35 f8 bc
       -0.025765637 -0.006872327 -0.00046908692 -0.0302991
000110 d0 d5 94 bc 15 06 85 3b 3e 3b d0 3c 9f 07 b8 bc
       -0.01816836 0.004059563 0.025418874 -0.022464572
000120 ca d8 92 bb 1f 1c 30 bc 82 b7 07 bb b0 f7 5c 3b
       -0.0044814097 -0.010748892 -0.0020708744 0.003371697
000130 9c 1e 0b 3d d5 6c 9f bc 52 4a 04 3c 97 f6 9f bb
       0.03396474 -0.019461075 0.00807436 -0.0048816907
000140 2d 74 40 bc e3 13 0b 3c 1c 19 92 3c 8c 6f 0a 3c
       -0.011746448 0.008488628 0.017834239 0.008449446
000150 eb 76 38 3c 6d 2f 6f 3c 57 80 38 3c b0 db 25 3a
       0.011258821 0.0145987095 0.011261067 0.00063269865
000160 63 b7 41 3b f0 30 ee 3c ce 31 0c 3d b3 a6 ac bc
       0.002955877 0.02907607 0.034227185 -0.021075582
000170 53 24 a0 3c 29 b4 84 3c 12 22 95 bc 15 c9 e9 3b
       0.01954857 0.016199188 -0.018204723 0.0071345665
000180 bf a8 a3 bc 80 28 28 bb b4 86 af bc 92 b4 9e 3c
       -0.019977925 -0.0025658906 -0.021426536 0.019373212
000190 ce ce 6d bc 41 5b f8 b9 b9 c5 f6 3c 7c b7 8a 3b
       -0.014514638 -0.00047370236 0.030123578 0.004233299
0001a0 55 c9 1c bb 69 b1 76 3c 28 f1 04 bd 2d c4 9c bc
       -0.0023923714 0.015056946 -0.032456547 -0.019136513
0001b0 f4 8f 12 3b 44 81 ac bc cf 64 26 3c 87 06 9f bc
       0.0022363635 -0.021057732 0.010155871 -0.019412292
0001c0 5b 08 dc 3c ac a8 2f 3c b9 23 3c 3c 7e be 48 bc
       0.026859453 0.010721367 0.011483126 -0.012252448
0001d0 ce 6a 90 bb e8 41 60 bc a0 08 90 bc 03 1b ca 3c
       -0.0044072634 -0.013687588 -0.017582238 0.024671083
0001e0 d8 0e 80 3c ca 8b 9f bc 86 8a ee 3c 8a 1a d1 3c
       0.015632078 -0.019475836 0.029118787 0.02552535
0001f0 93 c6 bb bb 52 8f 9b 3a e1 76 93 39 ea d9 7f bc
       -0.005730459 0.0011868274 0.00028126597 -0.01561592
000200 ed 30 9e 3c fd d0 5c bc 61 64 c8 bc ae 97 f9 bb
       0.019310439 -0.013477561 -0.024461927 -0.0076169586
000210 7d aa b8 bc 91 1b 9d bc 00 e8 c3 bc 7c 22 49 3a
       -0.022542233 -0.019178184 -0.023914337 0.000767268
000220 8b 42 17 3c a1 dc d5 3b 8d 57 ec 3c d5 9a 06 bc
       0.009232174 0.006526545 0.028850341 -0.008215626
000230 e3 31 10 3c d2 0c d3 3b 7c e2 26 b8 f1 72 2e 3c
       0.008800956 0.0064407373 -3.9788414e-05 0.010647521
000240 0e ec 21 bc a2 bb 66 3c f2 05 72 bb 1c 36 bc bc
       -0.00988294 0.014082821 -0.0036929813 -0.02297502
000250 bc e4 87 3c ea c9 2e 3c df 3c bc 3c 5d 8c 92 bb
       0.016588561 0.010668257 0.022978244 -0.004472299
000260 e6 5b 10 bc 9f 1c 52 bc 4f 93 97 bb 4a b2 21 bb
       -0.008810973 -0.012824207 -0.004625715 -0.002467292
000270 0f d5 14 bc ae 48 8c 3c 79 3d 82 3b 9a 4b e4 bc
       -0.009084 0.0171245 0.0039746133 -0.02786808
000280 ab 9b 67 bc 38 f6 06 3c 0b 0d 77 3a 6f ac c2 3c
       -0.014136235 0.008237414 0.0009424246 0.023763863
000290 12 98 26 3b 91 f8 35 ba 03 e5 fc bb 4e c3 2c bc
       0.002542023 -0.00069416413 -0.00771773 -0.010544611
0002a0 7f cf 5d 3c e2 68 0e bd c2 18 ee bb 2e 00 ec 3a
       0.01353824 -0.034767993 -0.007266135 0.0018005425
0002b0 b0 b6 07 3a 40 6a 60 3c a6 a5 a6 b9 b1 4c aa 3c
       0.0005177064 0.013697207 -0.00031785405 0.020788522
0002c0 d5 76 33 bb 6c 40 43 bb 7f 46 b8 3c 19 7d 10 bc
       -0.0027384062 -0.0029793037 0.022494553 -0.008818888
0002d0 6f 44 4c bc 3a 45 22 bc c7 51 9c ba d5 97 06 bb
       -0.012467488 -0.0099042 -0.0011926227 -0.0020537276
0002e0 25 bb 47 3b 80 8c 07 bc 2e ba 95 ba 83 8d b1 bb
       0.0030476537 -0.008273244 -0.0011423284 -0.005418481
0002f0 bc 8f 75 bb 82 a2 26 bc c6 5c e8 bb 7f b8 2d bc
       -0.0037469706 -0.010170581 -0.0070911376 -0.010603069
000300 26 1d a6 3c fa 17 8c bc 89 ee 61 3c 6d 29 27 bc
       0.020277571 -0.017101277 0.013789781 -0.010202748
000310 1b 15 71 bc 5a 06 29 bc 74 db 93 bb 3d 88 94 bc
       -0.014714505 -0.010316456 -0.004512245 -0.01813137
000320 9c 79 16 3c 49 0a de bc 0c 24 87 bc 1c e9 86 bc
       0.009184267 -0.027104514 -0.01649668 -0.016468577
000330 f3 b6 44 bc 3c 86 ad 3b 4d 55 09 3d 55 af 22 3a
       -0.012006509 0.005295543 0.033528615 0.0006205936
000340 ce e9 0e ba 57 12 0d 3b 43 d3 a1 3c e1 47 a2 3a
       -0.000545171 0.0021525824 0.019754058 0.0012381041
000350 21 cd 38 bc 21 09 23 bc ef 79 0b bd cb d3 33 bc
       -0.011279375 -0.009950907 -0.03405183 -0.010975788
000360 79 90 e9 bc 63 e9 80 bb f4 db 9a 3c fa 59 a7 3c
       -0.028511273 -0.003934072 0.01890371 0.020428646
000370 f8 ea 85 3c d8 66 2c bc 11 0c 23 3c 8b 77 1c b8
       0.016347393 -0.010522567 0.009951607 -3.730463e-05
000380 9d a9 54 bc df 6d e8 bb 8d 2e 59 bc ad 8f 99 3b
       -0.012979892 -0.007093176 -0.0132557275 0.004686317
000390 ef eb d0 3b 92 76 a3 3c 83 55 c1 bb b0 07 7d bc
       0.0063757817 0.019954 -0.0059000864 -0.015443727
0003a0 ea f1 66 bc 91 f4 aa 3b ac 84 ec bc 03 31 b5 bc
       -0.014095763 0.005217143 -0.028871857 -0.022118097
0003b0 ac ed 15 bc 20 f6 d2 ba 39 85 07 bd 70 4b 56 3b
       -0.009150904 -0.001609508 -0.033086035 0.0032698773
0003c0 58 14 5b 3c c7 e3 29 b9 0d fd b5 bc 87 9b 1b 3c
       0.01337155 -0.0001620195 -0.02221539 0.00949753
0003d0 6b a3 04 bc 36 87 d1 3b 55 09 d2 3c 67 41 66 3c
       -0.0080956025 0.006394292 0.025639215 0.014053679
0003e0 66 e5 89 3b 6f a6 45 3c 63 5a 0a bc 58 e5 f1 3b
       0.0042082546 0.012063607 -0.008444401 0.0073820762
0003f0 8c 7c 79 3c 03 7f 41 bc a2 b0 0e bd bd 9e 98 bb
       0.015227448 -0.011810067 -0.03483642 -0.004657595

action_model._discrete_distribution.branches.1.bias f4 [3]
000000 39 fa 13 bc 52 0e 77 b7 91 43 f7 3b
       -0.009031826 -1.47256815e-05 0.0075458963

onnx::Div_98 f4 [78]
000000 87 87 12 3b e6 63 19 3e 88 49 7a 3e 87 87 12 3b
       0.0022358613 0.14979514 0.24442112 0.0022358613
000010 28 b0 4a 3e da 1f 87 3e 87 87 12 3b 85 92 04 3e
       0.19793761 0.26391488 0.0022358613 0.12946518
000020 9f e4 4f 3e 87 87 12 3b 58 04 23 3e 86 46 77 3e
       0.20302056 0.0022358613 0.15919626 0.24147996
000030 87 87 12 3b 2f 31 0a 3e a2 b4 56 3e 87 87 12 3b
       0.0022358613 0.13495325 0.20967343 0.0022358613
000040 a0 8c 27 3e 06 0d 7c 3e 87 87 12 3b 82 16 dd 3d
       0.16362238 0.24614343 0.0022358613 0.10795309
000050 af 45 2b 3e 87 87 12 3b 67 6b 04 3e 48 6a 5c 3e
       0.16725801 0.0022358613 0.12931596 0.21524918
000060 87 87 12 3b c2 07 e2 3d 43 e8 2c 3e 87 87 12 3b
       0.0022358613 0.11036636 0.16885476 0.0022358613
000070 ae 88 04 3e 47 09 5d 3e 87 87 12 3b 92 a9 be 3d
       0.12942764 0.2158557 0.0022358613 0.09309687
000080 10 76 13 3e 87 87 12 3b 05 06 e3 3d 20 18 4e 3e
       0.14400506 0.0022358613 0.110851325 0.2012639
000090 87 87 12 3b f2 d0 bc 3d a0 dc 19 3e 87 87 12 3b
       0.0022358613 0.09219541 0.15025568 0.0022358613
0000a0 fb 20 f5 3d b5 fb 50 3e 87 87 12 3b ee 16 a9 3d
       0.11969181 0.20408519 0.0022358613 0.082563266
0000b0 f2 bf 0e 3e 87 87 12 3b 29 a8 e7 3d 6f d4 50 3e
       0.13940409 0.0022358613 0.11311371 0.20393537
0000c0 87 87 12 3b 2a 0f a4 3d 66 97 04 3e 87 87 12 3b
       0.0022358613 0.08010705 0.12948379 0.0022358613
0000d0 38 b7 d1 3d 99 35 4a 3e 87 87 12 3b cc 79 98 3d
       0.10240024 0.19747008 0.0022358613 0.07445106
0000e0 67 ab 0d 3e 87 87 12 3b 06 2d f0 3d bd 13 56 3e
       0.13834916 0.0022358613 0.117273375 0.20905967
0000f0 87 87 12 3b 11 13 93 3d 91 aa 0a 3e 87 87 12 3b
       0.0022358613 0.07181371 0.13541628 0.0022358613
000100 01 5e ec 3d 56 95 51 3e 87 87 12 3b a1 35 8c 3d
       0.11541367 0.20467123 0.0022358613 0.068461664
000110 b7 1c 03 3e 87 87 12 3b 1d a8 de 3d fb b9 4f 3e
       0.12803923 0.0022358613 0.10871909 0.2028579
000120 87 87 12 3b d6 54 83 3d 51 62 fa 3d 87 87 12 3b
       0.0022358613 0.064126655 0.122257836 0.0022358613
000130 92 12 d6 3d 3b 4d 4f 3e
       0.10452761 0.20244305
