Assets/AIModels/RollerBall-100014.onnx (onnx, 79277 bytes, 8 tensors)

network_body._body_endoder.seq_layers.0.weight f4 [128, 8]
00000000: 2bb7 d43e daa3 083f abde 493e ae49 2fbe
00000010: 681f a63e 5739 f5bb 9ed9 49bf 3503 08bf
00000020: 0bec a4bb c69d 6dbf 9e37 ec3e d6f8 13bf
00000030: dd04 20bd 97c9 943e b20f 51be 8cd3 dc3c
00000040: 66d0 d73e fd6b 073e 9a09 be3d 617f 03be
00000050: a66e ccbd b208 323d e3c8 5a3c 6b74 28bf
00000060: 6e24 1d3f 6033 d63b 7ff7 c6bd 67b7 c13d
00000070: ef75 85be f1ae 15be 6fc2 15be 367a a93e
00000080: 7523 823d e887 723e 382e c5bd 3da1 b83e
00000090: 2441 ba3e c0e3 f93e 5d5a bcbe cc44 a2be
000000a0: bd63 6f3e bfb3 93bd bd83 de3e ac48 aebe
000000b0: 854b 143f 92a3 2d3b 9d4e b9bd bda7 35bd
000000c0: d7ef f9bd 7d28 6dbe 2337 c9be beef a3bd
000000d0: df1b 09bf a5e7 1c3e a252 2b3e b6de ad3e
000000e0: a8ff dabc c0e4 bd3e 4c39 97be 1947 66bf
000000f0: 8604 1fbf 9711 96be e394 153d 0bb4 9dbd
00000100: e773 49be 0cdd 0ebf 8589 6dbe cc61 503d
00000110: 81e6 26be ea25 803e 2c4c 3fbe e1a6 b43b
00000120: ee9a 0cbe 62b4 ccbd 55be 773e 9872 35be
00000130: ebbd b2be 2ef8 c0bd 45b5 cd3e 6df2 723e
00000140: 34a9 2f3d f201 043e 8d0b e4be 51c4 d2be
00000150: 95f0 9f3e f9c1 dd3e 9cfc cb3e 6551 693e
00000160: 76ed d73b 20b7 80be 8487 41be 912a 70be
00000170: 2973 af3d 5147 dabe 56d9 b63e 6581 2e3d
00000180: 234b 8a3e 28b3 473e 709e 923e 8c04 70bd
00000190: 0ab0 94be 68e9 fb3d 1e7e 69be d8bc afbe
000001a0: 490d 9b3c b604 fcbd dfc8 c13e 784b c03e
000001b0: 3898 26be 73b2 aabe 49f9 5d3f 0ac9 b23d
000001c0: 71d2 a23e ba61 e6be a260 f33b b30c bd3e
000001d0: c211 983e 5792 0a3f db1e 52bd 9627 34be
000001e0: bf17 003e ed88 bdbe f4dd 033e d72c de3e
000001f0: 757a 3abf a761 a63c be7c 62bd f1e3 08bf
00000200: 2dcf 54be 7c44 883e e8f2 e9be 22fe 193f
00000210: 27b6 3ebd 1286 823e bc6f a93e 8257 283e
00000220: 67b5 353e 107c 4c3f 68a4 5abe 1795 58bf
00000230: bd62 d5be bd06 dd3e 56d7 4e3e c172 a73e
00000240: 215a bdbe 8fab 8f3e 46ac 8c3e 727a 79bd
00000250: ff56 c0be 22b8 bc3e 4656 d9bd ae38 3bbe
00000260: b2da 0cbe 584f 04be 5439 5f3d b286 183e
00000270: d274 3bbf 6b65 803e d729 17bf 19f0 b33e
00000280: 9e46 873e 5e2a 35bf 1041 df3e 5891 d5be
00000290: 0145 4a3d ceb1 cd3e c6d5 b03e bc7c 16be
000002a0: ddd5 1f3f 2062 de3d b247 8dbe d771 0a3f
000002b0: 2794 723e 80de bcbe e89c 7abe 23c3 463d
000002c0: ccc7 28bd 49c7 fa3d 5c91 3d3e 02dc 8c3e
000002d0: 68b7 be3d e741 b5be 36e3 8cbe 0953 283f
000002e0: a032 243d dbfd 953e aac4 e7be d3fb c63e
000002f0: 24d2 e9be 43bd 843e 00ce 3a3f 629c b33e
00000300: 6f34 c1be f817 eabd d78c 54bb 04bf bb3e
00000310: 925f 37be b53d 053f 02f7 203f ae15 95be
00000320: b310 9e3e 1b75 26bf 1a4a 5a3e 5c97 c03e
00000330: f0d3 a63e 0570 2fbd e1da 103e f113 91be
00000340: 3833 2ebc 58c5 ec3e 221d e4bd fbe2 643e
00000350: 0e82 143b c17a 90be 919c d4bc 7d70 983e
00000360: 704f 423f 78f5 043e 43f7 2abd f2b8 a0be
00000370: 0488 163f bd0e bdbe 7b57 2a3e b801 ed3d
00000380: ca77 e03e cfe1 3fbd 9857 30be 6914 fabe
00000390: 7138 cc3e 1cc7 c53d a53a 14be f93b da3d
000003a0: 01fb bc3e c666 51be 68d9 84be a73c 63be
000003b0: e7a8 ebbd ae08 18bc 8fbe aabe b1b5 363e
000003c0: 4296 3d3e a76a d83e 5b4b 44bf abfa 163e
000003d0: 32d0 03be bf2c 1dbe 4719 87bf 32bb 063f
000003e0: 6a10 04be 695a b139 3341 0abf 9c7d c53e
000003f0: 135d 9dbe b70c 6abc 7b5a 10be 3f0c 8fbe
0.41545996 0.5337502 0.19713847 -0.1711795 0.32445836 -0.007483642 -0.7884768 -0.53129894
-0.0050330213 -0.9281887 0.46136183 -0.5780157 -0.039067138 0.2906005 -0.20416144 0.026956342
0.42151183 0.13224788 0.09279175 -0.1284156 -0.09982042 0.043465324 0.013353559 -0.6580264
0.6138371 0.006536886 -0.09715175 0.09458809 -0.2606654 -0.14617516 -0.14624952 0.33101052
0.06354419 0.23684657 -0.09627956 0.36060515 0.36377823 0.48806572 -0.36787692 -0.31693113
0.23377891 -0.07212018 0.43459883 -0.3403982 0.57927734 0.00264952 -0.090481974 -0.04434942
-0.12203949 -0.23159976 -0.39299878 -0.080047116 -0.5355815 0.1532274 0.1673074 0.33958977
-0.026733235 0.37088585 -0.29535902 -0.89952236 -0.6211628 -0.29310295 0.036518943 -0.07700356
-0.1967312 -0.5580604 -0.23196991 0.050874516 -0.16298868 0.25028926 -0.18681401 0.0055130576
-0.13730976 -0.09995343 0.241937 -0.17719495 -0.3491052 -0.094223365 0.4017736 0.2372529
0.042885974 0.12891367 -0.44540063 -0.41165403 0.31238237 0.43312052 0.39841163 0.22784956
0.006589587 -0.25139713 -0.18899351 -0.23453738 0.08566887 -0.42632535 0.3571269 0.04260387
0.2701045 0.19501936 0.28636503 -0.058598086 -0.29040557 0.12300378 -0.22802016 -0.34323764
0.018927233 -0.12305586 0.37848565 0.37557578 -0.16269004 -0.3333927 0.86708504 0.087297514
0.3180118 -0.44996434 0.007427291 0.3692375 0.29701048 0.54129547 -0.051298957 -0.17593226
0.12509058 -0.3701853 0.12877637 0.43393585 -0.72843105 0.020310236 -0.055294745 -0.5347281
-0.20782156 0.2661475 -0.45693135 0.601534 -0.046560433 0.25492913 0.3309306 0.16439632
0.17744981 0.79876804 -0.21351779 -0.84602493 -0.41676894 0.43169203 0.20199332 0.32704738
-0.36982825 0.28060576 0.27475184 -0.06090779 -0.37566373 0.36859232 -0.106121585 -0.1828334
-0.137553 -0.12920892 0.05449803 0.14895132 -0.7322513 0.25077376 -0.5904822 0.35144117
0.26421064 -0.7076777 0.43604326 -0.4171245 0.049382214 0.40174717 0.34538096 -0.1469602
0.62435704 0.108585596 -0.27593762 0.54079956 0.23689328 -0.36888504 -0.24473917 0.04852594
-0.041206166 0.12245042 0.18512481 0.27511603 0.09312326 -0.35401842 -0.27517098 0.657517
0.040087342 0.2929524 -0.4526723 0.38864002 -0.45668137 0.25925645 0.7297058 0.35080248
-0.37735316 -0.11430353 -0.003243258 0.3666917 -0.17907551 0.5204728 0.62876904 -0.29118103
0.30872115 -0.6502244 0.2131733 0.37615478 0.3258357 -0.04283144 0.14145996 -0.28335527
-0.010632329 0.4624431 -0.11138369 0.22352211 0.0022660526 -0.28218654 -0.025953563 0.29773322
0.7590246 0.12984264 -0.041739713 -0.31391102 0.58801293 -0.36925307 0.16634934 0.115725935
0.43841392 -0.046846207 -0.17220914 -0.48843697 0.3988681 0.09657118 -0.14475496 0.1065597
0.3691025 -0.20449361 -0.25947118 -0.22191106 -0.11506825 -0.009279413 -0.3334851 0.17842747
0.1851435 0.4226887 -0.76677483 0.1474406 -0.12872389 -0.153491 -1.0554589 0.5262939
-0.12896886 0.00033827432 -0.54005736 0.38572395 -0.30735072 -0.014285258 -0.14097016 -0.2793903

network_body._body_endoder.seq_layers.0.bias f4 [128]
00000000: b2f3 b13d dd96 a7bc 0ebb 3b3c 2fd6 57bc
00000010: 51ae 76bc 4a4a 1d3d 572e 473d 9455 44bd
00000020: add3 43bc 4b32 0fbd ee65 693d ab7f c0bc
00000030: b7ed 8c3c 62bc b8bc 180a d53a d5b4 55bb
00000040: b223 b83d 7521 203d 9785 d13c d617 4fbc
00000050: adf7 7fbc e286 55bc dc5c a2bc a738 c73c
00000060: c5bc 303d b8ab 67bd 6f08 2b3c c0db 513d
00000070: 5e4d db3d 43ad bb3d 7ac5 463c 3283 e4bb
00000080: df19 38bc 67fa b7bb 8078 6d3d 637c e13c
00000090: 78fa a3bd 9605 2c3d 952b 473d 71d2 863c
000000a0: 25d3 623d 8f44 a1bb 84b2 8fbd 257b 143d
000000b0: c2f9 95bd ccb8 80bd b003 debd e366 043d
000000c0: b6eb 753b 308a 313d 94f2 763c a1c5 3c3c
000000d0: 39cf 883c 0a18 64bd 174a 813b 5584 80bd
000000e0: 6497 3f3d b851 853d c2d7 dabc 7c48 e3bb
000000f0: f1a2 ba3c aa3b 243c 0acd 633c b1a2 943b
00000100: a4ae db3c 19e0 76b9 ef1a 7cbc 1981 063d
00000110: 0b11 f8bb 6740 d5bc 1396 3b3c 6482 90bc
00000120: 95a8 d53b 2367 523c c77d 043d 74a3 163d
00000130: 6664 233c 3338 093d 2b5c 99bc 8398 373d
00000140: 91e8 da3c df17 973d 03fe 703b fb30 8dba
00000150: 2bcf 853d 46d0 52bd 58a2 a63d 99f0 2e3d
00000160: 8986 bb3c 96eb 63bd c66d 85bd d17e 2d3d
00000170: a29b d43c a8c2 abbc ab32 633c 6fd8 693d
00000180: 77df 1dbb 8702 ac3d a376 a9bb d0f6 7e3d
00000190: 0075 ed3c fd66 7f3d 3e45 843d 64b3 04bd
000001a0: f61a f0bc 0ff2 02bc e20a 6b3d 24c7 8fbd
000001b0: f3cb 643c de39 b2bc 80b3 b5bd b758 a63c
000001c0: 53a4 f03c 3eed 24bc b722 70bd c779 453d
000001d0: 738f 17bc 27ca a43c 7bbe 8abd b086 0f3d
000001e0: f521 c33b 9fa0 063c cd52 0a3d 95fc ca3c
000001f0: 78a3 10bd 0b72 e33b 16ee 533d 37fa 8ebc
0.08689059 -0.02045768 0.0114581715 -0.013173624 -0.015056209 0.038400926 0.048628177 -0.047933176
-0.011952323 -0.034960072 0.056981973 -0.023498377 0.017203195 -0.022550765 0.0016253619 -0.0032609005
0.08991183 0.039094407 0.025576396 -0.01263996 -0.015623015 -0.013032647 -0.01981967 0.024319006
0.043148775 -0.056560248 0.010439022 0.05123496 0.10708116 0.091639064 0.012132043 -0.0069736475
-0.011236637 -0.005614567 0.057976246 0.027525133 -0.080067575 0.041997515 0.048625547 0.016457768
0.055377144 -0.004921503 -0.07016471 0.036250252 -0.07323028 -0.06285247 -0.10840547 0.032324683
0.0037524528 0.043344676 0.015072484 0.011521728 0.016700374 -0.055686988 0.0039456 -0.0627524
0.046775237 0.06509727 -0.02671421 -0.006936131 0.022782775 0.010023991 0.013903866 0.004535996
0.026816674 -0.00023543871 -0.015387281 0.03283796 -0.007570391 -0.026031686 0.011449355 -0.0176403
0.0065203407 0.0128419725 0.032346513 0.036776975 0.009972667 0.03350086 -0.018720707 0.04482318
0.026722224 0.073776 0.0036772497 -0.0010772044 0.06533655 -0.051468156 0.08136433 0.04270992
0.0228913 -0.055644594 -0.06515078 0.04235727 0.025953118 -0.020966843 0.013867061 0.057091173
-0.0024089494 0.083989196 -0.0051716133 0.062247097 0.028986454 0.062354077 0.064585194 -0.032397643
-0.029309731 -0.007992282 0.057383426 -0.07020405 0.013964641 -0.021756109 -0.088721275 0.020305974
0.02937523 -0.010066329 -0.058626857 0.04821184 -0.00925051 0.020115925 -0.067746125 0.035040557
0.0059549757 0.008217006 0.03377037 0.024778644 -0.035312146 0.006941085 0.05174073 -0.017453296

network_body._body_endoder.seq_layers.2.weight f4 [128, 128]
00000000: e360 b1bd 3161 08bd 6292 95bd 93ca 22bd
00000010: eb79 253e 8f60 f4bc 5278 eebc 1ac6 01bd
00000020: 3cce 6a3e abcd 7cbd fe56 6fbc 14a2 dc3d
00000030: 6ad3 f6bc 95b7 b53d bb30 803c 681a a63d
00000040: c787 1dbc ac75 ab3c 09c7 00be e914 64bc
00000050: e122 b4bd a025 03be 5436 fabd b206 9e3e
00000060: 9608 c1bd 6fc3 0a3e 0491 1b3d 4484 063e
00000070: fb03 0fbd 7c8e c6bd 5a29 0cbc 40c3 9c3e
00000080: 21e6 963d ce0e 99bd f358 95bc dcfa b83d
00000090: d812 abbd 22ff 5a3d 34dd b93d 9d01 3abb
000000a0: 6b43 f63d 7edb fb3d fe2b 443e 054d a6bd
000000b0: 5fc2 e53c b831 72bd 7626 403e 71f7 f0bd
000000c0: c349 cc3d 3c10 8c3c c000 31be fab7 17bd
000000d0: f742 0cbc 7388 5e3d 8856 f43d 660e 303e
000000e0: c7d3 3fbe 5f33 b63d ab75 da3d b70b 143d
000000f0: 4a69 bcbb 76ac d43d d6fd 2fbd bb7d 9a3d
00000100: 3a75 b8bd 4a90 583d f8b6 33bd 9299 d63d
00000110: b1e1 a93d 3714 bb3d 5585 2fbd 436a 063e
00000120: 8500 28be 7cbf c3bd b4fc c3bc 2a3c 2abc
00000130: 4de3 8bbb f85c e03d 70d8 d7bc 2f17 0ebd
00000140: bf74 1dbe a206 c7bc 5dc3 72bd dd8e cbbd
00000150: 248d 0c3d 26ba 1cbe aaaf adbd a6d8 42be
00000160: 918a 0dbd acbc c2bd 69b0 97bd b08b 073e
00000170: 510a 833b cacf 0fbe d84b 30bd 0956 e43d
00000180: ea68 4abe eef4 8f3d 2b30 c4bd 038d 7e3d
00000190: a478 ce3d 6bc7 5dbe 7d3d 253e cedd 5e3c
000001a0: 4f7f 65bd ddae 983c 6462 0e3e 6795 0d3d
000001b0: 6abf 853d 6239 c03d 1219 b3bd f55e 9abd
000001c0: 319d d8bb fb74 e2bc 351b bcbd 5bd6 1abe
000001d0: e9e6 1fbe 73ae 03bd fe65 d3bc 4edb ecbb
000001e0: 48d8 1a3b 6e32 1e3d 03b3 27bd 176c 7bbd
000001f0: a3ba 42be b5df 15be 0090 fabd 5fca 7abd
00000200: a294 6cbe b9da 25bd 49ee 25be 49de 233d
00000210: cf7e 0dbe 10b5 12be b7ac da3c 0b04 3fbd
00000220: 8b1d 95bd f247 04be 84ac 1fbe a179 2c3d
00000230: 46ea 3abe b087 343c b36c 003e ac3a f63d
00000240: 19cb 80bd a73b 5a3d 7cb5 283d 45cc 70bd
00000250: 396b e8bd eb20 14be b960 f23c 4578 4bbc
00000260: 2478 a2bd 631c 893e 977e eebd 8d13 0abe
00000270: 275f 0abc d2b9 74bc ee33 95bd 061f d03d
00000280: 7858 c23d ac35 323e 83be 893d b90b 073e
00000290: 0c62 123e 2548 2d3e 84dd a8bd a028 3dbe
000002a0: f210 64bd e06b eb3d 1403 f13d b6c5 69be
000002b0: ab6b 1bbd e801 023e a274 733d afbd 87bd
000002c0: 7105 0a3e 1984 843a efc6 a8bd 2d5c 02be
000002d0: f0ba 64bd f75a bf3c 6b3c 95bd a760 9e3c
000002e0: 6097 053e f501 233d 38b1 863d 2031 14bc
000002f0: 7a1a f8bc cfa0 b4bd 62fa d0bd ee32 243d
00000300: a5d9 84bc ee64 eabd 09c2 a8bc 9172 45bc
00000310: 4ed6 92bd 679a 4bbc e9ad 343e 7bbf cc3d
00000320: 28f8 1d3e 1612 a03d 02a3 933d 68e8 38be
00000330: 02f5 18bd 27e0 153d c55e 8c3b 6ddb e6bd
00000340: 1bb4 1fbe f41c e3bc af5f 463c 18a3 1b3e
00000350: bc70 073d c61b 1f3d f3a1 c83d ce38 f3bd
00000360: 69d6 15bd bc9d 69bd 9373 cd3d 5dae 8abd
00000370: 7e79 13be 0b3a 023d bf12 0e3d 7cf0 dc3d
00000380: d94b 5b3d b685 81bd d893 82bd e3a6 a3bc
00000390: 4372 8ebd cb64 87bc 3790 07bd 470b 7d3c
000003a0: 9f6d 593d 2abd 353d 1cc4 b53c 673f 31bc
000003b0: 0fd4 7abd fd29 91bc db66 bb3c 2ac2 703d
000003c0: 8502 2b3c 3451 aebc cd40 8bbd fcd3 40be
000003d0: 2e63 33bd db22 14bd 4069 ebbd 869a 01be
000003e0: 496f e2bd 5786 0d3d 1d7a 873d e5c2 12bd
000003f0: a64b 883c 079b bdbc 8395 0fbe 234b a0bd
-0.08661058 -0.033295814 -0.07303311 -0.03974397 0.1615979 -0.029831199 -0.029110108 -0.031683065
0.22930235 -0.061719578 -0.014608143 0.107731014 -0.030130107 0.08872906 0.015648236 0.08110505
-0.009614891 0.020930134 -0.12575926 -0.013921001 -0.08795715 -0.12807322 -0.122173935 0.30864483
-0.09425466 0.13551114 0.037980095 0.13136393 -0.034915905 -0.096951455 -0.008554781 0.30617714
0.07368112 -0.07473527 -0.01823089 0.09032223 -0.083532035 0.05346597 0.09075394 -0.002838231
0.12024578 0.12297724 0.19157407 -0.08120159 0.028046785 -0.059129447 0.18764672 -0.11765946
0.099750064 0.017097585 -0.17285442 -0.037040688 -0.008560888 0.054329347 0.11930567 0.17192993
-0.1873313 0.08896517 0.10666975 0.036143985 -0.005749856 0.10384457 -0.042966686 0.075435124
-0.09006734 0.05287198 -0.043875664 0.1047851 0.08295 0.09134715 -0.042851765 0.13126473
-0.16406448 -0.09558007 -0.02392421 -0.010390321 -0.0042690397 0.109552324 -0.026348323 -0.03469008
-0.15376566 -0.024295155 -0.059268344 -0.099393584 0.03431429 -0.15305385 -0.08480771 -0.19027957
-0.034555975 -0.095086426 -0.074066944 0.1323688 0.0039990325 -0.14044109 -0.04304108 0.111492224
-0.19766584 0.070291385 -0.095795 0.062146198 0.10081604 -0.21658103 0.16136737 0.013602687
-0.056029614 0.018638069 0.1390472 0.03456631 0.0653065 0.09385945 -0.08745016 -0.07537643
-0.0066105356 -0.027643671 -0.09184877 -0.15120833 -0.15615429 -0.03214879 -0.02580547 -0.0072282916
0.0023627449 0.038622312 -0.040942203 -0.06138238 -0.19016509 -0.14636119 -0.12234497 -0.061228152
-0.23103574 -0.040491793 -0.1620418 0.04000691 -0.13817905 -0.14326882 0.026693685 -0.046634715
-0.072810255 -0.1291807 -0.15593153 0.042108182 -0.1825343 0.011018679 0.12541465 0.120229095
-0.06288738 0.053279545 0.041188702 -0.058788557 -0.11348576 -0.14465682 0.029587137 -0.012418811
-0.07933071 0.2677947 -0.11645239 -0.1348402 -0.008445538 -0.014936881 -0.072852954 0.10162167
0.0948953 0.17403287 0.0672579 0.13188066 0.14295214 0.16922052 -0.08245376 -0.18472528
-0.055680223 0.11495185 0.11768165 -0.22829327 -0.037944477 0.1269604 0.0594374 -0.06627976
0.13478638 0.0010110169 -0.082410686 -0.12730475 -0.05584234 0.023358805 -0.072869144 0.019333197
0.13046026 0.03979679 0.065767705 -0.009044915 -0.030286063 -0.08819734 -0.10204007 0.040087633
-0.016217062 -0.11445032 -0.020600336 -0.012051241 -0.071697816 -0.012426949 0.17644466 0.099974595
0.15426695 0.078159496 0.07208826 -0.18057406 -0.037343033 0.03659072 0.0042837583 -0.11272321
-0.15596049 -0.027723767 0.012107774 0.15198934 0.033066496 0.038844846 0.09796514 -0.11876069
-0.03658143 -0.057035193 0.1003181 -0.067715384 -0.14401814 0.031793635 0.034685846 0.10788056
0.05353913 -0.063243315 -0.06375855 -0.019977039 -0.069553874 -0.016527554 -0.03309652 0.015444583
0.05308306 0.044369854 0.022188239 -0.010818339 -0.06123739 -0.017720217 0.022876194 0.05877892
0.010437612 -0.021278955 -0.06799469 -0.18830866 -0.043795757 -0.036166053 -0.11494684 -0.12656602
-0.11056382 0.034551945 0.06615088 -0.035830397 0.016637634 -0.023145212 -0.14021878 -0.07826831

network_body._body_endoder.seq_layers.2.bias f4 [128]
00000000: 595a d0bb 3730 98bd cb87 353d 5419 4abb
00000010: 7855 9d3d 8533 1e3b d414 60bc 938c 2f3d
00000020: df3d d93c fff0 573d e05d 85bc 54ae 5dbd
00000030: 4431 5a3d db58 063d 9afe 2f3d d5ad 913d
00000040: a816 c63d 8557 a63c 5b38 aa3c 598d 78bb
00000050: 67a0 b43d 9ad7 533d e022 01bd 9ab6 62bd
00000060: 4387 353c 8e92 a73d 7eee 073d c581 cc3d
00000070: 30cd 71ba 51f8 8fbc ab94 7ebc af8b 343d
00000080: cc08 a23c 7356 5f3c 3f58 dc3c 76ef 083d
00000090: e8ea bd3c e3a5 753d 8d4d cf3d db24 bb3b
000000a0: cda3 2d39 8c65 2c3d 79ce ff3c 9205 0a3d
000000b0: 11ce f33c 1236 8eb9 c136 a7bb 722a 513d
000000c0: 7e90 4bbd 6e92 4d3d c526 3e3d bca6 ef3a
000000d0: 8ad3 743d 2da2 2c3c 8024 953d 5843 64bc
000000e0: c69e 63bc 4c6a 953c b127 ae3c 5899 883d
000000f0: fdfc 2cbc 40ae 613c d417 cfb9 1f3b b03b
00000100: 181a 863d fbda 2d3d 41d6 c73d e05d 973d
00000110: 97b8 9739 4d19 8ebc 4b68 223d 9cea 603d
00000120: a6b7 483c 2a22 a03c c4e2 433d 125f 1cbc
00000130: 04cf ac3b f452 6bbc ed59 93bc cec3 c63a
00000140: dc64 983d 672a 89bb 64a2 d63c 4417 f93c
00000150: 9e78 c3bc 0a25 803c 08b0 be39 fcee 6abc
00000160: 3a36 983d c60d 963c 6ef6 603d 2b40 0f3d
00000170: 7e73 203d 0a07 d83c 9bb2 e0b9 e3ee 833c
00000180: f204 0abd 44da 013d 66c5 3f3d b27a 903c
00000190: 19c8 2e3c 47a0 d5b9 1c84 e03c 220b 9d3c
000001a0: 30c3 05bc f687 e73c 5298 963c fc01 5d3d
000001b0: 12af d93c c937 f53c b56e ae3d aa2c db3c
000001c0: 2524 873d 1c8a f33c 0688 703b b567 793d
000001d0: 35bf 003d 1e27 98bc 64e6 7f3d 1d84 c33b
000001e0: d71a 393c 4ff5 f53c 46b1 db39 48fe 573d
000001f0: 1742 0d3d 1877 663c 24bc f83c 6cda fa3b
-0.0063584265 -0.07431071 0.044318955 -0.003083785 0.076823175 0.0024139595 -0.013676841 0.04285867
0.02651876 0.052720066 -0.016280115 -0.05412133 0.05326964 0.032799583 0.042967416 0.07113234
0.0967229 0.020305404 0.020778826 -0.0037926047 0.08819657 0.051719286 -0.0315274 -0.055349924
0.011079612 0.0818225 0.03318643 0.09985689 -0.0009223996 -0.017574461 -0.015538375 0.044078525
0.019779585 0.013631451 0.026897548 0.033431493 0.023183301 0.059972655 0.101222135 0.0057111806
0.00016559586 0.04208903 0.031226384 0.03369672 0.029761346 -0.00027124636 -0.0051029627 0.05106587
-0.049698345 0.050188474 0.046423692 0.0018283944 0.059772052 0.010536713 0.072823524 -0.013932072
-0.013892835 0.018239163 0.02125916 0.06669873 -0.010558364 0.013774455 -0.0003949987 0.0053781415
0.06547946 0.042445164 0.097576626 0.07390952 0.00028938495 -0.017346049 0.039650243 0.05491124
0.012250816 0.01954754 0.047823682 -0.009544151 0.0052737016 -0.014363039 -0.017987216 0.0015164556
0.074411124 -0.004185963 0.02620048 0.030406602 -0.023861226 0.015642662 0.00036370778 -0.014339205
0.07432218 0.018317115 0.054922514 0.034973305 0.039172642 0.026370544 -0.0004285768 0.016105121
-0.033696122 0.031702295 0.046819113 0.01763663 0.010667824 -0.00040745942 0.027406745 0.019170348
-0.008164212 0.028263073 0.018383179 0.05395697 0.026572738 0.029933827 0.085172094 0.026754696
0.06598691 0.029728942 0.003670217 0.06088992 0.03143235 -0.01857334 0.062475577 0.005966677
0.011297903 0.030024199 0.00041903014 0.052732736 0.034486856 0.01406648 0.03036315 0.0076554324

action_model._continuous_distribution.log_sigma f4 [1, 2]
00000000: 3320 88bd 3c45 0cbe
-0.066467665 -0.13698286

action_model._continuous_distribution.mu.weight f4 [2, 128]
00000000: 23a1 35bd 8fd4 72bc dff3 7c3d 26ac 8e3c
00000010: f392 8a3d cfc0 8a3c 2ac0 373c 8413 8ebd
00000020: e394 513d 50ed 203d abc1 2a3d 6372 613b
00000030: d658 8bbd 9477 05bd 1934 03bd 094e 8b3d
00000040: 78ba a2bd ca8b 1e3d 64ba 413d 44bb 46bc
00000050: 45cf efbd a008 353d 2128 26bc 0043 a23b
00000060: 04e8 923d a370 863c 9ffc a63d b2a5 b0bd
00000070: bd3e 1d3d 743d dfbc 6d42 69bd 5130 b7bd
00000080: 54f2 223d 2c6a 07bd 8b90 09bd 5d69 43bd
00000090: 6c82 94bd a5af 093d 4b6c 0bbd 1072 b73c
000000a0: 88a7 dd3c 462d 853d 85a1 c13d 4351 87bd
000000b0: 3d63 1ebd 7d77 833c c018 07bd 64ea b93d
000000c0: e334 5cbd 3a79 87bd 9800 ccbb 88c8 90bd
000000d0: 4267 bebd 4013 5e3d 1418 a5bd 95c9 b8ba
000000e0: 8d64 583d 687c a63c c7e5 ad3a 7cef de3d
000000f0: a84f 013d 4240 7bbd c774 7e3c c702 febc
00000100: ef5e dcbd e9e3 8abc 6e37 79bd 4754 be3d
00000110: 909b 5b3b 90e3 ccbc 03e3 86bd e35e 623d
00000120: d191 323d 2633 d63c bd06 5e3d 6b29 17bc
00000130: b85f 75bd 2b8e 933b ed5f e6bc bfed 06bc
00000140: b324 99bd becf 543b 2498 a63c 0c64 d5bc
00000150: dec8 d6bc 9497 0a3d 9af1 baba 5fe5 633c
00000160: 5d33 173d 1ae5 a9bc 65ba 6e3d e0d4 2a3d
00000170: a5df 303c 818b 8e3c 0acb 353d eaf0 033d
00000180: a547 07bd 9d40 93bc eedc 623d 8da5 4cbd
00000190: e381 17bd d126 473d f9d3 89bd 18fd 143d
000001a0: d592 83bc ed76 8a3d 1f4c 2bbd 5753 31bd
000001b0: 28ba 6bbc be6f 46bd f582 6f3b 76ce a03d
000001c0: ba05 7cbb e779 ad3c f248 d73c 6d4c a63d
000001d0: 2a04 3b3d edb8 e4bc a17f a13d d0b1 44bd
000001e0: 56e5 253d c974 82bd 3d71 63bd 5886 183d
000001f0: dc22 59bd 2a7b ee3b c5ea 5f3d c6c9 3a3c
00000200: 6ad8 c0bc 0954 b93c c96d 62ba a986 61bd
00000210: a9e8 51bd 5c01 19bd bdf4 633c c3ec 94bd
00000220: 1249 073d 9153 9b3d 8dfb dcbc 0c4e c63c
00000230: 24dc 8abd 5685 033d e9fc 8a3d 8987 4bbd
00000240: e774 c03d eef3 553c 700e 153d 2993 453d
00000250: e8d2 0bbd 784d 87bd bd03 603c bfa1 213b
00000260: 0112 89bd e39d e2bd 0f51 3fbd 4771 873d
00000270: 2929 b33c 0fa2 bdbc 8d84 b13c f10c df3b
00000280: c58c 5b3c e43d 01bd 67ed 1f3d de11 49bc
00000290: 8097 db3c 14a7 11bd 3cb9 b13d fba1 cd3c
000002a0: a939 94bc 9dc0 053d 5643 b13d a155 e53b
000002b0: 3379 393d f068 06bb 80be 2abb adaf 133d
000002c0: 6609 bf3b 58e1 7e3d cd69 803d aac9 e83b
000002d0: 6038 873c d8c9 48bc c82d 9cbd d773 46bd
000002e0: 0ff1 943c 5dba 2d3d 6bd5 393d 5868 0abc
000002f0: 793c f43c 6786 be3c c10c 2abc 9f93 39bd
00000300: a1d5 69bd cef5 a1bd aa9c bd3d 6106 2c3c
00000310: eb5b 66bd 4802 bfbc 6fd9 5e3c 6072 82bd
00000320: b14d 263d 4524 113d 8f38 99bd 0f27 15bd
00000330: d7b1 58bc 693c 453d 6fcd 373d 76ae 083d
00000340: 7cbc dabc b810 efbc 0c83 753d 1f50 893d
00000350: cb04 8fba 4691 0dbd 41bb 3a3d 7d23 9cbc
00000360: fad3 01be d79c 5a3d 1e26 36bd 13bf 7a3c
00000370: abd1 82bd ad30 6a3d be1d 223c d177 273d
00000380: 9fd2 f0bb 6378 813d e6d5 a4bd 08d1 52bd
00000390: 7745 3c3d 3b4f 07bc 0eb9 203c 7f48 35bd
000003a0: e9d5 98bc 7c80 e43c 7425 e7bc 0b05 883d
000003b0: bfba 353d 9c70 f33c 010b d5bd 5d69 d73c
000003c0: d9fb babd 66b8 36bd 9802 dc3c 809f ca3d
000003d0: 496a 39bd e88b 3ebc abeb 39bc f574 36bd
000003e0: c39b 973c 3470 2ebc c43a 2cbd e91d a53d
000003f0: 9520 033c bfcc 4f3d 9b47 22bd 6dc4 533d
-0.044343125 -0.014821186 0.06175601 0.017416071 0.067663096 0.016937641 0.011215249 -0.06937316
0.05116738 0.03928882 0.041688602 0.0034400455 -0.068040535 -0.03258474 -0.032032106 0.068019934
-0.07945722 0.038707532 0.047296897 -0.012129609 -0.117094554 0.04419768 -0.010141403 0.0049518347
0.0717316 0.016411131 0.081536524 -0.08625354 0.03838991 -0.027250983 -0.056948114 -0.089447625
0.039781883 -0.033060238 -0.033585113 -0.047707904 -0.072514385 0.033614773 -0.034038823 0.022393256
0.027057424 0.06502776 0.094546355 -0.06607296 -0.03866886 0.016048187 -0.032982588 0.090779096
-0.053761374 -0.06614919 -0.0062256567 -0.07069498 -0.092970386 0.054217577 -0.08061233 -0.0014098162
0.052830268 0.020322993 0.0013267332 0.10885522 0.031570107 -0.061340578 0.015530772 -0.031007184
-0.10760295 -0.01695438 -0.060843877 0.092934184 0.003350947 -0.025010854 -0.06586268 0.055266272
0.043596093 0.026147436 0.054205645 -0.009226183 -0.059905738 0.0045030317 -0.028121913 -0.008235394
-0.07477703 0.0032472457 0.020336218 -0.026048683 -0.026218828 0.033835962 -0.0014262677 0.013909667
0.03691422 -0.020739127 0.05828323 0.04170692 0.0107955085 0.017400505 0.044383086 0.032212175
-0.03302731 -0.017975146 0.055386476 -0.04996257 -0.036989104 0.048621003 -0.06729884 0.03637418
-0.016061226 0.067609645 -0.04182064 -0.04329237 -0.014387645 -0.04844641 0.0036546562 0.07851879
-0.0038455562 0.021176292 0.0262799 0.08120046 0.045658268 -0.02792021 0.078856714 -0.048021138
0.040501915 -0.06369931 -0.055527914 0.037237495 -0.05301176 0.007277866 0.054667253 0.011400646
-0.023540694 0.022623079 -0.0008637575 -0.055060063 -0.051247273 -0.037354812 0.013913331 -0.07271721
0.03302867 0.075842984 -0.026975418 0.024207138 -0.0678027 0.03210958 0.0678652 -0.049689803
0.09397297 0.013058646 0.03639072 0.048236046 -0.034136683 -0.06606573 0.013672766 0.0024663059
-0.06692887 -0.11065271 -0.046708163 0.06613403 0.021870213 -0.023148565 0.02166965 0.0068069627
0.013400261 -0.031553164 0.039044764 -0.012272326 0.02680564 -0.03555973 0.08677909 0.025101652
-0.0180939 0.032654393 0.086554214 0.006998733 0.0452816 -0.0020509325 -0.0026053488 0.03605621
0.005829978 0.062226623 0.0627018 0.0071041184 0.016506374 -0.012255155 -0.076259196 -0.048450317
0.018181352 0.042414058 0.045369547 -0.008447729 0.029813992 0.023257447 -0.010379017 -0.045306798
-0.057088498 -0.07908212 0.09258397 0.010499568 -0.056240004 -0.023316517 0.013601645 -0.063694715
0.040601436 0.03543498 -0.07481491 -0.036414202 -0.013225994 0.048153315 0.04487365 0.033369504
-0.026701204 -0.029182777 0.05993943 0.06704735 -0.0010911463 -0.03456237 0.045588735 -0.01905989
-0.12678519 0.05337223 -0.044469945 0.015304345 -0.06387647 0.057175327 0.009894786 0.04088575
-0.0073493267 0.0632179 -0.080486104 -0.05146888 0.045964684 -0.008258636 0.0098097455 -0.04425859
-0.018656688 0.027893297 -0.028216101 0.06641587 0.044367548 0.029716782 -0.104024895 0.026295358
-0.091300674 -0.04460945 0.026856706 0.098937035 -0.045267377 -0.011630036 -0.0113476915 -0.044545133
0.01850689 -0.0106468685 -0.04204823 0.080623455 0.008003374 0.05073237 -0.03961907 0.051700998

action_model._continuous_distribution.mu.bias f4 [2]
00000000: 69a6 7bbc 2cfd 3cbb
-0.0153594995 -0.0028837426

action_model._discrete_distribution.branches.0.weight f4 [1, 128]
00000000: 6742 e4ba 2ca2 233c 901e d5ba 2b4b 10bc
00000010: 6528 af3b 271d a33c 9fb5 8a3c f03e 70bc
00000020: c4ee 9dba 5e37 27bc a35f 41ba 6dd5 adbc
00000030: 6783 443c 1333 dc3b 7305 0abc 37c6 e03b
00000040: 72a9 35ba 13e3 9c3a da40 343b 102b 53bb
00000050: d3e0 333c 91af c53b 2b66 823b 2238 8039
00000060: 4b07 f13a 7e63 ae3b 9c17 0dbc 2bd7 48bc
00000070: 152d 0a3b ab58 2f3a 5d2d 1dba cfbe 863c
00000080: 71fe 87b9 8fe2 063b 4e75 c0bb 4195 aebb
00000090: 5e25 40bc ad9b 56bc 6f0e 7f3b 332c 833c
000000a0: edb8 2a3c a9af a8bb 73fa efbb cad3 f039
000000b0: 9b48 683c 3fa2 90bb bfbf 1ebb 40b6 c83a
000000c0: c338 b83a 0452 383a 7226 a4bb e7d8 303c
000000d0: ea10 c1bb 1dfb 7bbb e3ad 8bbb ef7b 663c
000000e0: b46b 1b3c f50d 1ebc 3469 8e3a 8bbe 43bb
000000f0: 7716 3d3c 8b7e 2c3c f37f 1b3c 526a d9bb
00000100: 70dc f6bb a2d8 6c37 86cb 1cbb 958e 143b
00000110: b429 a43b 1cca c5bb 8fda baba 0527 a03c
00000120: adf0 96bc d945 c3bb 0322 42bc 4395 8b3b
00000130: 4720 b0b8 e000 51bc ed52 cd3a 0a6a 963b
00000140: d427 48ba cf53 ccbb 10d7 55bc dc68 43bb
00000150: 0708 aa3b f06e 043c 47e0 edbb ea51 d03b
00000160: c76e 4f3a a3ac d8bb f5ce ae3b 9f8c bdbb
00000170: 6cf4 c9bb b3f7 babb 63e3 883b a5eb d0bb
00000180: 1339 4b3c ccbe c83b e2e8 d7bb a670 133c
00000190: 5270 0fbc 1551 df3b 6e66 0c3a 783f 41bc
000001a0: 5776 613b 7d93 d63b 2754 e83b 7bed 61ba
000001b0: 4c6b 0cbc a71e b039 638b 483b e9be c4bc
000001c0: f0c3 47bc b2ae a2bc 0e38 33bc 1d6c 2bbb
000001d0: dbed afbb f707 913b 0b01 1dbc 5bd3 3a3c
000001e0: 1367 cf3a 7b93 f83b 3fa7 693b 53a6 28bc
000001f0: d89c 69bc fb79 2e3c 555b b9bc 3d7c 053b
-0.0017414809 0.009987395 -0.0016259719 -0.008806984 0.0053453916 0.019911362 0.016932307 -0.014663443
-0.0012049307 -0.010206072 -0.00073766167 -0.021219933 0.011994219 0.0067199557 -0.008424151 0.0068595666
-0.00069298514 0.0011969529 0.0027504475 -0.0032221712 0.010978895 0.006032892 0.0039794645 0.00024455885
0.0018389014 0.005321919 -0.008611586 -0.012258331 0.0021084 0.0006688933 -0.00059958344 0.016448407
-0.0002593878 0.0020581817 -0.005873359 -0.005327851 -0.011727659 -0.013098639 0.0038918515 0.016012287
0.010420066 -0.0051478934 -0.007323557 0.00045934162 0.014177467 -0.0044138725 -0.0024223176 0.0015313104
0.0014055002 0.0007031264 -0.005009466 0.010793901 -0.005891909 -0.0038449236 -0.0042626723 0.014067634
0.009486128 -0.009646882 0.0010865093 -0.002986821 0.011541001 0.010528217 0.009490955 -0.006634989
-0.0075336024 1.4117135e-05 -0.002392502 0.0022667993 0.005009854 -0.006036056 -0.0014255809 0.019549856
-0.01842531 -0.005959254 -0.011848929 0.0042597367 -8.398346e-05 -0.012756556 0.0015664973 0.0045902776
-0.00076353294 -0.0062355767 -0.013051763 -0.002981714 0.005188945 0.00808309 -0.007259402 0.006357421
0.00079129305 -0.006612377 0.00533473 -0.0057845856 -0.0061631706 -0.0057057976 0.0041774972 -0.0063757473
0.012403744 0.0061262604 -0.006589041 0.008999025 -0.008754807 0.0068150857 0.00053558394 -0.011794917
0.0034402811 0.0065483437 0.00709011 -0.0008618456 -0.008570503 0.00033592174 0.003060066 -0.024016814
-0.012192711 -0.019858692 -0.010938657 -0.002615697 -0.0053689308 0.0044259983 -0.009582768 0.01140293
0.0015823565 0.0075859404 0.0035652665 -0.010293561 -0.014258586 0.0106492 -0.022626558 0.0020368241
