Assets/AIModels/ppo/Agent_model.onnx (onnx, 571189 bytes, 21 tensors)

discrete_act_size_vector f4 [1, 3]
000000 00 00 40 40 00 00 40 40 00 00 00 40
       3.0 3.0 2.0

network_body.observation_encoder.processors.0.normalizer.running_mean f4 [104]
000000 80 1a 65 3c 52 4f 38 3d 41 b4 d7 3d 6b ea 4e 3d
       0.013983369 0.04499752 0.105324276 0.050516527
000010 17 3b 84 3d 8e 55 de 3d 42 af 1c 3f e9 f0 32 3f
       0.06456583 0.10856162 0.6120492 0.6989885
000020 81 ea 43 3c 31 9b 21 3d 81 50 cd 3d 62 84 60 3d
       0.011957766 0.039454643 0.100251205 0.05481375
000030 f8 56 26 3d f7 66 05 3e f4 64 1f 3f f8 8b 33 3f
       0.040610284 0.13027559 0.6226342 0.7013545
000040 8f 98 63 3c e7 43 32 3d 92 b5 db 3d 8f 4f 42 3d
       0.013891353 0.043521788 0.10727991 0.047439154
000050 ef 41 ac 3d 40 32 a7 3d 19 43 1f 3f b7 18 34 3f
       0.08411013 0.08163881 0.6221176 0.7035021
000060 8f 3a 17 3c 25 c3 00 3d 89 b2 ca 3d f3 89 6e 3d
       0.00923027 0.031436104 0.09897334 0.058237027
000070 7c 7c f2 3c fd 3d 08 3e 68 b4 23 3f b1 e6 34 3f
       0.029600374 0.13304897 0.63947153 0.7066451
000080 17 07 1d 3c 9f da 13 3d f8 c1 e6 3d b3 c7 34 3d
       0.00958421 0.036097165 0.11267465 0.04413576
000090 cb a4 d0 3d 93 29 78 3d 27 92 22 3f bd 66 34 3f
       0.10187682 0.060586523 0.6350426 0.70469266
0000a0 b6 c9 bf 3b 2a b6 cd 3c 1c 12 b5 3d b1 73 6a 3d
       0.0058529032 0.025111277 0.08841345 0.05723924
0000b0 b7 ad b8 3c 34 f0 00 3e ac c7 2c 3f 95 49 3a 3f
       0.022543771 0.1259163 0.67492175 0.7276853
0000c0 2b 73 e2 3b 19 a3 d9 3c c9 82 ed 3d 32 fd 39 3d
       0.0069107017 0.026567029 0.11597211 0.04540748
0000d0 33 93 ea 3d 52 9a 3b 3d a3 11 25 3f 83 51 34 3f
       0.11453857 0.04580147 0.64480036 0.70436877
0000e0 5c 3b 7e 3b 49 fc 93 3c 0c aa 95 3d dd ea 62 3d
       0.0038792705 0.018064635 0.073078245 0.055399764
0000f0 1e 9f 82 3c cb 2d 05 3e 5d 1d 34 3f 6a a1 3e 3f
       0.015945014 0.1300575 0.70357305 0.7446505
000100 e0 40 a1 3b d1 f1 9d 3c 91 a1 bb 3d 33 8f 53 3d
       0.004921064 0.019280346 0.09161676 0.051650237
000110 96 c1 e3 3d a2 c4 03 3d 2b 6c 30 3f f7 46 3c 3f
       0.11120908 0.032169946 0.6891505 0.73545784
000120 c1 52 47 3b 50 5e 4c 3c 1d 6c 8b 3d 20 77 58 3d
       0.0030414315 0.012473658 0.0680773 0.05284798
000130 f6 5f 59 3c de 70 00 3e 7a 90 39 3f 3f 73 42 3f
       0.013267508 0.12543055 0.7248608 0.759571
000140 d9 88 74 3b 0b e1 5e 3c 5c 32 96 3d 6e 5d 66 3d
       0.0037313013 0.013603459 0.07333824 0.056241445
000150 5c 77 d2 3d 7c f0 cf 3c 45 95 39 3f 50 42 43 3f
       0.10276672 0.025383227 0.7249339 0.7627306
000160 40 31 06 3b c3 7e 11 3c af ad 6e 3d 73 e6 42 3d
       0.0020476133 0.00888032 0.058271106 0.047583055
000170 f7 3d 46 3c 61 e0 e6 3d 62 25 42 3f f7 eb 49 3f
       0.0120997345 0.11273266 0.7583829 0.7887568
000180 41 91 1e 3b d5 21 2a 3c 63 8d 87 3d 39 46 67 3d
       0.0024195465 0.010384043 0.06618764 0.056463454
000190 f1 48 be 3d 90 ca a5 3c 45 5b 40 3f b0 14 49 3f
       0.09291256 0.02023819 0.75139266 0.7854719

network_body.observation_encoder.processors.1.normalizer.running_mean f4 [65]
000000 d8 ad 62 3c ac 78 9b 3c 31 e5 5e 3d 55 54 5c 3f
       0.013835393 0.01897844 0.054417793 0.8606618
000010 d6 c5 62 3f 04 1c 5d 3c db c1 67 3c 62 11 7e 3d
       0.88583124 0.013495449 0.01414534 0.062028296
000020 8e a9 5a 3f d4 4a 61 3f 3c a6 5e 3c fa 24 da 3c
       0.8541497 0.88004804 0.013589438 0.02662896
000030 7c 24 3d 3d 4e a0 5b 3f 0c 5c 62 3f 26 84 4b 3c
       0.046177372 0.8579148 0.884217 0.012421643
000040 9c 0a 35 3c a1 9d 8f 3d 8f 8b 56 3f 71 46 5e 3f
       0.011049893 0.07012487 0.838067 0.86826235
000050 0e 0a 4e 3c d2 89 19 3d ef d6 26 3d d7 ec 57 3f
       0.012575639 0.03748495 0.04073232 0.84345764
000060 11 ad 5f 3f ad dd 2f 3c 00 5e 0d 3c 6a 3d 9e 3d
       0.87373453 0.010734004 0.008628368 0.077265576
000070 e3 16 55 3f cd af 5c 3f 0f 88 37 3c 44 ee 45 3d
       0.8323805 0.8620575 0.0112018725 0.04832293
000080 6a 68 03 3d f5 72 52 3f 0a 9f 5b 3f 71 4a 06 3c
       0.032082 0.8220666 0.8578955 0.008196459
000090 e2 be e0 3b 99 d7 ad 3d f8 58 54 3f eb b3 5b 3f
       0.0068586925 0.084883876 0.82948256 0.8582141
0000a0 aa d6 12 3c 30 57 66 3d 04 cd d9 3c b5 b5 52 3f
       0.008962313 0.056235492 0.026587017 0.8230851
0000b0 54 2a 5b 3f 53 72 bc 3b 87 37 a7 3b ac 7c b7 3d
       0.8561146 0.005750933 0.005103055 0.08959326
0000c0 02 3a 54 3f f2 6f 5b 3f b1 aa dd 3b e2 f1 73 3d
       0.8290101 0.8571769 0.0067647328 0.05955685
0000d0 26 11 aa 3c 27 bd 54 3f 0c 64 5c 3f d2 b7 5a 3b
       0.02076013 0.83101124 0.8609016 0.0033373726
0000e0 6f 7c 73 3b 43 cb b7 3d 82 46 55 3f e9 74 5c 3f
       0.0037153026 0.08974316 0.8331071 0.8611589
0000f0 a4 0c 96 3b 10 bb 75 3d a0 53 82 3c 48 ae 57 3f
       0.0045791436 0.05999285 0.015909016 0.8425031
000100 16 8b 5e 3f
       0.8693098

network_body.observation_encoder.processors.2.normalizer.running_mean f4 [35]
000000 ee 93 4e 3e d8 a0 a9 3e 38 7b b9 3c 6b ed 69 3e
       0.20173618 0.33130527 0.022641763 0.22844474
000010 99 ab 14 3f f5 f4 50 3e fd bb 87 3e 2d 5a e1 3c
       0.5807434 0.20405944 0.2651061 0.02750882
000020 c7 c6 8f 3e fb 72 15 3f f5 59 52 3e 1d 1d 95 3e
       0.28081343 0.5837857 0.20542128 0.29123774
000030 9e da be 3c bc 18 83 3e 9e 18 14 3f 28 87 5c 3e
       0.023297604 0.25604808 0.5785006 0.21535933
000040 7f 78 21 3e a1 a0 1a 3d 1a 66 c2 3e fb eb 1a 3f
       0.15768622 0.037750844 0.37968522 0.6051633
000050 97 b1 62 3e 26 89 42 3e 95 1f f6 3c c3 bb af 3e
       0.22138058 0.1899763 0.030044356 0.34322938
000060 5d d8 17 3f 36 5a 79 3e d4 53 b1 3d ee 27 80 3d
       0.5931452 0.24350819 0.08658567 0.06257616
000070 60 c5 dd 3e f2 a7 21 3f b4 a7 82 3e 4c 94 df 3d
       0.43314648 0.6314689 0.25518572 0.10916957
000080 df ed 52 3d ce 4b d1 3e e7 57 1f 3f
       0.051496383 0.40878147 0.62243503

network_body.observation_encoder.processors.3.normalizer.running_mean f4 [45]
000000 bc c5 a8 3c 4f 77 2f 3e be 1d 14 3c 11 36 fc 3e
       0.0206021 0.17135356 0.009040294 0.4926
000010 3c cd 31 3f 0b 50 aa 3c e2 4a 09 3e 6a 23 22 3c
       0.6945379 0.02079012 0.13407472 0.009896139
000020 a6 6b 06 3f f0 83 32 3f 86 e0 a0 3c bc 07 1c 3e
       0.5250801 0.6973257 0.019638311 0.15237325
000030 83 b7 1b 3c 7f 2a 04 3f aa 59 32 3f 0d 09 a8 3c
       0.009504202 0.51627344 0.69668067 0.020512128
000040 b6 e6 a6 3d e4 ea 41 3c 25 1a 1b 3f 67 bf 39 3f
       0.08149473 0.011835787 0.6058677 0.7255768
000050 80 79 97 3c ff 45 d2 3d 93 68 2d 3c 56 c1 0f 3f
       0.018490553 0.10267257 0.0105840145 0.5615438
000060 10 11 33 3f 67 df bb 3c d9 f0 22 3d 8b 83 79 3c
       0.6994791 0.022933675 0.03978047 0.015229116
000070 9e da 29 3f 38 b7 3f 3f 1a e6 99 3c a3 31 65 3d
       0.6634921 0.74888945 0.018786479 0.05595554
000080 bb d3 61 3c 0a 61 26 3f 71 c8 3e 3f 1e 72 e7 3c
       0.013783391 0.6499182 0.745246 0.028252658
000090 69 99 9f 3c 40 c9 d6 3c a9 55 34 3f 67 d2 47 3f
       0.019482331 0.02621901 0.7044321 0.78055423
0000a0 a2 dd c4 3c 95 4d e1 3c 0c ec d0 3c 34 d3 32 3f
       0.024031464 0.027502814 0.02550318 0.6985352
0000b0 62 74 47 3f
       0.7791196

network_body.observation_encoder.processors.4.normalizer.running_mean f4 [27]
000000 61 06 3c 3c b3 79 58 40 2b 69 2a 3d 9e bd 27 37
       0.01147613 3.382428 0.041604202 9.998124e-06
000010 00 00 00 00 1f 84 66 3f 00 00 00 00 ad a5 e5 40
       0.0 0.9004535 0.0 7.176474
000020 f8 56 de 40 6e 06 41 3c 4b e2 59 40 a9 73 2a 3d
       6.9481163 0.011781318 3.4044368 0.04161421
000030 e4 49 49 37 00 00 00 00 39 a5 67 3f 00 00 00 00
       1.1997738e-05 0.0 0.90486485 0.0
000040 74 03 e7 40 75 af df 40 fc fc 39 3c 46 1f 5b 40
       7.2191715 6.990168 0.01135182 3.4237838
000050 23 7e 2a 3d f9 0f da 38 cd 03 98 39 99 c6 68 3f
       0.0416242 0.00010398025 0.0002899453 0.90928036
000060 81 20 71 39 de 62 e8 40 97 09 e1 40
       0.0002299566 7.2620687 7.0324206

network_body._body_endoder.seq_layers.0.weight f4 [256, 276]
000000 41 5e e4 bd 5d b5 72 bd d3 48 59 3e 5c bf b9 bb
       -0.1115079 -0.059254993 0.21219186 -0.005668564
000010 b9 d6 bb bd 28 31 4c bc 90 84 9f bc e5 fd 24 3d
       -0.091718145 -0.012462892 -0.01947239 0.040281195
000020 2c 5d f2 bd 4c fe 6e 3b 74 ad 54 bc 6d 13 36 bd
       -0.118341774 0.003646749 -0.012980808 -0.04445212
000030 85 ac 82 bc 07 c7 01 bd 2f a8 c0 3d 9d 74 33 3d
       -0.015951404 -0.031683948 0.094070785 0.043812383
000040 6f 20 5c bb 2e c1 0c bd a8 25 23 3d e6 1e be 3c
       -0.0033588668 -0.034363918 0.039830834 0.023208093
000050 ab 1d 41 bc 52 ae cd bd 71 48 94 bd 08 90 6e 3d
       -0.011786859 -0.100430146 -0.072403796 0.058242828
000060 66 bd c8 3d e0 55 b9 bd e9 cf 81 bc 2b 15 ac 3d
       0.0980175 -0.090495825 -0.01584621 0.08402475
000070 9f db ef bd 98 44 fe bc 1c 37 fd 3c 10 a7 b4 bc
       -0.11711811 -0.031038567 0.030910067 -0.022052318
000080 68 60 dc bd 80 e9 72 bc 08 67 41 bd fe 9b 1d 3d
       -0.107605755 -0.014826179 -0.0472174 0.038478844
000090 95 88 2c be 82 ee 21 3e 86 c3 2b 3d 2c 4a ae bd
       -0.16848977 0.1581364 0.041934513 -0.08510241
0000a0 5a ac 13 bd af 07 c9 3d 86 9a 26 bc 52 65 a5 bd
       -0.03605304 0.09815919 -0.010168677 -0.08075966
0000b0 2f 6c 16 be 9a 7d c6 bd ff 32 e2 3d 3d f5 00 3d
       -0.14689706 -0.09691925 0.11044883 0.031483877
0000c0 d7 68 d5 3d 0d 8b af 3d 5c c7 91 bd 4b 52 17 bd
       0.10420387 0.08571444 -0.07118103 -0.036943715
0000d0 6b 1f d4 3d fe 30 91 bd 3c 46 fd bc 16 b6 1b 3d
       0.10357555 -0.07089423 -0.03091728 0.038015448
0000e0 87 83 92 3d 5b 77 9d 3d e5 b3 cc bd 7d 25 65 3c
       0.07153993 0.07688781 -0.0999525 0.013985989
0000f0 c2 8b 00 bd 60 7c e1 bd a4 84 f7 3c 63 cf 8d 3d
       -0.031383283 -0.11010051 0.030214615 0.069243215
000100 48 03 0b 3d 65 fe a9 3c aa e6 0b 3d 60 a1 0b 3d
       0.033938676 0.020751188 0.034155525 0.034089446
000110 49 b1 98 bd fe 00 d4 bd c1 5d 28 bc cc 52 8f 3d
       -0.074556895 -0.10351752 -0.010276259 0.06998214
000120 4e f8 e8 bc 54 bd 96 3c 0a 6c 09 bd 9f 3f b7 bd
       -0.028438713 0.018400826 -0.0335503 -0.08947682
000130 f5 98 1c 3e 57 f7 96 bd 9b 36 f7 bd af 6d 64 3d
       0.15292723 -0.07371395 -0.12070962 0.055768665
000140 1e 4a ae 3c 82 99 51 bd c6 90 4a 3d 1d 96 09 3d
       0.021275576 -0.051171787 0.049454473 0.033590425
000150 6f 06 b8 bd 3d 09 6b 3d fa a9 b5 3d 9c ae 6e 3c
       -0.08985602 0.057381857 0.08870311 0.014567997
000160 c5 ee 8f 3b 6b a7 3e bd 27 a3 4c bd f4 88 96 3d
       0.004392477 -0.04654638 -0.04996028 0.073503405
000170 82 fd 8a bc 87 1f 24 3c 6d 85 8c 3d 95 e6 b0 3b
       -0.016966585 0.010017282 0.068613864 0.0053985813
000180 b9 f6 f9 bc b4 e7 98 3c 17 5e b4 3c 31 40 52 3d
       -0.030513154 0.018665172 0.022017522 0.05133075
000190 72 ac 35 3b 36 aa 13 3d 36 3e 13 3d 6a 20 a6 bc
       0.0027721194 0.036050998 0.035948 -0.020279128
0001a0 57 b8 51 bd 09 ec 77 3b e8 bd 86 bc c2 12 1b bc
       -0.05120119 0.0037829897 -0.016447976 -0.009464921
0001b0 5f 37 16 bb 66 cf 46 3d 39 65 9b bd 7a 95 63 bd
       -0.0022921187 0.048537634 -0.07587666 -0.055562474
0001c0 41 62 7d bc cb d5 5d bd d1 c9 15 3d 4b 7a ab bd
       -0.01546532 -0.054158967 0.03656942 -0.08372935
0001d0 59 9b 5b bd 44 66 4c bd 37 d4 12 3d 96 f2 c8 bc
       -0.053614948 -0.049902216 0.035846915 -0.024529736
0001e0 36 59 2c bd f5 53 fb ba e1 18 79 3c 87 f2 4d bd
       -0.042077266 -0.0019174801 0.0152036855 -0.05028012
0001f0 64 04 2f 3d 08 44 76 3c 62 13 da 3c a9 a1 b7 bc
       0.042728797 0.015030868 0.02662057 -0.022415953
000200 78 47 c4 bc 0b 40 51 3d b2 da 15 bd 97 ee 1f 3d
       -0.02395986 0.051086467 -0.036585517 0.039045896
000210 7d 68 16 3e 76 69 3f 3e 27 a4 17 3c 8b e6 b8 bc
       0.14688297 0.18692574 0.009255446 -0.022570869
000220 55 ea 0b be 2f 2e 05 be 8d 6a 03 be ef 95 6c 3d
       -0.1366361 -0.13005899 -0.12833615 0.057760175
000230 aa fc 81 bc f2 42 fc 3c 27 19 f3 bc 05 84 35 bc
       -0.01586755 0.03079364 -0.02967508 -0.011078839
000240 ac 63 4c bd 6d 74 90 bd b6 34 5c 3a 36 32 ae 3d
       -0.049899742 -0.070534565 0.00084001885 0.08505671
000250 14 31 46 b9 b7 9b d4 bc 9d b8 f9 bd f0 9f fb bb
       -0.00018901034 -0.025953157 -0.12193415 -0.007678978
000260 22 51 4a 3d 55 7e 5a bc e6 97 15 bd 68 3b 44 3c
       0.04939378 -0.013335784 -0.036521815 0.011977054
000270 54 f1 e1 bb 7a 0b 95 bd c1 86 14 bd 9c 2a 8a 3d
       -0.0068952236 -0.072775796 -0.036261324 0.06746408
000280 8d 73 d3 bc 47 95 fa 3d 75 88 65 bb 12 9f 39 bd
       -0.025811935 0.12235504 -0.0035023962 -0.045317717
000290 1c 35 66 bc 0d 26 08 bc 89 f2 36 3b dd 61 44 3c
       -0.014050748 -0.008309853 0.0027915558 0.011986223
0002a0 af 7f 3b bd 2b 40 a3 3c eb 63 b3 3d 03 f0 ec 3c
       -0.045776065 0.019928059 0.08759292 0.02892304
0002b0 70 53 03 3b 59 d1 6b 3c e7 94 25 3d 39 47 c7 bc
       0.0020038746 0.014393174 0.040425207 -0.024325954
0002c0 de 08 00 3e 1e 2f bb 3b dc 4c 09 bd de 9d dd bd
       0.12503383 0.005712404 -0.033520564 -0.108211264
0002d0 c5 84 65 bd c3 8d fb bc b2 9d 19 3e b4 9e d0 3d
       -0.056034822 -0.030707246 0.15001562 0.1018652
0002e0 f5 00 04 bd 49 42 fc bb d4 0c 85 3d ca 14 3f bd
       -0.032227475 -0.0076983315 0.064965874 -0.046650685
0002f0 4f bf 56 3d f8 29 84 3d 6c f1 11 bd 54 dd 87 bb
       0.05242854 0.064533174 -0.03563063 -0.0041462574
000300 22 13 23 3d 08 86 11 3d 9d b9 85 3d 49 55 6b 3d
       0.03981317 0.035528213 0.065295435 0.05745438
000310 ff 9a 23 3d a2 51 10 3d 6f 52 cd bc 80 e5 4d 3d
       0.039942738 0.0352341 -0.025063721 0.050267696
000320 a9 a6 1c 3d 27 70 29 3d 0e 96 bd bd 7f 51 e8 3c
       0.038244877 0.041366722 -0.09257136 0.028359173
000330 a4 a3 0c 3d 3c 61 4f 3c e2 44 04 3d b6 a2 79 3d
       0.034335747 0.01265746 0.032292254 0.06094619
000340 8d 9f 53 3e 04 df f0 3d 8d f7 a3 bd 49 ae a4 3c
       0.20666333 0.11761287 -0.08006201 0.020102637
000350 99 ce 26 bd 8f 49 8f bd e6 c2 50 3b d7 c7 45 3a
       -0.04072437 -0.06996452 0.003185445 0.0007544732
000360 97 fc 00 be 74 6c a3 3d c5 cb d7 bc 60 ad 57 bd
       -0.12596355 0.0797967 -0.026342282 -0.052655578
000370 87 5d 8d 3d 2a 77 87 3d 22 40 e0 3b 14 8e 5e bd
       0.069026046 0.066145256 0.0068435827 -0.054334715
000380 ad f1 90 bc b5 bf 0d 3d 4b ef 63 bc 41 70 e3 bd
       -0.017693365 0.034606654 -0.013912032 -0.11105395
000390 f2 d8 73 bd 63 16 d5 3c fb 8f 65 3d 60 29 b6 bd
       -0.059533067 0.026011651 0.056045514 -0.088946104
0003a0 6f 3d 86 bd f1 b1 1c bc cf 78 92 ba f9 74 3e bd
       -0.06554686 -0.009563909 -0.001117492 -0.046498273
0003b0 7f f5 a2 bd 93 3a 28 3d 09 ad 66 3c bc 39 e5 3b
       -0.07956981 0.041071486 0.014079341 0.006995408
0003c0 b5 93 73 bc 7b b5 03 3c 5e f4 c1 bd 54 64 ce bc
       -0.014866759 0.008038874 -0.094704375 -0.025194325
0003d0 1f f4 0e 3e bd a2 09 3d 40 1f b4 bd 32 22 12 bc
       0.13960312 0.033602465 -0.08795023 -0.008919286
0003e0 6c 63 60 ba 26 23 1a be 80 a2 f7 3d 1a 2d 69 3d
       -0.0008559737 -0.1505247 0.12091541 0.056927778
0003f0 ec 4f 98 bc 4e ce 2f 3c 57 40 ac bc 00 7e b0 3c
       -0.018592797 0.010730339 -0.021026773 0.021544456

network_body._body_endoder.seq_layers.0.bias f4 [256]
000000 1d 7f ac 3c e5 ca ea 3a 56 7c 8a 3b fd 0b 4d 3b
       0.021056706 0.001791325 0.004226248 0.0031287663
000010 4d 02 56 3c d0 d2 b4 bb 84 cf 4d bc 47 17 81 bb
       0.013062072 -0.005518295 -0.012561683 -0.0039395425
000020 6b 6d 05 bc a1 8d 64 bb c9 96 2e ba 7c 36 6a 39
       -0.008143763 -0.0034874456 -0.0006660042 0.00022336276
000030 cb e4 ed 3b 4b 21 fb ba 23 18 47 bd 20 4e 5b 3c
       0.0072599403 -0.0019159702 -0.048607003 0.013385326
000040 68 db 42 bc 67 b2 c9 3c 79 72 4d bc d7 37 2c bc
       -0.011893131 0.024621202 -0.012539499 -0.01051136
000050 82 c6 13 3d 77 88 bd 3c 48 30 88 bc 72 06 3b bb
       0.036077984 0.02313636 -0.016624585 -0.0028537777
000060 70 57 89 bc 07 dc 98 3c 3d 16 b0 bc b4 93 1a bb
       -0.016765326 0.018659605 -0.021494979 -0.0023586573
000070 ec a9 08 3d da b7 40 bc f9 55 ae 3b da 5c 59 bc
       0.033365175 -0.011762584 0.0053203073 -0.013266766
000080 ff 21 d1 bb f3 6a a4 bb d5 a9 3c 3c 12 d2 3b bc
       -0.0063822265 -0.005017632 0.0115151005 -0.011463659
000090 7c 50 87 bb 35 9b 79 3c de f8 92 3b 3c 41 14 bc
       -0.0041294675 0.015234758 0.0044852337 -0.009048756
0000a0 fe e9 0e 3c d0 1c 08 bc 14 e8 84 ba a1 5a 9b bc
       0.00872278 -0.008307651 -0.0010139965 -0.018964114
0000b0 59 4a 0b bd df ad 81 bc 19 e6 9e bc 51 77 2f 3a
       -0.03400645 -0.015829979 -0.019396828 0.00066935
0000c0 05 b7 cc b9 5a 4b f7 bc f0 b5 99 3c 1f a7 16 bb
       -0.00039046272 -0.030187298 0.018763512 -0.0022987796
0000d0 00 d9 81 3c c0 46 81 3c 22 f4 ee 3c b8 d4 72 3c
       0.015850544 0.015780807 0.029169146 0.014821224
0000e0 c1 bc 99 bc 51 07 cd 3b 23 dd 3c bc ea ad c8 bc
       -0.018766763 0.0062569757 -0.0115273325 -0.024496991
0000f0 b2 78 8b ba e2 20 34 3c d2 f7 8a 3c 36 cc 9a bb
       -0.0010640828 0.010994168 0.016963873 -0.004724051
000100 ba 18 e4 ba 0c 03 f9 3b fd db e2 bb df 6f e4 ba
       -0.0017402389 0.00759924 -0.0069231973 -0.001742836
000110 6d 5d c8 3c 46 e1 77 3c 6a c0 68 3c 61 fa b2 3c
       0.024458611 0.015129393 0.014206031 0.021847906
000120 df a7 af bb e8 1f aa ba 3d 86 88 bc 07 bb ae 3b
       -0.005360588 -0.001297948 -0.016665572 0.005332354
000130 09 2c c0 3b 2c 68 c1 3b 1b 5f 9d bc d5 96 e1 3b
       0.0058646244 0.005902311 -0.019210389 0.0068844357
000140 a6 df c1 3c e7 07 40 3b d7 a7 b8 3a 4e 2b d2 3b
       0.023666214 0.0029301585 0.0014088106 0.0064138537
000150 ee 7e c9 3c 3a 8f 31 bb e9 3a c7 3b c1 4b 03 bc
       0.024596658 -0.0027093426 0.0060800207 -0.008013667
000160 00 c5 35 bc 27 9d 3b 3c 2e 55 d3 38 73 b4 d9 3b
       -0.011094332 0.011451042 0.0001007713 0.0066438257
000170 3c f8 1e bc 71 c2 c6 bc 7d aa 2b bc 83 ae 8e 3b
       -0.009702738 -0.024262639 -0.010477659 0.0043542995
000180 6a 94 4e 3c ee 12 dd 3c cc 33 05 bc ec db 27 bc
       0.012608627 0.026986565 -0.008130025 -0.010245305
000190 46 e0 c1 3c 2a 8f 71 3b b4 cd 8a bc b2 a7 a5 3b
       0.023666512 0.0036859014 -0.01694379 0.005055391
0001a0 5e 42 74 3c 1d c6 42 3c b8 1f 88 3c da 14 33 3c
       0.014908401 0.011888054 0.016616687 0.010930264
0001b0 6b 3a 48 bb c5 45 d9 3b 94 2c 94 bc a0 42 0e 3c
       -0.0030552398 0.0066306316 -0.018087663 0.008682877
0001c0 49 f1 9f 3c 25 8c 7d 3b 96 94 80 3b 17 7a ae bb
       0.019524233 0.003868827 0.003923963 -0.005324613
0001d0 f4 a1 14 bc 21 11 48 bc 55 02 76 bb a8 c7 aa 3c
       -0.009071816 -0.012211115 -0.003753801 0.020847157
0001e0 c9 42 d5 bc 14 02 f9 bb f0 01 c0 bc d2 e7 28 3d
       -0.026032822 -0.0075991247 -0.023438424 0.041236706
0001f0 0c e5 b9 bc 05 cd 2c 3c e6 1f b9 3b 93 7a 80 bb
       -0.022692226 0.010546927 0.0056495545 -0.003920862
000200 11 bb 2d 3b 34 68 68 bc db ae d9 3b b9 22 a9 3c
       0.0026509205 -0.014185 0.006643159 0.02064644
000210 c3 fe d0 bc 45 b6 59 3c a3 91 b3 bb a4 82 fb bb
       -0.025512105 0.013288085 -0.0054800077 -0.0076754857
000220 1b fc 3f bc 9f ac f0 ba 29 e7 ed bc 3a 50 fa 3b
       -0.0117178215 -0.0018361992 -0.02904089 0.0076389583
000230 07 f1 27 bb 7c a1 d9 39 0c 56 a1 3a eb eb 5a 3c
       -0.0025625841 0.0004150978 0.0012308969 0.013361911
000240 98 05 a7 bc d3 6d 25 bc b6 12 70 bc 98 52 d0 3b
       -0.02038841 -0.010096985 -0.014652899 0.006357502
000250 98 26 c4 bb e2 60 bc 39 0e 15 65 bc ec 96 80 3b
       -0.005986046 0.00035930338 -0.013982071 0.0039242413
000260 40 6d 5c bb 68 2b 78 bb 04 cd 34 bd 79 27 29 bc
       -0.0033634454 -0.003786767 -0.04414083 -0.010324352
000270 f1 38 76 3c fb c7 61 3b 47 35 a7 3b 84 dc 5b 3c
       0.015028224 0.0034451473 0.0051027867 0.013419274
000280 83 d5 a6 bc fb c5 29 bc d3 51 7f 3c 93 f3 94 3b
       -0.020365482 -0.010362144 0.015583473 0.004545638
000290 a3 34 c7 3b fb 72 c1 bc 1b c2 23 3c 4e 39 00 bd
       0.006079273 -0.023614397 0.009995009 -0.03130465
0002a0 76 2c a6 bb 94 fa 00 3c 89 0c 8a 3c 69 d8 85 bc
       -0.005071218 0.0078722425 0.01685168 -0.016338544
0002b0 da 04 5f bc 47 1a a5 3b 96 b1 b3 3c 18 39 4c 3b
       -0.013611997 0.005038533 0.021935266 0.003116196
0002c0 ce 79 22 3c 47 82 14 bd b9 15 a6 bc d8 d1 ee 3c
       0.009916736 -0.036257055 -0.02027403 0.029152796
0002d0 66 d6 83 bc 69 86 ff 3a 39 d2 e4 3b b3 1f 03 3d
       -0.016093444 0.0019495013 0.0069830683 0.032012653
0002e0 b7 ba dd 3a 4d 7b 39 3b b2 86 fa 3b 2f 48 e6 3c
       0.0016916607 0.0028302253 0.0076454515 0.028110592
0002f0 15 74 49 3b 5f fe 99 3b eb 42 e6 3c bd a1 e3 3c
       0.0030739356 0.004699513 0.02810808 0.027787084
000300 cf 5c a2 bc ce 60 86 bc 8b 07 94 bb 27 67 6e bc
       -0.019819645 -0.016403582 -0.0045175008 -0.014550961
000310 f7 27 43 39 dd 86 ed 3c 5d 70 f4 3b 59 c8 c0 bc
       0.00018611537 0.028994972 0.007459684 -0.023533033
000320 d2 17 88 bb 0c 0f 58 bb c1 b8 f5 3b a1 12 21 3c
       -0.00415323 -0.0032967953 0.007498831 0.009831102
000330 8e 0e 22 bb 72 a9 45 bc 69 96 b3 bb 8c a1 45 bc
       -0.0024727914 -0.012064325 -0.005480577 -0.012062442
000340 d5 1a 0f bd f8 e7 83 3c 03 ff 32 bc 11 44 64 3b
       -0.0349377 0.016101822 -0.010925057 0.003483061
000350 51 1a 18 3d e3 48 65 3a a6 de eb 3b 71 e2 fa ba
       0.037134472 0.00087465177 0.0071981726 -0.0019140971
000360 d2 0b ff ba 64 41 45 3c 36 45 01 bb b9 8a 88 3c
       -0.0019458479 0.012039516 -0.001972509 0.01666771
000370 5d 43 77 ba 00 03 24 bc 9e 63 b9 bc e0 26 90 bb
       -0.000943234 -0.010010481 -0.022630509 -0.0043991655
000380 f4 d8 72 3c f2 0f cf ba d2 c2 c4 bc 6b d7 7e 3b
       0.0148222335 -0.0015797599 -0.024018679 0.0038885723
000390 06 5d 13 3c 79 e8 45 bb a4 8a d6 3c 4b da fb bc
       0.0089943465 -0.003019838 0.026189156 -0.030743739
0003a0 24 5c 1c 3c 45 c6 8d 3c e7 0c a3 bc 88 a9 94 3c
       0.009543452 0.017306456 -0.019903613 0.018147245
0003b0 0f 80 1a 3c ab 21 e9 3b d4 94 98 3b e1 a9 7c ba
       0.009429946 0.0071146092 0.0046564136 -0.0009638351
0003c0 31 f3 fc 3c 72 c8 a4 bc 53 a0 14 bb dd 6c 67 3c
       0.030877681 -0.020115111 -0.0022678568 0.014125076
0003d0 ac ef 19 3a 89 e7 04 3c 37 55 fc bb d3 25 44 3c
       0.00058722007 0.008111843 -0.007700588 0.011971909
0003e0 f3 1f ca 3b 47 55 91 bc 81 69 dd bc 29 a6 16 bc
       0.0061683594 -0.017740859 -0.027027847 -0.009194889
0003f0 76 06 63 3c 76 24 f4 3b 42 65 a7 3b 68 24 c0 bb
       0.013856521 0.0074506355 0.0051085064 -0.005863715

network_body._body_endoder.seq_layers.2.weight f4 [256, 256]
000000 89 b2 4c 3d 9d 40 03 be c9 58 d9 3d 90 e6 3c bb
       0.049974952 -0.12817617 0.106126375 -0.002882395
000010 75 5a 7e 3d 1d 0e 76 bd 4e be 89 3d e5 65 f5 3d
       0.062097985 -0.060072053 0.06725751 0.119823255
000020 01 e2 c6 b9 0b 04 c3 bc e1 13 2a bd 77 84 8d 3d
       -0.0003793389 -0.023805639 -0.041522864 0.06910031
000030 39 2a 9e 3c 8b 85 2b bd e1 2d 28 3c 7a a5 83 bd
       0.019307243 -0.041875403 0.010264845 -0.064280465
000040 bb 8d 05 3e 68 b5 ae 3c 81 3e 00 be 97 64 fc 3c
       0.13042347 0.021326736 -0.12523843 0.030809684
000050 5d d0 64 3d bd 2a 65 bd 6f 15 4f 3c 62 2c f1 3c
       0.055862773 -0.05594896 0.0126393875 0.029440109
000060 f7 a8 9d 3d 73 a1 ea bc 18 0e 61 bd 1e ff ff 3c
       0.07698243 -0.028641438 -0.05494508 0.031249579
000070 30 45 05 3d 59 d0 be 3d 8d 0d 0c be 9f 4f 0f be
       0.032536685 0.09317083 -0.13677044 -0.13995217
000080 6e 7d 03 be 95 2d 8b 3c 3a df 15 3d f2 21 97 bd
       -0.12840816 0.016989509 0.03658984 -0.073795214
000090 4a 07 71 3d b3 37 aa 3c 04 97 d9 3d 4c 45 41 bc
       0.058844842 0.020778513 0.10624507 -0.011796307
0000a0 d8 41 72 b9 91 3f 05 3e 1a 90 46 3d dd 51 42 bd
       -0.00023103447 0.1301253 0.04847727 -0.047441352
0000b0 0f 86 2f bd 58 ea af 3c 59 9f 4e 3d 29 aa 62 bd
       -0.042852458 0.021474048 0.050444935 -0.05533806
0000c0 62 cd 37 bd 28 01 c6 3c 58 a5 a9 bc 95 c4 f0 bd
       -0.044873603 0.024170473 -0.020708725 -0.11756245
0000d0 b5 e2 e0 bc cb e2 95 3c 58 5f 5b 3b 65 22 c8 bd
       -0.027451852 0.01829662 0.0033473577 -0.09772185
0000e0 82 87 3a bc a0 44 f8 bd a4 17 3c bd 36 eb cf bd
       -0.011384847 -0.12122464 -0.045920983 -0.10152285
0000f0 a9 92 75 3d c9 f7 86 bd 31 73 25 bb a0 9b a5 3d
       0.05995432 -0.0659023 -0.0025245661 0.08086324
000100 8f f8 40 3a 26 67 2f bd 5c b2 4e 3c 85 c6 97 bd
       0.0007361257 -0.04282298 0.012615766 -0.074109115
000110 61 c5 73 bd 96 90 f7 3b 37 64 b1 3c 76 bf 7e 3b
       -0.059514407 0.007555078 0.021654231 0.0038871444
000120 50 37 58 3d fd 07 75 3d 7b 1b 9a 3c 41 67 16 be
       0.052787125 0.05982207 0.018811932 -0.14687826
000130 cc 97 bb bd a0 60 87 bd 8f 31 f9 3c 04 ff b1 bd
       -0.09159812 -0.06610227 0.03041914 -0.086912185
000140 d1 77 8d 3d 24 bb f4 3d d9 94 90 bd 7e 94 70 bd
       0.06907619 0.11949757 -0.070596404 -0.058735363
000150 7e dc 7b 3d 2f 42 8c 3a 0c 9c bd 3c 07 69 30 3d
       0.061489575 0.0010700877 0.023145698 0.043068912
000160 e4 5f 14 3b 7e e4 25 bd b1 12 08 bd 48 02 b4 3c
       0.0022640163 -0.04050111 -0.03322095 0.021973744
000170 9e 7e a9 3d 2a 0b 12 bd e2 60 01 3d 33 46 73 3c
       0.082761034 -0.035655178 0.031586535 0.01484828
000180 f7 5e 6d 3d 33 02 dd 3c 92 d9 48 be d6 df 41 bd
       0.057951894 0.026978588 -0.19614246 -0.047332607
000190 25 0e e4 3d 0f 09 4c 3d 68 65 ec bc 6f bb 4e bd
       0.1113551 0.049813326 -0.028856948 -0.05047172
0001a0 a3 87 93 3d 4e 04 0b bc ae 1e c9 bd 16 9f e8 bb
       0.07203605 -0.008484913 -0.09820305 -0.0070990426
0001b0 e4 8f c9 bb 42 e4 b4 3d 9f 42 e4 bc 1e 21 8d 3d
       -0.0061511863 0.08832599 -0.027863799 0.06891082
0001c0 f6 7b 17 bd 58 e1 3e bd 1f a3 6d bd 91 46 ab bd
       -0.036983453 -0.046601623 -0.058016893 -0.08363069
0001d0 73 df d8 bd 32 b5 cd bd 1b 00 30 bd 5d 75 d9 3c
       -0.105894946 -0.10044326 -0.04296885 0.026545221
0001e0 8a 66 11 bd b8 87 1c bb d2 9e 9f 3c bc 3e 61 3d
       -0.03549818 -0.0023884606 0.019484911 0.05499147
0001f0 23 95 9f 3d ae ae bc bd fd 48 50 3d 0d cb 1d 3c
       0.077921174 -0.09213005 0.050850857 0.009630931
000200 f6 10 f9 bc 89 a2 9f 3d 5c 3d 9a ba 83 4e 03 be
       -0.030403595 0.07794673 -0.0011767554 -0.12822919
000210 dc 83 41 bc 4e b5 20 3d c1 4d 4d 3c d2 f7 53 3d
       -0.011811223 0.039235406 0.012530745 0.05175001
000220 87 5d 3a 3e bf 0b 81 bd 5f 90 dd 3c 1f c2 ec 3d
       0.1819974 -0.063010685 0.02704638 0.11560463
000230 81 74 1b 3d 85 07 01 be 47 ca 42 bd f2 2a b0 bd
       0.037952904 -0.12600525 -0.047556188 -0.08601941
000240 db dc 4e b8 17 e9 a6 3d 1c bb 5e 3d 96 3c af bd
       -4.9319915e-05 0.08149927 0.05437766 -0.08556478
000250 63 8b 3f bd 18 28 c4 ba 4d bb 77 bc 8b b4 85 3c
       -0.04676379 -0.0014965562 -0.01512034 0.016321441
000260 25 86 42 3b af 5e cf bd 94 8a 63 3d c2 f5 3d bd
       0.0029682007 -0.10125481 0.05555208 -0.04637695
000270 68 e1 8f bd 07 ce 70 3d 7f b2 c3 bd bf fd ad bb
       -0.07025415 0.058790233 -0.0955553 -0.00530979
000280 2c e7 46 3c fc a5 85 bd 93 21 ad bd b1 2b a0 bc
       0.012140077 -0.065258 -0.084536694 -0.019552084
000290 78 b5 70 bc b4 e2 82 bd 0a f3 e2 3d ef 70 b4 3c
       -0.014691703 -0.063908964 0.11081512 0.022026507
0002a0 8c bf 07 3d 35 c7 a8 3c da 6c 1c bd c7 6a 1b be
       0.033141658 0.020602802 -0.038189746 -0.15177451
0002b0 e8 4b 89 bc 4d df aa bb c4 99 ea 3d 69 d4 4c bd
       -0.016759828 -0.005214608 0.1145511 -0.050007258
0002c0 91 54 da 3c e6 18 1e bd c5 24 a2 3d 01 a3 ff 3c
       0.026651653 -0.038597964 0.079171695 0.031205656
0002d0 2c fd b4 bd b6 06 b0 bd 8d 05 92 3d 21 18 9f 3d
       -0.08837351 -0.0859503 0.07129965 0.07768274
0002e0 40 84 e6 3c 43 15 27 3d 02 48 39 3d e1 4b bf bc
       0.028139234 0.04079176 0.045234688 -0.023351612
0002f0 36 6b 25 3e b3 6d e6 bd 8c 45 14 be 8e e5 51 bc
       0.16154179 -0.11251392 -0.14479655 -0.012811078
000300 6a 7a 4a bd 40 7b 8a ba 09 2f 2c bd 0c 52 97 3d
       -0.04943315 -0.0010565296 -0.042037044 0.07388696
000310 2a c4 e3 3d 96 12 ae 3c 10 47 6e bc 88 53 d7 3a
       0.111214 0.021249097 -0.01454331 0.0016428092
000320 e6 b1 15 3d c6 80 09 bc 4a 1f b4 3d 0e 1c 67 bd
       0.03654661 -0.008392518 0.087950304 -0.05642324
000330 19 38 b3 3d 57 e5 3a 3e cc e0 9d 3d 6a 8c 46 3d
       0.08750934 0.18251549 0.07708892 0.048473753
000340 8e ed fc 3c fc 7d 4c bd ba d6 66 3d 5f 98 2d 3d
       0.030874994 -0.049924836 0.056357123 0.04238164
000350 93 ae b5 3d 82 69 39 3e e5 a5 8b bd 20 8c 55 3d
       0.08871188 0.18106654 -0.06818751 0.052135587
000360 1b 8e 45 3d a8 75 26 3e 5f 6d 0c 3d 50 12 83 3d
       0.048231225 0.1625582 0.034283992 0.06399977
000370 34 eb cf 3d 8f 32 d7 bc 73 f2 f5 bd 09 a7 24 bd
       0.10152283 -0.026269225 -0.12009134 -0.04019836
000380 03 9a e9 3d f3 90 ce 3d fc 4c e1 3c 4f 90 9d 3d
       0.114063285 0.100862406 0.02750253 0.0769354
000390 19 97 b0 3c b3 3f 5e bd a8 64 27 3e e0 cc 20 bc
       0.021556424 -0.054259967 0.16346991 -0.009814471
0003a0 d9 de 12 bd 18 1b 5f bd ff 0b 9a bd f2 e2 f7 3d
       -0.035857055 -0.054469198 -0.07521819 0.12103833
0003b0 96 68 93 3d d5 47 79 bd 7e 9a 95 bd 35 b3 a4 3d
       0.071976826 -0.06085952 -0.07304858 0.080419935
0003c0 bb 29 02 3e b2 16 e6 3d 19 61 23 bc 42 01 d6 bc
       0.12711231 0.112347975 -0.00997188 -0.026123647
0003d0 a2 67 1a be dc b1 1d 3d 08 8d 8e 3c ae 08 01 3d
       -0.15078595 0.038499698 0.017401233 0.03150242
0003e0 33 b9 7b bd 3c f4 03 3d a8 f7 5f 3c 9f 36 26 3d
       -0.061455917 0.032215342 0.013669886 0.040579434
0003f0 dc 3c 8e bd bd 0c 39 3d e7 fe 05 3e 4c e0 0d 3e
       -0.06945202 0.045178164 0.13085519 0.13855094

network_body._body_endoder.seq_layers.2.bias f4 [256]
000000 c0 99 75 3c df 91 2c 3c 7b 88 31 3c c0 18 5e 37
       0.01499027 0.010532825 0.010835762 1.3237994e-05
000010 7e 93 f5 bb 0b 7e c4 3b 89 9b 7e 3c 07 3a c4 bc
       -0.007494389 0.005996471 0.015540012 -0.02395345
000020 df 5b 57 3c 9d a6 82 3b f3 ed e6 bb 67 e6 28 3c
       0.013144462 0.003987147 -0.0070474087 0.010308838
000030 68 71 86 3c b6 23 5b 3c 1b b6 11 bc 83 cd 2f 3c
       0.016411498 0.013375213 -0.008893515 0.01073015
000040 bb d6 11 3c d7 db 05 3c 68 8b a9 3b b1 04 38 3c
       0.008901293 0.00817009 0.005174089 0.011231587
000050 5d 07 3a bc 3d 2f 44 bc 39 15 3f 3a a7 ad 22 3b
       -0.011354295 -0.011974153 0.0007289234 0.0024822743
000060 59 6c 7d 3b 5b f8 f3 bb a9 d1 a2 3c a6 ff 27 bc
       0.0038669317 -0.0074453778 0.019875364 -0.010253822
000070 bf 6d 3a 3c 36 6b 80 3c a9 e7 d6 b9 6a e6 98 3c
       0.011378705 0.015676122 -0.0004098986 0.018664557
000080 c0 a4 89 ba 1d bc f8 3a e7 4c 65 3c 2f 6a c1 bc
       -0.001050137 0.001897696 0.013995386 -0.023610203
000090 61 cc 64 3c c2 34 b1 bb 6b 46 e5 bb 54 a9 aa bc
       0.013964743 -0.0054079005 -0.00699692 -0.020832695
0000a0 85 06 f9 3c af b5 83 3b 76 e6 c0 3c 12 36 61 3c
       0.030398617 0.004019461 0.023547392 0.0137458015
0000b0 14 a8 df 3c 9f f1 17 bb dc ca 46 3c c9 f7 97 bb
       0.027301826 -0.002318479 0.012133326 -0.0046376926
0000c0 fe 43 4b bb 12 bf f7 3c b4 c0 bb bc ad dd 2b 3c
       -0.0031015868 0.030242477 -0.022919036 0.010489863
0000d0 84 b5 0b 3d 8f 42 66 3c c2 6b 62 3c 98 3b d4 3c
       0.034108654 0.014053955 0.013819637 0.025907323
0000e0 a7 99 9c 3c 83 5c e3 bb 22 60 e3 3b 5c 32 be 3b
       0.019116236 -0.0069385185 0.00693895 0.005804343
0000f0 91 e7 5f 3b cd 89 a0 3c e6 73 de 3c 91 05 a2 bb
       0.0034165124 0.019596959 0.027154874 -0.004944511
000100 73 b3 f5 3c 81 de 76 3a 34 be 83 bc 01 a8 90 3c
       0.029992795 0.0009417311 -0.016081907 0.017658236
000110 2c 3d 6a bc a6 97 95 3c 5b 25 43 3c 78 99 48 bc
       -0.014296811 0.018260788 0.011910762 -0.012243621
000120 40 a8 bb 3b 94 f2 4f 3c 8b ab 3e bc 9d 8e e1 3b
       0.005726844 0.0126921125 -0.011637579 0.006883456
000130 4d bb 90 3b 28 1b b4 3c b7 69 d0 3c bb 19 e3 3b
       0.0044168592 0.021985605 0.025441034 0.0069305575
000140 be 86 c5 3c 4f 6a f8 3b 11 95 db 3c 04 82 cc 3c
       0.024112102 0.0075810323 0.026804479 0.02496434
000150 38 03 5e bb 73 fe 1a 3c fb 87 b6 bb 25 e9 2b 3c
       -0.003387643 0.0094600795 -0.0055704094 0.010492598
000160 3e 93 c1 3b 1c 93 59 3c 7d aa 9a bb 11 6d 13 3c
       0.005907445 0.0132797025 -0.004720031 0.008998171
000170 87 89 04 3c b0 9a f1 3b d8 1b 42 3b 88 bd f6 3b
       0.00808943 0.0073731765 0.0029618647 0.007529918
000180 01 f5 26 bc 0e 00 7e 3b 83 7f 2f bb 85 e1 2b 3c
       -0.010190249 0.0038757357 -0.0026778884 0.01049078
000190 c6 05 e3 3b 25 e2 ce 3c c3 5d 0e 3b 6c 16 ba 3a
       0.0069281785 0.025254318 0.0021723367 0.0014197356
0001a0 0a 3f 49 3b 42 b6 a5 3b d3 da 70 3b d4 3e 33 bb
       0.003070774 0.005057127 0.0036751523 -0.002735068
0001b0 46 54 2e bc 09 18 38 3c 63 de 22 bb 35 e9 b2 3c
       -0.01064021 0.011236199 -0.002485179 0.021839717
0001c0 c9 a1 6a 3a 9a 8c c4 3c ad 64 f9 3b 58 53 f2 bb
       0.00089504995 0.023992825 0.0076108784 -0.0073951893
0001d0 f5 6e 12 3d ef 79 cf 3c 2b f1 3b 3b cd 03 54 3c
       0.035750348 0.025326697 0.0028677683 0.012940359
0001e0 7c 42 e1 3c 7a 3c 04 3d c2 71 8f 3c 72 d6 10 3d
       0.027497523 0.032284237 0.017510299 0.03536076
0001f0 d7 44 17 3d be a7 42 3a ca 14 af 3c b1 9e 2b 3c
       0.036930885 0.0007425508 0.021372218 0.010474847
000200 01 46 66 3c fd 13 fb bb c8 63 61 ba 06 7a d2 3c
       0.014054776 -0.007662295 -0.00085979374 0.025692951
000210 bc 5d 62 3b 15 30 f1 3b 49 57 bc 3b 73 1e 9a 3c
       0.0034540733 0.007360468 0.00574771 0.018813347
000220 14 6c d2 3b 2c 77 46 3c a3 cb 0e 3b be 08 9d bb
       0.0064215753 0.012113374 0.0021788857 -0.004792302
000230 9e 30 2f 3c 74 6f ea 3c 22 fc 54 bb f3 fc 17 3c
       0.010692744 0.028617598 -0.0032498916 0.009276616
000240 f0 b6 cf 3c 96 b9 b6 3b 43 72 7b ba 8e e9 46 3b
       0.025355786 0.005576323 -0.00095919165 0.0030351612
000250 fc b2 18 3c 17 d8 24 bb 9b 43 f4 bb fd 58 f5 3a
       0.009320017 -0.0025153214 -0.0074543483 0.0018718537
000260 5b 9b c7 3c d9 7e 0a bc b6 06 bc 3b fa 40 8b bb
       0.024366071 -0.008453094 0.0057381047 -0.004249689
000270 36 41 fe bb 4c f8 9a bc 23 ef 3c bc 2e 40 3f 3c
       -0.0077592386 -0.018917225 -0.011531624 0.0116730165
000280 e1 43 91 39 74 9a 06 3c 3a 08 a4 3c 75 24 64 3c
       0.0002770713 0.008215535 0.020023454 0.013924708
000290 4e ba 8f bb 33 64 ae 3b 36 93 09 bc 2f 52 49 3c
       -0.004386223 0.0053220033 -0.008396914 0.0122876605
0002a0 37 6e de 3b 31 b7 c3 3c 3d f5 34 bb 59 95 98 bb
       0.006788041 0.023891063 -0.0027611994 -0.0046564755
0002b0 58 d4 87 bc 1f 3a 5f 3b 89 2c 35 bd e8 71 ad 3b
       -0.016580746 0.0034061742 -0.044231925 0.0052931197
0002c0 98 73 f5 3c 65 63 57 3a df f6 66 3c 10 da 93 3b
       0.029962346 0.000821641 0.014096945 0.004512079
0002d0 bc 3c 97 bb 89 0c 63 3c 4d 1e 21 3c e5 61 eb 3b
       -0.0046153944 0.013857969 0.009833884 0.007183301
0002e0 b1 63 cd 3b 23 38 c8 bb 20 f4 cb bb 75 c5 11 bc
       0.0062679877 -0.0061102076 -0.0062241703 -0.008897175
0002f0 7a 8d 9b b9 1d ca 3a 3b 7f 7e 9f bc 57 c9 ad 3a
       -0.00029669312 0.0028501817 -0.019469498 0.0013258856
000300 a3 4c eb bb 64 84 e0 3c 15 2d fc b8 31 c5 79 3c
       -0.0071807667 0.027406879 -0.000120246936 0.015244768
000310 bf a4 46 bc 50 3f 30 3c b3 3c 49 3d 57 9e 9c 3b
       -0.0121242395 0.010757282 0.049130153 0.004779618
000320 ab 26 fe 3b 23 28 74 3c e9 36 d5 ba 8a 9e 53 3c
       0.0077560744 0.014902147 -0.0016266975 0.012916217
000330 14 cb fd b8 a9 38 27 bb 78 92 0a bb fb 58 68 3c
       -0.00012101806 -0.002551595 -0.002114443 0.014181371
000340 4b d9 80 3c 0c 37 78 3c 4b 72 b9 3c 2b 2e 66 39
       0.015728613 0.015149843 0.022637507 0.00021951708
000350 bf 6e e3 3c 2d e9 4c bc a0 2e 97 3c d6 5c 9a 3c
       0.027762769 -0.012506765 0.01845485 0.018843096
000360 b6 eb 4c 3c 4a fc 65 3c 12 e7 e1 3c b5 ba 05 3c
       0.01250737 0.014037201 0.027576003 0.00816219
000370 50 e2 4c 3c c0 b7 a7 3c 98 07 40 3c 66 5e b9 3c
       0.012505129 0.020473361 0.0117205605 0.02262802
000380 bd 9e b7 3c fd 16 85 bc f9 2d 2b 3c a6 2f 1e bc
       0.02241456 -0.016246313 0.010447972 -0.009654915
000390 23 94 a4 3c cf d5 f3 3c f0 d6 b7 3c e9 a3 81 3b
       0.020090168 0.029765038 0.022441357 0.003956307
0003a0 25 19 c4 3c 3a ea 44 3c a6 c2 b5 3c 95 6d 89 3b
       0.023937771 0.012018735 0.022187542 0.0041939714
0003b0 17 cb c1 3c f0 42 ea bb df 76 4b 3c 55 fb c8 3c
       0.023656411 -0.007149093 0.012418478 0.024533907
0003c0 75 48 b0 3c c7 34 9c bb b3 ce c4 3c fb eb a9 3c
       0.021518925 -0.0047670337 0.024024343 0.020742407
0003d0 6f 1a 25 bc 3b 23 03 3d 46 ba e2 3a 5b 48 f5 3b
       -0.010077103 0.03201602 0.0017297945 0.007485432
0003e0 e4 e9 3c 3c 9a b9 a9 3c 37 f4 f5 3b 7a f6 a4 3c
       0.011530373 0.020718385 0.0075059193 0.02013706
0003f0 18 bf 4e bb f3 41 ef 3b c2 e9 22 3d c0 dd 1d 3c
       -0.0031547006 0.007301563 0.03977371 0.009635389

action_model._discrete_distribution.branches.0.weight f4 [3, 256]
000000 e9 ff 5e bd e0 ef 27 bd 23 dc 4a bd 78 9f 00 3d
       -0.054443274 -0.041000247 -0.049526345 0.03140208
000010 6b 50 c4 bc 83 da 96 3b 4a 65 45 3c 85 03 81 3c
       -0.023964128 0.0046036853 0.012048075 0.015748749
000020 e0 d0 ff 3b 1b 81 0c bd b4 19 25 3c 64 9e e4 ba
       0.0078068823 -0.034302812 0.010076929 -0.0017442224
000030 2a 97 1c bd 32 93 43 bb 1c 26 7d bc c2 72 86 3d
       -0.0382301 -0.0029842374 -0.0154509805 0.06564857
000040 dd 60 88 bd 91 02 25 3b b8 da 69 3c 89 9b 11 ba
       -0.066591 0.0025178532 0.014273338 -0.00055544876
000050 96 6b fe bb 17 4b eb 3c 26 03 bb bc 44 dd 1e 3c
       -0.00776429 0.028722329 -0.02282865 0.0096963085
000060 5f 91 a3 bc 35 0c da 3b 40 33 71 bd 4b ef 2b bd
       -0.01996678 0.006654287 -0.058886766 -0.041976254
000070 06 49 17 3d 25 dc e9 ba 6c 22 40 bd 3d 7a d5 3d
       0.036934875 -0.0017842097 -0.046907827 0.10423706
000080 39 9a 47 bd 34 ec 20 3c 59 e1 94 3c df 07 73 3a
       -0.048731063 0.00982194 0.01817386 0.0009270887
000090 b1 74 99 3b 00 16 80 3b 90 77 ba 3b 5f 68 92 bb
       0.0046831 0.0039088726 0.0056905225 -0.0044680084
0000a0 5b 06 d6 3c 37 88 81 bd ff ad 9c 3c 80 6b 1a bd
       0.026126077 -0.06324809 0.019125937 -0.037700176
0000b0 64 6d bc 3a 45 9f 21 bb 90 03 12 bd 89 12 86 bd
       0.0014375863 -0.0024661582 -0.03564793 -0.06546504
0000c0 19 bc f2 bb 55 c2 0c bd 19 a0 d9 ba 8b 5b b7 bb
       -0.007407677 -0.034365017 -0.0016603499 -0.0055956296
0000d0 aa 0f a8 3c 3b e9 0c bd de 4d d3 3c af 55 4e bd
       0.020515282 -0.034402113 0.025793966 -0.050374683
0000e0 d3 76 f6 3c 57 22 c6 3c 27 6c 29 bd c8 7b 38 bd
       0.030085957 0.024186296 -0.041362908 -0.045039922
0000f0 a8 12 e5 3c 48 f9 55 bd 21 cf 50 3d 1c af 69 bd
       0.027962998 -0.052239686 0.050978784 -0.057051763
000100 f4 a5 ef 3c 55 f3 a8 3a 76 8a 26 3c e4 55 2d 3d
       0.029253937 0.0012889901 0.010164848 0.04231824
000110 3c 87 28 bb 71 a7 8f bc 6b f7 3f bd d8 e6 50 3d
       -0.0025715372 -0.017535897 -0.046866816 0.0510014
000120 e3 a7 94 3d 52 62 f4 bc 1e bd 95 3c a3 79 72 bc
       0.07258584 -0.029832039 0.018278655 -0.014799508
000130 2a 7c 1c bd 9f bf 8b bc 0a 4e 05 3d d4 49 8a 3c
       -0.03820435 -0.017059145 0.032545127 0.016880907
000140 14 d2 e7 3c a7 d5 0d 3b 52 3d 3d 3d 11 e0 14 3d
       0.028298415 0.002164224 0.046201058 0.0363465
000150 54 92 86 3b ce df 94 3c 0e 44 90 3c af c9 4d 3d
       0.004106799 0.018173125 0.017610576 0.05024117
000160 02 2c bd bd ff 8d 6d 3c c3 83 8d bb 93 b5 55 bd
       -0.092369094 0.014499187 -0.0043186857 -0.052175116
000170 06 c5 00 bd 63 a2 1d bd 71 98 20 bd ce fd b0 bd
       -0.031437896 -0.038484942 -0.03920788 -0.086421594
000180 f9 de 3e bd b9 ac 41 3d b0 e2 17 bd b5 35 e3 3b
       -0.046599362 0.04728386 -0.03708142 0.0069338926
000190 67 0e a4 bc 63 95 bb bb 02 2a 5c 3c e5 f7 c1 bb
       -0.020026399 -0.0057245954 0.01343775 -0.005919444
0001a0 fc a0 a5 3c 71 7c 65 3d 72 fc c4 bc d3 73 63 3a
       0.020218365 0.05602688 -0.024046157 0.0008676622
0001b0 1e 7c 16 3c 4f 8a 3f bd b9 8d 03 3b be 2f 92 3c
       0.009184865 -0.04676276 0.0020073487 0.01784503
0001c0 8b a8 2f 3d c0 c0 8d bc 02 1a d3 bc 07 9c 3a bd
       0.042885344 -0.017303824 -0.025769237 -0.045558956
0001d0 bd d4 2a bb 97 cd d5 3b 0c b9 a6 3c 63 30 25 3c
       -0.0026066743 0.0065247524 0.02035191 0.010082337
0001e0 05 c1 2a bd c7 72 50 bd 9c 45 0b 3d 40 3f 8e 3c
       -0.041687984 -0.05089071 0.03400193 0.017364144
0001f0 e9 16 31 3d c5 9d 4e 3c 12 68 04 bd c0 b5 8b 3d
       0.04323474 0.012610857 -0.03232581 0.068217754
000200 9f 09 68 3c 8c 36 0f 3d f5 db 1c bd cd 8d 09 3d
       0.01416245 0.03496413 -0.038295705 0.033582497
000210 22 4b 88 bb 0a 10 99 3c 9a 7b 59 bd a7 3a 85 bd
       -0.004159347 0.018684406 -0.05309639 -0.06505328
000220 af de a8 bc 6c b9 f3 bb 98 d7 d1 bc df 2c 91 bd
       -0.020613996 -0.0074378755 -0.025615498 -0.070886366
000230 65 c2 15 3d b7 52 8d 3d c4 13 d7 ba 79 d8 cb 3c
       0.036562342 0.06900542 -0.0016409089 0.024883496
000240 e2 29 c8 ba 33 eb 76 bb f6 46 30 bc c2 10 e4 3c
       -0.0015271271 -0.003767681 -0.010759106 0.027840022
000250 97 1c 4a bd a8 3e 32 bc 90 b6 d3 bb d6 01 aa bb
       -0.04934367 -0.010879196 -0.006460972 -0.005188207
000260 15 67 61 bc a1 e2 96 3c 28 af 87 3c 9a ba 1f bd
       -0.013757487 0.018418612 0.016563013 -0.038996316
000270 f9 87 30 bd 7d b1 7c bb eb be ad bd 82 3e 93 3a
       -0.043098424 -0.003855794 -0.0848368 0.0011233839
000280 3c 5e 8a 3d f0 45 7b 3b e1 ea 6f 3c a4 a2 fe bb
       0.06756255 0.0038341247 0.014643402 -0.007770853
000290 85 44 eb 3c 73 1d 95 3d b0 90 ed bc 12 74 51 bd
       0.028719196 0.072810076 -0.028999656 -0.051136084
0002a0 44 12 1d bd b6 8b 51 3b ac 12 7a 3d 69 74 36 bd
       -0.038347498 0.0031974143 0.061052963 -0.04454461
0002b0 71 95 30 3c 16 72 24 3d fa 77 5c bc 2c d5 59 bd
       0.010777817 0.040147863 -0.013456339 -0.053181812
0002c0 6b 8e 7b bc 60 fa ab bc 85 8d 43 3d da bf 80 3d
       -0.015353779 -0.020993412 0.047742385 0.06286593
0002d0 64 d9 2f bc 17 89 03 bd 25 84 40 bd 1c a1 d4 3c
       -0.010732982 -0.03211316 -0.047001023 0.02595573
0002e0 33 00 3c bd fb 04 ba bd 1f c7 51 3d 53 b1 22 bc
       -0.045898627 -0.09082981 0.051215287 -0.009929973
0002f0 c2 69 e8 bc 01 ae f1 bc 30 c3 94 bd b4 ac 22 bd
       -0.028370742 -0.029501917 -0.072637916 -0.039715484
000300 48 f7 82 bc 5b ac e4 3c 82 8c aa bd ef bf 06 bd
       -0.015987054 0.027914217 -0.08327581 -0.032897886
000310 7f cf fb bc d6 cb f1 3c 13 d5 71 bd 53 b3 dc 3b
       -0.03073859 0.029516142 -0.059041094 0.0067352443
000320 c0 d8 3c 3c 10 d5 c5 bd 12 ff 68 bd 23 d7 dd 3c
       0.011526287 -0.09659779 -0.05688388 0.027080124
000330 2d c2 06 3d 02 88 1d bd 76 2c 26 bd e1 f7 30 bd
       0.032900024 -0.038459785 -0.040569745 -0.043205146
000340 a3 e8 82 bd ce ae 91 bc d7 ef 40 bd a1 3a 85 bc
       -0.06392028 -0.017783549 -0.04710373 -0.016263308
000350 4a 58 ef bc ae e0 e9 bc b3 a8 c9 bc a9 b2 bf 3c
       -0.029216904 -0.028549518 -0.024616575 0.023400621
000360 30 7d 57 3d 40 7e 34 bd 7c 2a fe bc 04 53 6a 3c
       0.052609622 -0.044065714 -0.031026118 0.014302019
000370 37 89 4a bd c8 5e d3 bb 2c 84 59 3c 34 e0 a8 bd
       -0.049447265 -0.006450508 0.013276141 -0.08245888
000380 a9 ab 60 bc e5 00 ab 3c 5d 1f e7 bb 03 53 d4 ba
       -0.013712802 0.02087445 -0.0070532993 -0.0016199056
000390 af bc cf 3d 8e e1 e1 bc 42 ce 10 3c c4 34 d0 3c
       0.101434104 -0.027573373 0.008838238 0.025415786
0003a0 d3 62 f8 3c 40 ba 2c 3d 37 f7 e1 bc 9a ae 79 3c
       0.03032056 0.04216981 -0.027583702 0.015239382
0003b0 ca 49 74 bd b7 a2 33 bc b1 4b 05 bd 9c 92 65 3a
       -0.059640683 -0.010964087 -0.032542888 0.0008757503
0003c0 33 8c fc bc 74 dc 78 3c cd 50 8c bd 2e db 0e bd
       -0.030828571 0.015189279 -0.06851349 -0.034876995
0003d0 45 42 12 bd 2c 26 39 3c 23 e3 fa 3c c2 4e 12 bd
       -0.03570773 0.011300605 0.030625885 -0.03571964
0003e0 fb bd 2a bc be a2 5f bd c5 a1 dc 3c ed 47 1a 3d
       -0.010421271 -0.054598562 0.026932606 0.03766625
0003f0 3e 92 a4 3b 75 16 1c bd 4c e0 8a bc 51 2d db bc
       0.0050223162 -0.038107354 -0.016952656 -0.026755007

action_model._discrete_distribution.branches.0.bias f4 [3]
000000 fd 2b f1 bb 01 2d 8b 3c d4 95 39 bc
       -0.00735998 0.016989233 -0.011327226
