Assets/AIModels/ppo/results/test2/Agent.onnx (onnx, 591254 bytes, 11 tensors)

discrete_act_size_vector f4 [1, 3]
000000 00 00 40 40 00 00 40 40 00 00 00 40
       3.0 3.0 2.0

network_body._body_endoder.seq_layers.0.weight f4 [256, 302]
000000 30 5c 88 3b 62 c3 5a 3e 51 a4 9b bd ed 68 27 3d
       0.00416138 0.21363595 -0.075997 0.04087155
000010 e3 d9 1d bc 95 fc 2d 3e 50 19 34 3c 6d 59 54 3c
       -0.009634468 0.16990884 0.010992363 0.012960774
000020 c3 5d f0 bd 8d d1 02 be 87 e7 ab 3d df a5 b4 3d
       -0.11736634 -0.1277525 0.0839377 0.088207
000030 78 d5 9b 3d d3 dc e7 3d a9 55 db 3d 07 a3 6b 3d
       0.07609075 0.11321416 0.10709698 0.057528522
000040 70 d9 82 3d 63 fd 08 3d 7a c4 28 bd 2d 66 5f bd
       0.06389129 0.033444773 -0.041203 -0.0545408
000050 4c 90 aa 3d 3b 22 55 3e ef a9 1b bd a2 0f 8e bc
       0.08328304 0.20813839 -0.03800386 -0.017341439
000060 52 74 f7 3b 9d 96 51 bc 46 07 9b bd 47 ee b2 3d
       0.0075517083 -0.012792257 -0.07569747 0.08736854
000070 2f 83 c5 bd f1 51 c1 bd ef 04 90 bd 1e e4 22 3e
       -0.09644162 -0.09439457 -0.07032191 0.15907332
000080 1d a8 89 3c a7 f8 15 3e d8 58 7d bd 52 b2 e8 3d
       0.016803795 0.14645635 -0.061852306 0.11362137
000090 f4 4f 01 3e 32 e8 b8 3d f9 c2 1f bd 59 86 94 bd
       0.12628156 0.09028663 -0.0390043 -0.07252187
0000a0 64 95 76 3c 96 44 95 3e c9 61 11 be 6e fc e4 bd
       0.015050266 0.2915389 -0.14197458 -0.1118096
0000b0 59 69 c8 bd e7 85 05 3d 43 40 1a 3e 77 a9 cc 3a
       -0.097857185 0.032598402 0.15063576 0.0015614469
0000c0 83 b8 d8 bd 19 24 17 be 4a a8 60 3d 99 ea 6b 3e
       -0.10582068 -0.14759864 0.054847993 0.2303871
0000d0 e5 7a 00 bd 90 eb 6a bd 96 c9 f0 bc 6f a8 de 3d
       -0.0313672 -0.057353556 -0.029392999 0.1087197
0000e0 65 87 6b bd 7b d1 a0 3d b5 7e 06 be 7e 33 d1 bd
       -0.05750217 0.07852455 -0.13134272 -0.102148995
0000f0 d0 7c b7 3d d3 db 8d 3e bd 29 fd bd 5b e7 0c be
       0.08959353 0.27706775 -0.123614766 -0.1376013
000100 52 c6 83 3e 0f a4 7a 3e 1a ae 37 bd c9 35 64 3d
       0.25737244 0.24476646 -0.04484377 0.055715356
000110 94 a6 27 be c7 bb 48 be 2a 92 0e 3c e2 76 cc 3d
       -0.16372138 -0.19602881 0.00870184 0.099836126
000120 e5 7a e7 bd b7 4d cc 3d ef ff 9a 3c 82 22 4b 3e
       -0.11302737 0.099757604 0.018920867 0.19837382
000130 71 cc ab 3c 2e a7 ea 3d d3 2c 31 bd 10 06 b5 bd
       0.020971509 0.11457668 -0.04325564 -0.08839047
000140 b9 53 f4 3d 9a 07 3d 3e 4b 5a e4 bc 6b c7 a5 bd
       0.11930031 0.18459931 -0.027875086 -0.080946766
000150 e5 50 6b bd 32 c3 e0 3d eb 96 00 be 02 b6 a7 bc
       -0.057450194 0.109747306 -0.1255757 -0.02047253
000160 00 56 af bd 17 ba 7d bd 56 16 52 3c ed 1b b6 3d
       -0.08561325 -0.061945047 0.012822708 0.08892045
000170 d3 ce 52 bc 82 e5 91 3d 30 12 07 bd 02 fd ab 3e
       -0.012866694 0.07123853 -0.03297633 0.33591467
000180 a5 34 a5 3d 86 47 0c 3e 1a 61 bd bd 43 b2 31 be
       0.08066682 0.13699159 -0.09247036 -0.17353158
000190 c9 c5 1c 3e 43 39 2e 3d d7 b0 58 3d 3c a9 5c bd
       0.15309824 0.042535078 0.052903023 -0.053872332
0001a0 22 4a bf bc b3 e3 81 3d 75 45 1b bd 02 e0 12 be
       -0.023350779 0.06342258 -0.037908036 -0.14343265
0001b0 ef be e8 bb 50 f6 df bb 62 db 4a be bc 28 5a 3e
       -0.007102839 -0.0068347827 -0.1981025 0.21304601
0001c0 23 46 dc bd 2d a9 a2 bd 03 42 84 3d 55 b1 26 3e
       -0.10755565 -0.07942424 0.06457903 0.16278584
0001d0 db b2 b4 bc dd 82 9c 3c ed 07 98 3d bb 78 9e bd
       -0.022057941 0.01910537 0.07423387 -0.07737871
0001e0 13 32 94 3c a8 50 d8 3c f9 93 95 3d 2d 90 9b bd
       0.018090283 0.026405647 0.07303614 -0.07595859
0001f0 74 61 03 3c dd be 1d 3e 2a e8 6f 3d b3 79 35 be
       0.00801884 0.1540484 0.05857102 -0.17722206
000200 b1 34 5d 3b f2 84 a3 bd d0 30 df 3d e0 02 e6 3d
       0.003375333 -0.07984342 0.10897982 0.11231017
000210 de b1 a2 3d 32 54 16 bd b7 b7 60 bc e2 b3 ae 3c
       0.07944082 -0.03670139 -0.013715676 0.02132601
000220 77 6c 1c bd 52 65 a4 3d 2d ac fa bc df e3 0b be
       -0.038189378 0.08027138 -0.030599678 -0.13661145
000230 2d a3 11 3d 63 5a c8 3d af 4a 2c bd f9 c1 ab bd
       0.035556007 0.09782865 -0.04206341 -0.08386607
000240 2a ba 17 be e7 d1 3e 3d b7 cf 81 bd 3f be e3 3d
       -0.1481711 0.046586897 -0.063384466 0.11120271
000250 0f 04 3d be d5 42 82 bd 39 4f f9 3b 90 3a 4b 3c
       -0.1845858 -0.063604034 0.007608321 0.012404099
000260 73 ed 22 3c 31 88 dd 3c 01 ae 9b bd 1e 88 38 3d
       0.009944308 0.02704248 -0.07601548 0.045051686
000270 a2 42 37 3d e5 44 6c 3d 5e db 31 3d d8 58 3d be
       0.04474128 0.05768289 0.043422095 -0.18490922
000280 78 36 2d bd b6 f7 a8 3d ea 23 0c 3e 27 0e 16 be
       -0.042288274 0.08250372 0.13685575 -0.14653836
000290 8e 3b 98 bd e0 16 dd 3d b3 4d e0 bd b5 19 90 3e
       -0.07433234 0.10795379 -0.1095232 0.28144613
0002a0 40 e4 7c be a1 e5 0d be ae fb 4f 3d 6c 5a d6 3d
       -0.24696445 -0.13857128 0.05077713 0.10466465
0002b0 16 39 0c 3d b9 7d d3 bd ec 43 3a be cd 9d d0 3d
       0.03423413 -0.10326714 -0.18189973 0.10186348
0002c0 93 81 37 be 14 38 13 3e ee f2 a5 bd 59 bf 99 bd
       -0.17920522 0.14376861 -0.08102976 -0.075072
0002d0 0a 08 07 3c 29 00 48 3e 17 df 97 3d 77 d7 32 be
       0.008241663 0.19531311 0.07415598 -0.17465006
0002e0 0f bc 97 bd 44 3b f8 3d eb 4b 7e bd f7 14 6f 3e
       -0.07408916 0.12120679 -0.06208412 0.23347841
0002f0 84 4d 0c be ea 09 65 be 20 27 0d be 12 c0 4a 3e
       -0.13701445 -0.22367063 -0.13784456 0.19799832
000300 3e c3 39 3e de 9d d8 bd 61 64 19 3a 6b 05 80 be
       0.18140885 -0.10576986 0.00058514444 -0.25004134
000310 99 56 2b 3d 3f c4 12 3d 19 22 1b be e0 ac d8 bd
       0.041830633 0.035831686 -0.15149726 -0.10579848
000320 a2 18 22 be 51 73 51 3e d1 94 f4 bc fc fa 15 be
       -0.15829709 0.20454146 -0.029856117 -0.14646524
000330 93 e5 2d be 17 9e 93 be f5 18 0f 3e f7 7f 3d be
       -0.16982107 -0.2883155 0.13974364 -0.18505846
000340 3f d0 46 be a9 6e 24 be 51 54 43 bd 32 3c dd ba
       -0.19415377 -0.16057838 -0.047687832 -0.0016878902
000350 8b f8 f6 bd 02 ea eb bd 48 65 e7 bd 5c 5d b9 bd
       -0.120591246 -0.11519243 -0.11298615 -0.0905101
000360 d4 06 8d bc 55 3a 26 3e 70 97 e4 bd 58 55 fe bd
       -0.01721517 0.1623319 -0.11161697 -0.12418622
000370 3a 39 1c be 4a 6a 65 3e b8 f3 08 3e a2 cb b8 bd
       -0.15256205 0.22403827 0.13374221 -0.09023215
000380 7f 20 4c 3d 43 32 0d 3c 72 1d a9 3d 0e 61 84 3d
       0.04983568 0.00861794 0.082575694 0.06463824
000390 3a 2a 05 be 42 ba 1f be 30 b6 0f bd e3 e0 60 3e
       -0.1300439 -0.15598395 -0.035085857 0.21960787
0003a0 58 98 00 3e 30 1d f2 bd f5 fa 87 be ef fb eb 3c
       0.12558115 -0.11821973 -0.26558653 0.028806655
0003b0 63 2e 8c bc 95 0d 4b 3d e9 cd 7b bc 7d 21 92 bc
       -0.017111963 0.0495735 -0.015368917 -0.017838234
0003c0 12 f5 df bd dc 40 c2 3d 86 d1 0c bd 84 5f c7 3d
       -0.10935415 0.09485027 -0.034379505 0.09735015
0003d0 c6 6c df bd 47 56 80 bb c5 ba 48 be 38 30 34 3d
       -0.10909419 -0.003916535 -0.19602497 0.043991297
0003e0 37 a2 a6 bd d8 51 d3 bd 2d 6b 51 bc 08 af ea 3d
       -0.08136409 -0.10318345 -0.0127819 0.11459166
0003f0 f1 8c af 3b d7 dd 88 be 15 06 57 bd 8f 8a 93 bd
       0.0053573777 -0.2673175 -0.052496035 -0.07204162

network_body._body_endoder.seq_layers.0.bias f4 [256]
000000 58 76 b1 bc 9e 41 53 bd d6 86 a7 bc af e4 65 bd
       -0.021662876 -0.05157625 -0.020450037 -0.056126293
000010 de 86 9b bd f7 42 9a bd 88 9a dc bb 08 5a c1 bc
       -0.07594083 -0.07532304 -0.0067322887 -0.0236025
000020 35 76 85 3b cc 47 3c bc ac 55 02 bd da f4 53 bd
       0.0040729293 -0.011491727 -0.031819984 -0.05174718
000030 09 d2 0b bd cd 47 5e bd 96 f5 eb bd 9e 77 ea 3c
       -0.034135852 -0.054267693 -0.11521451 0.028621491
000040 9b 0e 80 bd fa 90 a6 3c ed a5 07 3c 2b a4 e9 bd
       -0.06252786 0.020332802 0.008279306 -0.11408266
000050 07 23 12 bd 8c 1c ed bc 33 3b 8a bd d5 a1 04 bd
       -0.035677936 -0.028944276 -0.067495726 -0.032380898
000060 73 a3 24 bd c3 77 79 bd 83 3f ff bc e1 a5 df 3c
       -0.04019494 -0.06090523 -0.031158214 0.027300777
000070 be 3b 8a 3d f5 f2 35 3d 86 9b 89 bc 69 54 31 bd
       0.06749676 0.044421155 -0.016797792 -0.04329339
000080 38 f8 4a bc e6 25 18 bc 0c 82 6c 3c e5 67 27 3b
       -0.0123882815 -0.009286379 0.0144353025 0.0025544104
000090 48 ff aa 3b 0e d1 20 bd 36 ca c0 bb 50 80 40 3c
       0.00521842 -0.03926187 -0.0058834804 0.011749342
0000a0 37 18 9c bb ca b4 03 bd 7c 9d 0f bc d8 69 cf bc
       -0.004763629 -0.032154836 -0.008765575 -0.025319025
0000b0 7f f6 a9 3b 42 5c f7 bc 6e 25 83 bc dd 12 24 bd
       0.0051868553 -0.03019536 -0.016009059 -0.040057052
0000c0 95 15 50 3c 80 36 80 3c 03 43 6d 3c 87 e4 fb bc
       0.012700458 0.015650988 0.014481309 -0.030748619
0000d0 dd cd 83 bc a0 d6 c2 bc c4 f4 53 bc a7 11 3e bd
       -0.016089374 -0.023783982 -0.012936775 -0.046403553
0000e0 00 9e 08 bc db be 6a bd 52 a3 2a 3d e6 03 d7 bc
       -0.008338451 -0.05731092 0.04165966 -0.026246976
0000f0 b4 49 73 bd 63 15 41 bd b0 94 cc bc 99 30 10 bc
       -0.05939646 -0.047139537 -0.024973243 -0.008800649
000100 30 32 50 bd 31 22 26 3d 54 da b5 3c 71 28 6e bd
       -0.050829113 0.04055995 0.022198834 -0.058144037
000110 79 1a 58 bd d8 27 0a bc 5e ca 98 bc 50 53 90 bc
       -0.05275962 -0.008432351 -0.018651184 -0.017617851
000120 ab 52 ae bb 49 cb 4b 3d 63 ca fd 3c f5 39 7f bc
       -0.0053199134 0.049754415 0.030980295 -0.015577783
000130 a5 6f ee bc 5a 3a c2 3b 7d 7c 36 bb 34 f8 87 bc
       -0.02910597 0.005927366 -0.0027845197 -0.016597845
000140 42 00 39 bd f1 77 0f bc d6 b1 3e bd 16 83 dd 3b
       -0.04516626 -0.008756624 -0.046556316 0.0067600114
000150 b2 c8 8f bd 7d ed 78 3d 72 cb ca bc b2 2e a2 bd
       -0.070207015 0.06077336 -0.024755213 -0.07919063
000160 43 78 85 bc 33 9e a0 bc dd df ba b9 69 85 1e bc
       -0.016292697 -0.019606685 -0.00035643476 -0.009675362
000170 1c bd 80 bc f6 5f d1 3c 6b 80 8a bc 89 ff 86 3d
       -0.015715174 0.025558453 -0.016906938 0.06591708
000180 c5 b3 09 bd 08 20 be b9 3d ad a1 bc 21 fa ce bc
       -0.033618707 -0.0003626349 -0.019735927 -0.025265755
000190 68 9a 9f bc b5 b4 ac bb fe 02 b2 3c b5 50 15 bd
       -0.019482806 -0.0052705654 0.021729942 -0.03645392
0001a0 70 5d 9a bb 10 82 95 bd bc 98 88 bd 42 97 5c 3b
       -0.0047108456 -0.07300198 -0.06669757 0.0033659493
0001b0 fc a1 95 ba 54 66 7e bc 39 39 65 bd 17 ee ad 3c
       -0.0011416073 -0.015527327 -0.055962775 0.021231694
0001c0 a9 25 6a bd e6 b1 6d bc 67 ac 27 bd e4 1f 7c bd
       -0.05716482 -0.014507746 -0.0409359 -0.06155385
0001d0 2f 6a dd 3b b9 b2 7a bd 97 d9 f4 bc 76 f7 4c bd
       0.006757043 -0.0612056 -0.029888911 -0.050040685
0001e0 08 ab 15 bd 9b e0 91 bc ef e3 89 3c 00 0f 96 3d
       -0.03654006 -0.017807296 0.01683232 0.0732708
0001f0 66 e3 2d bd 63 a2 c4 3c 6b d0 02 3d 62 26 b8 bb
       -0.042453192 0.024003213 0.031937044 -0.00561981
000200 65 6d 5a 3c 6d 25 f2 ba 60 ed bc bc 66 e8 3e 3b
       0.013331746 -0.0018474289 -0.023062408 0.002913022
000210 e4 62 e3 bc 0e 30 c7 bc 2d 8e 44 3c b7 f6 a6 bc
       -0.027757116 -0.024314906 0.011996788 -0.020381315
000220 e8 62 87 bd 4a 58 22 bc 06 25 2f 3d 36 ba 5d bd
       -0.06610662 -0.009908745 0.042759918 -0.054132663
000230 68 8f ba 3c b2 30 a1 bd 69 69 69 3d 92 fc 44 bd
       0.02277346 -0.07870616 0.056985293 -0.048092432
000240 7c 91 02 3d 20 35 42 3d 26 a1 9b bc f6 7d 85 bc
       0.031877026 0.047413945 -0.01899774 -0.016295414
000250 a0 a4 d5 bc 8f c3 a6 3b f5 24 5c bd 6c 1d 78 3d
       -0.026079476 0.0050892304 -0.053746182 0.060574934
000260 02 00 87 bd 33 ec b6 bc fa fc 1e bd 54 44 16 bb
       -0.06591798 -0.022329425 -0.038815476 -0.002292891
000270 4a d8 2f 3c 03 4d 4e 3c d8 41 6b 3d 4c ea 80 bc
       0.01073272 0.012591603 0.05743584 -0.015736721
000280 ae 0c 9c 3c 21 d6 85 3a cc c2 82 bd ed 73 f8 ba
       0.019049015 0.001021091 -0.06384811 -0.0018955447
000290 d0 40 bd bc fd 6d 05 bc 7f 73 bf 3c 9c 55 91 bd
       -0.023102194 -0.008143899 0.023370503 -0.07096407
0002a0 ca ff 2c 3d 55 57 5d bb a1 70 15 bd f7 70 6e bb
       0.042236127 -0.0033773978 -0.036484364 -0.003638325
0002b0 9f 0e 0d bc be cf 8e bc 7e 7f 28 bc 6b 81 06 bd
       -0.008609443 -0.017433044 -0.010284303 -0.032838266
0002c0 76 43 37 bd 2b 18 7a bd cf 21 41 bc b0 ad bf 3d
       -0.04474207 -0.061058205 -0.011787846 0.093593
0002d0 c6 97 26 3c d4 e4 82 bc a0 ef d5 bc 81 9d 05 bc
       0.010168022 -0.015978254 -0.026115239 -0.008155228
0002e0 42 1b 6e bc 87 be b0 bc ed 77 b5 3c bd 05 00 bd
       -0.014532866 -0.021575226 0.022151912 -0.031255472
0002f0 f1 a8 a3 3d 44 0b 13 bd 41 af b5 bd 3e a2 97 bd
       0.079912074 -0.035899416 -0.08871318 -0.07403992
000300 64 cf bb bc 02 d0 7a 3b bc 4c 1a bd d4 4f eb 3c
       -0.02292604 0.0038270955 -0.037670836 0.028724588
000310 2c 60 ce 3c c3 55 e1 3c f7 0d a1 bc 72 85 a7 3c
       0.025192343 0.027506715 -0.01965998 0.020449374
000320 e6 e4 81 bc 32 3b 78 3d ed c3 e3 bc 89 53 08 bd
       -0.015856218 0.060603328 -0.027803386 -0.03328279
000330 3e 7e bf 3c c2 14 c7 3c 89 f1 cd 3c ca 4f 73 3c
       0.023375627 0.02430189 0.025139587 0.014850566
000340 ee 7d 41 3c 73 57 7a bb 87 b9 b5 bd ef de 93 bc
       0.011809809 -0.0038199096 -0.08873277 -0.018050639
000350 71 98 5b bd 58 10 62 bd 12 47 12 bd 50 a9 f7 bc
       -0.053612176 -0.055191368 -0.03571231 -0.030232102
000360 8a 56 89 bc aa fc ab bc ce 64 26 3d bc 5f 74 bb
       -0.016764898 -0.020994503 0.04062348 -0.0037288507
000370 3c 11 58 bb ad 74 8a bd a7 ac 97 bc 25 a9 22 bd
       -0.0032969257 -0.067605354 -0.018514944 -0.03971209
000380 0d b5 45 3d ba 29 8d bd 5e 0e 75 3c 78 65 a1 bd
       0.048268367 -0.06892724 0.014957039 -0.07880682
000390 87 da d9 bc a3 ac 52 bd db 7d 82 bc 7d 6b 27 bd
       -0.02659346 -0.05143417 -0.015929153 -0.040873993
0003a0 38 00 5a 3b 44 26 bc 3c 31 6e 2b bd 3a df 36 bd
       0.003326429 0.022967465 -0.041853134 -0.04464648
0003b0 12 ce 8d bd b2 bd a0 bd 15 74 33 bd 10 b0 71 bb
       -0.069240704 -0.078486815 -0.043811876 -0.0036878623
0003c0 45 32 a5 3b c8 a4 0e 3b be 4f 79 3c d4 ba a9 bd
       0.005041393 0.0021765698 0.015216766 -0.08287588
0003d0 36 91 d5 3b 20 42 b6 3b 6b 13 36 bc b1 87 0b bd
       0.0065175546 0.005562082 -0.011113028 -0.034064952
0003e0 a8 b7 9b bd 86 07 04 3d de 21 34 bd 61 87 0a bc
       -0.07603389 0.032233737 -0.04397761 -0.008455128
0003f0 db d2 71 bd 71 12 f4 bc 44 c6 9b bd 0b 03 9f bc
       -0.059038978 -0.02979395 -0.076061755 -0.01941063

network_body._body_endoder.seq_layers.2.weight f4 [256, 256]
000000 3b c9 55 bd 0a 27 18 3e d1 38 13 bb f6 f5 46 be
       -0.05219386 0.14858642 -0.0022464285 -0.19429764
000010 90 08 00 be 4c 1f c2 bd f3 72 0b 3d 35 5d 6b bd
       -0.12503266 -0.09478626 0.03404517 -0.057461936
000020 85 38 9b bc bb f0 e4 bd 5a 3f a9 bd f5 12 b5 3d
       -0.018947849 -0.11178728 -0.082640365 0.088415064
000030 1b a6 8a 3d 71 14 0c be 2d d7 d7 bb c3 34 73 be
       0.06769963 -0.13679673 -0.0065869302 -0.23750596
000040 83 dd 06 be 5d 12 1a 3e 70 ec 2d be 9d ab f3 bd
       -0.13170438 0.15046068 -0.16984725 -0.11897967
000050 09 09 af bd 42 5a 05 bd 33 1c 14 3d 2a 39 44 3b
       -0.08546645 -0.03255678 0.036159705 0.00299413
000060 aa 70 80 be e3 ef db bd 51 26 36 3c b3 c3 d9 3d
       -0.25085956 -0.10739114 0.011117534 0.1063303
000070 d0 74 1a be 3c fe 41 be 8c 27 c7 bd 65 87 42 bd
       -0.15083623 -0.18944639 -0.0972434 -0.047492404
000080 0b e1 c7 bd 72 5a 25 3e 8e ae 4e 3d a1 ef e1 3c
       -0.097597204 0.16147783 0.050459437 0.027580084
000090 d2 07 84 be 19 6f 89 bb ec a6 0f be e6 c1 9b 3d
       -0.25787216 -0.004194152 -0.1402852 0.076053426
0000a0 92 37 b7 bc 9d 72 a1 bc 6b d9 bf 3d b9 6f 62 3c
       -0.022365365 -0.019707972 0.09367641 0.013820582
0000b0 31 d8 5a bc c7 80 4c 3d aa 7c 0a 3d 18 ac 0d be
       -0.013357208 0.0499275 0.033810295 -0.1383518
0000c0 3a a9 21 3d d0 b7 d6 bd 93 01 30 bd dd 6b e1 bb
       0.039468028 -0.10484278 -0.04297025 -0.0068793134
0000d0 83 46 02 3d f6 d3 6a bd ec 5d cd 3c 44 5a ff 3d
       0.031805526 -0.057331048 0.0250692 0.12468389
0000e0 2b cf 24 3e 9a b8 cd bd 07 d9 f6 bc 9e 58 85 bd
       0.16094653 -0.100449756 -0.030132784 -0.06511043
0000f0 ff 33 8b bd 59 6d ad bc 0a 53 fd 3d 17 5e 32 bd
       -0.06797027 -0.021170305 0.12369354 -0.043546762
000100 6c 25 ec bc 8e 67 82 3d 63 9b 5b be b2 60 9b bd
       -0.028826438 0.06367408 -0.21445994 -0.075868025
000110 1e fe 44 be 4a 51 13 be 2f b6 97 3b f9 76 76 be
       -0.19237563 -0.14386478 0.0046298723 -0.24068822
000120 8e e3 af 3d b2 59 04 3e f0 cf 6a 3d 09 47 d0 bd
       0.085883245 0.12924841 0.05732721 -0.10169799
000130 7c b8 c5 3d 4c 8c e8 bd bd 89 10 3d f7 58 37 bc
       0.09654328 -0.113548845 0.035287607 -0.011190644
000140 e1 f7 6d bb e6 c7 b4 3c fc 1b 6c be f2 65 11 bc
       -0.0036311077 0.022067975 -0.2305755 -0.008874403
000150 fb e8 09 be 56 a9 8a bc b9 63 9b bd 65 5d bd 3d
       -0.13467781 -0.016926449 -0.0758738 0.09246329
000160 5b c6 d1 bd 92 d1 6b bd 95 7f 36 bd c1 68 73 bc
       -0.102429114 -0.05757291 -0.044555265 -0.014856518
000170 cc 93 60 3e ad 60 36 bc 6b db ee bc 50 f3 20 be
       0.2193138 -0.011131448 -0.029157361 -0.15717816
000180 15 43 d7 3d 28 89 0c bd bc 4a 6c be de 20 d2 3d
       0.10510842 -0.03431049 -0.23075384 0.10260175
000190 8f dc d9 bb e6 12 9e bd 72 82 55 bd 40 55 ab 3d
       -0.006648607 -0.07718448 -0.052126355 0.083658695
0001a0 fb 5c a0 3c 14 59 dc bd 73 8c 7d 3c 62 0a 62 bd
       0.019575587 -0.10759178 0.01547538 -0.055185683
0001b0 4b dd d8 3d 11 4d a4 bc f9 4a 85 bd 91 93 2d be
       0.10589083 -0.02005628 -0.065084405 -0.16950823
0001c0 5d b2 06 3e 05 94 ee 3a c8 69 88 bd 1a 55 bb bd
       0.13153978 0.0018202072 -0.06660801 -0.09147091
0001d0 74 10 29 3e 2f b4 80 3c 88 46 50 be 4f 55 ef 3d
       0.16510183 0.015710918 -0.20339406 0.11686193
0001e0 f9 5f 23 bc 9d ac 05 be a5 90 cc 3d 92 48 b2 3e
       -0.009971612 -0.13054128 0.09988526 0.34820992
0001f0 0f 66 80 3d 03 bf 2e bc f9 c6 f5 bd 0e 38 3f bd
       0.06269466 -0.010665658 -0.12000842 -0.046684317
000200 dd ea b6 bb c9 6d 2a be 08 81 c3 bd f8 5e 0f 3e
       -0.005582197 -0.16643442 -0.09546095 0.14001071
000210 4b 40 9c bc 6a a6 55 bd 1d e5 4a bd 4f c5 c9 bc
       -0.019073626 -0.052160658 -0.049534906 -0.024630217
000220 2b d9 f2 bb ab 50 b1 bd ca 53 84 3d 3f 11 e4 bd
       -0.0074111423 -0.08657964 0.06461294 -0.11136102
000230 70 38 86 3d 4f 38 99 3d 53 26 56 3d d3 98 c8 bd
       0.06553733 0.07481443 0.052282643 -0.09794774
000240 9e 35 e0 3d 9f 9f 28 be 47 87 10 bd 67 96 ce bd
       0.10947727 -0.1646714 -0.03528526 -0.10087281
000250 3a 0b ae 3d 18 76 01 3e 9f c6 54 bb 23 02 0e 3e
       0.08498235 0.12642705 -0.003246702 0.13868003
000260 d9 7b e9 bc 33 8d c9 bc b3 cb 53 bd 17 23 a5 3d
       -0.028501438 -0.024603462 -0.051707935 0.080633335
000270 eb 6b 95 bd 4a 6d 09 be c7 14 09 be b1 74 63 bd
       -0.07295974 -0.13420597 -0.13386832 -0.055531207
000280 0d 2e 6a 3d 5d 90 b2 bc 22 c9 b7 bb b0 97 bf bb
       0.057172824 -0.021797353 -0.0056086937 -0.00584694
000290 c2 74 90 3d ca f1 34 bd e2 05 4f bd b6 6a 1b bd
       0.0705352 -0.0441759 -0.05054272 -0.037943564
0002a0 dc 64 d3 3c 3a ea cb 3d 04 9a 36 3e 24 6f e8 3c
       0.02580493 0.099567845 0.1783219 0.028373308
0002b0 ee 27 a8 bd c0 ce b0 3d c7 2c 02 bd 43 29 d0 bc
       -0.08210741 0.086331844 -0.031780984 -0.0254103
0002c0 2b de 92 3d f3 1b 5c 3d 14 9a 66 be 80 5b 4e bd
       0.071712814 0.053737592 -0.22519714 -0.05038023
0002d0 ca 10 1a be c6 b4 2a 3d fb 7e bf bd c7 30 76 3d
       -0.15045467 0.041676305 -0.093503915 0.06010511
0002e0 49 51 18 be d3 3b da 3d de 05 e1 bd 2e 05 0f bd
       -0.14874758 0.10655942 -0.10987447 -0.03491705
0002f0 d2 6a 37 be e6 02 8a bd 1d 14 2f 3c 30 2d 59 be
       -0.17911842 -0.06738834 0.010685948 -0.21208644
000300 46 ac 2f bd 9e 81 e4 bb 07 fe 9f bc b7 83 24 bd
       -0.042888902 -0.0069734594 -0.01953031 -0.040164676
000310 46 b6 0c 3b c9 39 dd bd b4 20 8c bd 0e 5d 0e bc
       0.0021470948 -0.10802037 -0.06842175 -0.008689178
000320 c1 cd d8 bd 23 dc 46 bc 39 7c cb bd 21 a2 a7 bc
       -0.105861194 -0.012137446 -0.09935803 -0.020463051
000330 99 52 7c 3c 89 51 0b be 34 ab d1 bd 6f 68 10 be
       0.015400552 -0.13605322 -0.102377325 -0.14102338
000340 76 f8 63 be 4a 36 06 3c f6 4d db bd 9a bf e4 bd
       -0.22262749 0.008191654 -0.10708229 -0.111693576
000350 ce 28 06 be 61 c3 c4 bd 48 26 a2 3d 2d 96 85 bd
       -0.13101503 -0.09607578 0.07917458 -0.065227844
000360 5d 92 61 be 92 56 b0 3b 2c 41 33 be 6f 2e d4 3d
       -0.2202849 0.0053814137 -0.1750533 0.10360419
000370 bd 0c f6 bd 22 69 86 3a ff 07 15 3e 5a 1c e2 3d
       -0.120141484 0.0010254721 0.14553832 0.11040564
000380 62 5e 4a 3e 62 14 c1 bc eb d0 05 be 79 d0 04 3e
       0.19762567 -0.02356929 -0.13067977 0.12970151
000390 77 c4 01 3e 4e 35 cf 3d e2 b4 5d be 58 a7 9e bd
       0.12672602 0.10117589 -0.21651033 -0.07746762
0003a0 e1 37 01 be 5b 03 1f be cc 05 86 bd 06 8c da 3d
       -0.12618972 -0.15528624 -0.065440744 0.106712386
0003b0 e8 51 8a bc 0a 4e e1 bd 91 9e 94 bd 3f 95 0e 3e
       -0.016884759 -0.11001213 -0.07256807 0.1392412
0003c0 7b 35 05 bd 31 c6 1b 3e c5 fc ce 3c 1e 69 06 3d
       -0.032521706 0.15212323 0.025267014 0.03281509
0003d0 63 af 16 be 3f 46 d3 3d 2d 53 f0 3d b2 ff 4b bc
       -0.14715342 0.10316133 0.117346145 -0.012451099
0003e0 ce cd f6 3b 70 a8 dd bc 6d 4b b3 bd 7b 50 52 bd
       0.007531858 -0.027057856 -0.08754621 -0.051346283
0003f0 61 e9 f1 bc 0e e6 b9 bd c2 17 5a be ff da 24 be
       -0.029530229 -0.090770826 -0.21298125 -0.16099165

network_body._body_endoder.seq_layers.2.bias f4 [256]
000000 05 b7 3a 3c b2 50 dd bc 73 9d f4 3c 35 21 aa bc
       0.011396174 -0.027016018 0.029860234 -0.020767787
000010 80 60 86 bc 91 97 98 3c 21 3b 7e bc 10 c2 e9 3c
       -0.016403437 0.01862696 -0.015517027 0.028534919
000020 2b 7b 7f bd d0 60 36 bd 84 c5 1c bd 29 6d 9d bd
       -0.06237332 -0.04452592 -0.038274303 -0.07686836
000030 49 55 e6 3c 5e 42 0b bd 1c 1c be bd 37 96 ad bd
       0.028116839 -0.03399884 -0.09282705 -0.08475917
000040 26 62 bc bc 2d c8 e1 bc e1 83 5f bd ee 74 41 3c
       -0.02299602 -0.027561272 -0.05456913 0.011807663
000050 1d 68 48 bc af 6f 2c bd 13 4d 07 3d 41 54 c5 bb
       -0.012231854 -0.042098697 0.033032488 -0.0060220067
000060 a0 07 95 bd 8e f3 2b bd 74 7a 85 3c d5 4a 16 bc
       -0.07276845 -0.04198032 0.016293742 -0.009173115
000070 9f 14 5a bd e1 e5 16 bd a8 90 d9 bc 9c 52 a1 3c
       -0.053242322 -0.036840323 -0.026558235 0.019692712
000080 04 0e 1d bd 44 6c 7f bc 30 b9 c1 bb 35 b8 27 bd
       -0.038343444 -0.015589777 -0.0059119686 -0.040947158
000090 37 25 49 3b 8b 94 ac 3c 9a 68 b0 bc a3 f2 92 3c
       0.0030692348 0.021066925 -0.021534253 0.017937964
0000a0 95 08 98 bd c3 8b 06 3a 6e 4b 75 3c df 15 00 3c
       -0.07423512 0.00051325205 0.014971597 0.0078177145
0000b0 6c 6a 52 bd 5e 13 8e bc 05 7c b7 3c 10 d4 98 bd
       -0.051371023 -0.01734322 0.022398004 -0.07462323
0000c0 72 e7 c2 bc 58 ac 8b bd 81 a0 1f bc e8 e8 25 bc
       -0.023792002 -0.06819981 -0.009742857 -0.01012633
0000d0 76 bd 25 3d e6 40 79 bc 3e 01 a3 bc 47 c5 cf bd
       0.040463887 -0.015213227 -0.019898053 -0.101450495
0000e0 8f f8 a9 bd 2b 52 26 3a 6c 2b 63 bc 86 4c c2 bd
       -0.08299362 0.00063446414 -0.013865333 -0.09487252
0000f0 43 80 5d bc db 4a 7e bd 72 d2 ca 3b 5e 03 6d 3d
       -0.0135193495 -0.062083106 0.006189638 0.05786454
000100 10 8b 17 bd 20 91 2f bc 51 79 9f bd 46 35 8b bc
       -0.036997855 -0.010715753 -0.07786811 -0.016993176
000110 72 24 19 bd fe fd 0e 3c c3 9f f6 bc 30 00 8e 3c
       -0.037388273 0.008727549 -0.030105477 0.017334074
000120 37 a3 bb bb ab c0 41 bd 78 35 ac bd 5f dd ad 3c
       -0.005726244 -0.047302883 -0.08408636 0.021223722
000130 8b b4 7b bd a0 39 0a bd c0 2c c4 bc de b5 1e bd
       -0.061451476 -0.03374636 -0.02394712 -0.03874766
000140 e3 a7 19 3c 8b ff 4b 3c 98 67 6a 3c 90 9a f1 bc
       0.009378406 0.012451063 0.014306925 -0.029492646
000150 44 c6 96 bc dd 94 78 bd 71 de a8 bd 03 98 55 bc
       -0.018405087 -0.060688842 -0.08245552 -0.013036731
000160 e4 c3 33 3d 70 e6 27 bc 6b f8 a8 bd 33 fa 4c bc
       0.043887988 -0.010247812 -0.08250507 -0.012510824
000170 df 76 36 bc c2 9e 3e bd 3b a1 1e bd 31 d2 f4 3c
       -0.0111367395 -0.046538122 -0.03872798 0.029885383
000180 33 19 bc 3a b6 c8 89 bd 1e f9 90 bd 93 8c 93 bb
       0.0014350772 -0.06727736 -0.07078765 -0.0045028417
000190 cd a0 28 bd 60 81 07 bd 1a fa bb bc 23 dd bd 3b
       -0.041168977 -0.033082366 -0.022946406 0.005794184
0001a0 e2 11 c4 3b 44 1d d0 bb 26 86 19 bd fd f8 47 bc
       0.005983577 -0.006351145 -0.03748145 -0.0122053595
0001b0 aa 81 13 bc 5d 46 db bd 7e 9b ba bd e6 e6 39 bd
       -0.009003082 -0.1070678 -0.09111689 -0.045386218
0001c0 16 c0 9f bd f5 6f 05 bd 77 9c 0c 3d 07 07 1c 3d
       -0.07800309 -0.032577474 0.034328904 0.03809264
0001d0 9d 1b 3d bd 7d 84 c7 3c 12 b4 67 bd 16 03 61 bd
       -0.046168912 0.024355168 -0.056568213 -0.054934584
0001e0 8f 6f 31 bd a8 0a 19 3d be db b6 bd a7 1e 27 bd
       -0.04331928 0.03736368 -0.08928631 -0.040800717
0001f0 8b a2 47 3c 54 4d 61 bd c8 0e 2b bc 33 76 11 3b
       0.012184749 -0.055005386 -0.010440536 0.0022195696
000200 e1 2c 11 bd 28 56 b5 bc ee 7e 05 3b fe 64 72 bc
       -0.03544319 -0.022135809 0.0020369845 -0.014794586
000210 27 bb ac bc ed 11 80 3a 83 2b 46 3d b3 18 6a bd
       -0.021085335 0.0009770967 0.04838134 -0.05715246
000220 7f e4 91 bd b2 81 f3 bc 15 d1 a9 bd be 32 8d 3c
       -0.0712366 -0.02972493 -0.08291832 0.01723611
000230 44 15 72 bd 5c 83 d1 bb 5d 1a 33 3a d2 58 37 bd
       -0.05910231 -0.006393833 0.00068322365 -0.04476244
000240 32 f8 cf bc 31 82 d2 bc 99 be 86 bd 65 0c 06 bd
       -0.025386903 -0.025696846 -0.06579322 -0.032726664
000250 bc e8 e3 bb 8a dc 5c bc a5 8c 30 bd b4 61 f6 bc
       -0.0069552343 -0.013480315 -0.04310288 -0.030075885
000260 a0 58 eb ba d0 2f c7 bd fb 0f 2b bd 17 5e 7b bd
       -0.001795549 -0.097259164 -0.041763287 -0.061369028
000270 72 67 35 bd ab 03 4c bb 96 30 f4 bc 61 14 ab bb
       -0.044288106 -0.0031130116 -0.029808324 -0.005220935
000280 26 8e b5 bd a0 55 51 bd 98 f7 a1 3c ec d2 d4 bc
       -0.08865003 -0.05110705 0.019771382 -0.025979482
000290 0c 49 d6 bc 94 f2 1e bd 2a 98 71 bd 3e fd ad bd
       -0.026157878 -0.03880556 -0.058983006 -0.08495568
0002a0 9d 7e c5 3b 24 9a 51 bb 8c 5c 72 bd 34 27 98 3b
       0.0060270564 -0.0031982744 -0.05917029 0.0046433453
0002b0 06 c2 e5 bc d5 1e 30 3c 72 37 2d bd fe f8 79 bd
       -0.02804662 0.010749538 -0.042289205 -0.061028473
0002c0 ee e8 77 bd 74 56 c9 3c c1 df 17 bd 39 80 b6 bd
       -0.060524873 0.024577357 -0.037078623 -0.08911175
0002d0 0e fe ab 3a fc 76 95 bd a7 10 86 bd ea 29 35 bd
       0.0013121979 -0.07298085 -0.06546145 -0.044229425
0002e0 e5 cc 9e bb 81 f5 18 bd 17 68 7d bc 16 1d 91 bc
       -0.0048462027 -0.037343506 -0.0154667115 -0.017714065
0002f0 99 98 6b bd d3 ac 3c 3c 59 5e 3c bd e1 5b 69 bd
       -0.057518575 0.011515814 -0.045988414 -0.05697239
000300 54 84 9a bd 8c e5 24 bd 9b cb 9a bd 03 54 bb bd
       -0.07544771 -0.040257975 -0.07558366 -0.09146883
000310 e9 ba c9 bd b5 ae 4f bd 18 2a 25 3d 00 d5 3d bd
       -0.098501034 -0.050703723 0.040323347 -0.04634571
000320 89 8a a1 3b fb cd 8c bd 36 36 f2 bc 91 8c 8f 3b
       0.0049298448 -0.06875225 -0.029566865 0.0043807705
000330 63 d4 9e bc a5 82 79 bd 70 63 d0 bd 30 25 fc bc
       -0.019388383 -0.060915608 -0.10175216 -0.030779451
000340 2d d2 55 bc 38 d8 4c bc 4f 99 1c bc 1d da 8a bc
       -0.013050598 -0.012502722 -0.009558036 -0.016949708
000350 23 f8 b1 bc 0c 66 a5 bd d0 29 11 be 92 a2 94 bd
       -0.021724766 -0.080761045 -0.14176106 -0.0725757
000360 e6 6c ab bd b3 95 1f bd 78 b2 06 3d c9 81 90 bc
       -0.0837038 -0.038961124 0.032885045 -0.017640011
000370 12 ac 85 bc 52 dd e6 bc c7 25 0d bd 36 93 3e bc
       -0.016317401 -0.028181706 -0.034459855 -0.0116317775
000380 0e 03 0b 3d 9f b6 e5 bb 56 5d e5 bc f5 06 8c bd
       0.03393846 -0.0070102955 -0.027998608 -0.068372644
000390 10 78 03 3b c7 a1 62 3c 01 62 2d bd c9 9d ab 3c
       0.0020060576 0.013832516 -0.042329792 0.020949261
0003a0 a3 5f 16 bd bb 13 5b bd d7 ee 97 bb 58 68 e6 bb
       -0.0367123 -0.053485613 -0.004636626 -0.0070314817
0003b0 0c 4a 9d bc a5 df 15 bd 27 32 ec bc 16 45 ad bd
       -0.019200347 -0.036590237 -0.028832508 -0.08460443
0003c0 da 1b bf bc 7b 13 f3 bc 23 e7 52 bc f9 05 de bc
       -0.02332871 -0.029672375 -0.01287249 -0.027102457
0003d0 a6 49 b2 3c 09 26 91 b9 30 98 39 3d e9 4b 0e bd
       0.021763634 -0.00027684894 0.045311153 -0.034740362
0003e0 fa 5d 59 bd 90 d7 80 bd 61 9c 64 3c ab 8b e0 bb
       -0.05306814 -0.06291115 0.013953299 -0.006852587
0003f0 18 e9 d9 3c a9 2f 95 bc bf 32 83 bd f8 c0 b9 bb
       0.026600406 -0.018211203 -0.064061634 -0.0056687556

action_model._discrete_distribution.branches.0.weight f4 [3, 256]
000000 c3 4e e8 bd 28 ac 26 3d 66 10 87 3d 35 08 13 3d
       -0.113431476 0.040691525 0.06594925 0.0358965
000010 02 2c 41 3d ce 6a a4 3c 4b b3 6b 3b 2d 81 16 3d
       0.04716111 0.02007046 0.0035965021 0.036744285
000020 83 99 6e 3d 67 23 86 3d 27 a1 92 bc d9 dd 00 be
       0.05825187 0.06549721 -0.017899109 -0.12584628
000030 dc 4a e0 bd fc 08 a9 3d 45 a5 af 3c b3 8d b5 3d
       -0.10951778 0.08253667 0.021441111 0.088649176
000040 f6 b6 8b 3d 37 49 04 bc 19 9c cb 3c dd 19 82 3d
       0.068220064 -0.008074096 0.024854707 0.06352589
000050 6c 08 55 3c bc 47 52 3c 95 99 d4 3d 26 bd 06 bd
       0.013002496 0.012834486 0.10380856 -0.03289523
000060 bd 2a 38 bc 17 3c 52 3c b1 ed 2a 3b 25 ed ac 3c
       -0.011240658 0.012831709 0.0026081617 0.021109173
000070 7d b7 0b bc 4b 1c bf 3c e3 c4 65 3d a9 8c cd 3c
       -0.008527634 0.02332892 0.05609597 0.025091486
000080 e7 82 a4 bd 6b d1 86 3b bb 73 00 bc 94 f7 5b 3d
       -0.0803278 0.00411432 -0.007840092 0.053702906
000090 3f 75 59 bc 7a c2 0a 3d f8 b8 15 bc 87 f0 db bc
       -0.013272583 0.033876874 -0.009138338 -0.02684809
0000a0 81 15 a0 bb cc 48 87 3c 4b 91 66 3b 34 e1 3f bd
       -0.004885376 0.016514204 0.0035181816 -0.04684563
0000b0 95 66 9c bd 66 c8 64 3d 3e 75 18 bc 58 99 8c bd
       -0.076367535 0.055855177 -0.0093052965 -0.068651855
0000c0 e1 4d 89 bc 9e 59 54 3d ed 88 e9 3c f3 56 88 bd
       -0.016760768 0.051843278 0.028507674 -0.06657209
0000d0 73 90 9a 3b 83 a6 e3 3b e8 28 8c 3d f6 a2 c5 3c
       0.0047169267 0.00694734 0.0684374 0.024125557
0000e0 ff 4d b4 3c fa 65 93 bd 91 8c 68 3c e5 6f 60 bb
       0.022009848 -0.07197185 0.01419367 -0.0034246382
0000f0 60 c2 52 bd ff 42 7f bd 88 ef 46 3c 68 93 ab 3d
       -0.0514549 -0.06231975 0.01214207 0.08377725
000100 73 b5 93 bc e7 01 45 bd 41 6d d1 3a 1c 08 1a bc
       -0.018030858 -0.048097517 0.0015977995 -0.0094013475
000110 b7 9d 04 3d 86 e5 99 3c b0 e2 08 3c f7 52 ae 3d
       0.03237697 0.018786203 0.008354828 0.08511918
000120 7c 32 01 bd 06 ce 55 bd 91 3f ac 3b bc 1d d2 bc
       -0.031542286 -0.052198432 0.005256601 -0.025648944
000130 1c bc aa bc 13 e1 c7 3c 5a ff 44 3d 84 f1 7c 3d
       -0.02084165 0.024399316 0.048095085 0.061753765
000140 b3 72 90 3d d6 e5 8a bc 9c 64 1c 3d 0d 42 a7 3c
       0.07053127 -0.016955297 0.038181886 0.020417238
000150 b5 4b 68 bc fb b9 80 3c 19 06 33 3a 4b 45 e2 3d
       -0.014178206 0.015713682 0.0006829217 0.11048373
000160 5e 4a 30 bd f7 88 b3 3d c3 8a 83 bc d6 b5 51 3d
       -0.043039672 0.08766358 -0.016057378 0.051198803
000170 5a f5 02 3b 9c 34 ce 3c 31 89 1b bc 1e ba 02 3c
       0.0019982667 0.02517157 -0.009493158 0.007978944
000180 6b 8f ef bd 26 c7 84 bd af cc 65 3d 7c ca 1d 3d
       -0.11697277 -0.06483297 0.056103405 0.038523182
000190 da 56 4f bd 5e ad 3e 3d 35 24 2c 3d 9f d0 e8 bc
       -0.050619937 0.046552055 0.042026717 -0.02841979
0001a0 4f d9 db bc 6f df da 3c 25 bb 66 3d 70 c3 64 bb
       -0.02683702 0.02671787 0.05633082 -0.003490653
0001b0 54 2d 57 3d 34 34 8e 3c ab b4 da bc d7 e6 9d bd
       0.052533463 0.017358877 -0.026697477 -0.07710045
0001c0 e8 f3 21 bc a4 fb bd bd a8 49 86 3c 71 61 2a 3e
       -0.009884812 -0.09276512 0.016392544 0.16638733
0001d0 ea 8d 36 3d 69 ae 06 be 36 9a a5 3c 64 2a 80 bd
       0.044568934 -0.1315247 0.020215135 -0.06258085
0001e0 41 e0 0e bd 9e 82 41 3d 28 84 66 bd 0b 36 28 bd
       -0.034881834 0.047243707 -0.056278378 -0.041067164
0001f0 e6 50 1b 3d 6a 89 ae 3c 11 36 6b 3d 7f 5b 9a bb
       0.037918948 0.021305759 0.05742461 -0.004710614
000200 ae ba 3d 3c c9 a4 11 3d 30 dd 10 3c 08 0f b5 3c
       0.011580152 0.035557542 0.008841798 0.022101894
000210 f8 18 12 bd 7c 19 21 bd b4 39 c1 3c 74 81 38 bd
       -0.035668343 -0.039330944 0.023587085 -0.04504533
000220 f2 c1 03 bd a4 80 36 bd 83 cc 2c bd d3 35 18 bd
       -0.032167383 -0.044556275 -0.042187225 -0.037160706
000230 35 59 ff bc e3 91 8c 3d 59 d5 08 be aa 55 8d 3d
       -0.031170467 0.06863763 -0.13362636 0.06901105
000240 84 7d f2 3c 27 a2 a4 3c c8 df 87 3d 91 ca a7 3d
       0.029600866 0.020096852 0.0663448 0.08192933
000250 41 49 a8 bc 28 3f 70 bd 1f 35 98 bd da 83 a2 bc
       -0.020542743 -0.05865398 -0.07432007 -0.019838262
000260 aa 27 29 bd 52 e6 45 bc da 09 6c bc fe 74 be 3d
       -0.041297592 -0.012078838 -0.014406646 0.09299658
000270 4e f4 33 bd ce e7 ce bd 6a ec ed 3c 60 cb bc 3d
       -0.04393416 -0.10102807 0.029043395 0.09218478
000280 54 1f 9b bd 54 42 d3 3a fd 27 d2 bc 3c 80 43 3d
       -0.07574335 0.001611779 -0.025653834 0.047729716
000290 bd 51 39 bd 52 c9 8f bd 4d 53 7f 3c b8 28 a7 bd
       -0.045243967 -0.07020821 0.015583825 -0.08162063
0002a0 37 01 eb bd 3f 54 d5 bd c1 58 15 3c 2f 9f 65 bb
       -0.11474841 -0.10416459 0.009115399 -0.0035037508
0002b0 7b e7 6a 3b f9 e3 44 bd 34 c8 c2 bd 04 15 ec 3c
       0.003584354 -0.048068974 -0.09510842 0.028818615
0002c0 e9 b8 16 3d 54 df fc 3b 15 f5 12 bd 04 30 13 3d
       0.036797438 0.0077170525 -0.03587826 0.035934463
0002d0 83 e0 61 3c 92 56 03 bd 81 93 80 3d a9 62 eb 3b
       0.013786438 -0.03206498 0.06278134 0.007183392
0002e0 f8 bf a4 bc 2c 9d 5e bd c5 0f 10 bd be 18 cc bc
       -0.02011107 -0.05434911 -0.03517129 -0.024914142
0002f0 86 c0 1d 3d 57 ee 86 bd 5f 5e 65 3d 2e 23 56 bc
       0.038513683 -0.065884285 0.055998202 -0.013069911
000300 b9 64 9b 3c 11 46 75 bd 01 f3 b1 bd 3f d7 c3 3b
       0.018968927 -0.059881274 -0.086889274 0.005976587
000310 27 d2 ff 3c 3f a2 1a bd dc 37 75 bd 90 96 10 bd
       0.031228138 -0.037752386 -0.059867725 -0.035299838
000320 57 b7 3c bd bf be 0a 3d af c1 32 3d 44 81 fc 3c
       -0.046073284 0.033873316 0.043641742 0.030823357
000330 6c c2 63 3d e5 e0 fa bb 87 ef 1c bd dd b2 84 3d
       0.055605337 -0.007656204 -0.03831437 0.06479428
000340 a6 f7 c3 3c bc c9 d9 3c 56 f4 ed 3c 74 43 58 bd
       0.023921799 0.026585452 0.029047173 -0.052798703
000350 1d ce 96 3b 1e 65 15 bd a7 0e 85 3c 86 a7 e4 bc
       0.0046022073 -0.036473386 0.016242338 -0.027911913
000360 35 ef 0a 3c f6 d5 e9 3c 20 06 4f bd 10 0b 63 bb
       0.008479883 0.028544407 -0.05054295 -0.0034644045
000370 16 96 e6 3c 3d d5 81 bd 11 cb b7 bd 27 2e b8 bc
       0.028147738 -0.063395 -0.08974279 -0.022482945
000380 40 d0 14 bd ca bd f2 bc 7b 2c d5 bd 8a 23 e1 3c
       -0.036331415 -0.029631514 -0.104088746 0.027482767
000390 9f 03 7b bd 4b 4d 86 3d f9 46 dc bd 73 6c 98 3d
       -0.06128275 0.06557711 -0.107557245 0.0744256
0003a0 fd d5 84 3d 82 be 74 bc a8 53 00 3c 16 b4 b6 3d
       0.064861275 -0.014937999 0.007832445 0.089210674
0003b0 7f 17 4c bd c8 93 f0 bb 97 b0 8e bc 66 c3 27 3d
       -0.049827095 -0.0073418356 -0.017418189 0.04095783
0003c0 7f 5a cc 3c 87 18 f4 bb 64 b3 9e 3d 7a ae d5 bc
       0.024945496 -0.007449213 0.0774906 -0.026084173
0003d0 00 09 c3 38 99 4c f7 bb 04 64 aa bc d6 75 4d bb
       9.300001e-05 -0.007546973 -0.020799644 -0.0031350753
0003e0 1e eb 8d 3d 8e 8b 48 bc 18 4d 15 bd 61 32 8d bb
       0.06929611 -0.012240304 -0.036450475 -0.004308984
0003f0 ba 67 00 3d b3 ba 72 3b 01 f4 44 3d 2c 51 0c bd
       0.03134892 0.003703755 0.048084263 -0.0342571

action_model._discrete_distribution.branches.0.bias f4 [3]
000000 55 8d 30 bd 8e fb 27 3d fd ba cf bb
       -0.043103535 0.041011386 -0.0063394294

action_model._discrete_distribution.branches.1.weight f4 [3, 256]
000000 d5 e7 29 bd 9d dd 96 bd 9f 8a d7 3b fe d4 0d bc
       -0.041480858 -0.07366488 0.006577804 -0.008656738
000010 a9 3b 8e 3d 10 7c a6 3d 7c 78 7f 3d 69 b4 28 bc
       0.06944973 0.08129132 0.062370762 -0.010296919
000020 b7 22 fe bc bb 31 03 3d 8b 85 54 bd 22 bd 6f bd
       -0.031022413 0.03202985 -0.05188517 -0.05852998
000030 37 75 de 3c f5 de 38 3c c5 ff 57 bc 77 48 79 bc
       0.027155502 0.011283626 -0.013183539 -0.015215031
000040 64 ce 80 bd 53 47 fa bc c5 48 93 bc 99 08 eb 3c
       -0.06289366 -0.030551588 -0.017979035 0.028690623
000050 bd 8b 09 3d 59 4c 8d 3b eb 35 ad 3d a6 a0 26 bd
       0.03358053 0.00431208 0.0845755 -0.04068055
000060 2a 68 0b bd b8 99 0e bc 81 3c 5b 3d c8 de 0e bd
       -0.034034885 -0.008703642 0.053524498 -0.03488043
000070 3e 94 94 bd 88 a4 84 bc 93 7c 15 3d 57 68 2b 3d
       -0.072548375 -0.016191736 0.036495756 0.041847553
000080 f1 4b 47 bd 9e d4 47 bb 35 bb b1 bd 1f 1b 9b 3d
       -0.048656408 -0.003049172 -0.08678285 0.07573532
000090 6c 47 4f 3d 3f b4 12 3e b0 fe 85 3c 59 23 d2 3c
       0.050605223 0.14326571 0.016356796 0.02565162
0000a0 1d 54 d1 bc 93 51 b4 bc 06 a3 2f bd ba a9 46 bd
       -0.025552804 -0.022011554 -0.04288008 -0.048501708
0000b0 e6 59 e5 bb f9 1d 1d bd 24 1f 71 bb 57 47 8d bd
       -0.006999242 -0.038358662 -0.0036792243 -0.068983726
0000c0 25 8d 00 bd 29 9f 1b 39 cc c2 8c bd a9 d2 a7 bc
       -0.031384606 0.00014841244 -0.06873092 -0.020486193
0000d0 a3 98 a8 3c 71 ee 96 3a fc 20 dc 3b 6a 25 47 bd
       0.020580595 0.0011515153 0.006717799 -0.048619665
0000e0 4d 6b 09 bd 7c 46 0d bc 5a 32 31 3c 2e 21 84 bd
       -0.033549596 -0.008622762 0.010815227 -0.06451641
0000f0 ab 7c e1 3d 35 69 86 bd 0c e0 80 bc 06 1c 39 3c
       0.11010107 -0.065630354 -0.015731834 0.011298185
000100 c3 51 3c bd 63 a3 de 3c 06 61 d1 bb 32 81 91 38
       -0.04597641 0.027177518 -0.00638974 6.938203e-05
000110 61 85 b7 3b d2 10 2e bd 04 c5 ae bc 27 8e 39 3c
       0.005600617 -0.04249651 -0.021334179 0.011325396
000120 ca 4c de 3c af 4d 04 bc 48 a7 7c 3c 15 58 e7 bb
       0.027136225 -0.008075162 0.015420742 -0.0070600607
000130 a6 a4 2a bd f4 b5 c7 3c 60 09 c7 3c 73 d6 ab 3d
       -0.041660927 0.024378754 0.024296463 0.08390512
000140 ab 0c 4a bd 1b 38 0e 3d 02 a1 f8 bb 90 9e 30 bd
       -0.049328487 0.034721475 -0.007587553 -0.043119967
000150 76 89 f0 3c a2 0c 8d 3d 57 8e 1f bc 70 b4 b8 3c
       0.029362421 0.06887175 -0.009738526 0.022546977
000160 8e 35 28 bd c2 53 dc bc de d2 5b bd 9c 5f 96 bc
       -0.0410667 -0.026895408 -0.053667895 -0.018356137
000170 f1 84 2d 3d ff 5e de bc d6 ce be bd 33 0b 4b 3d
       0.04236311 -0.027144907 -0.093167946 0.049571227
000180 a5 ea 9a 3c 6c 5c d4 bd 9a 5d 33 bd 15 46 8f bd
       0.018910715 -0.103691906 -0.043790437 -0.06995789
000190 1c 7a 96 bc 6c ba 6a 3d 44 55 09 bd 26 6e ad bc
       -0.018368773 0.057306692 -0.03352858 -0.021170687
0001a0 0f 6c 0f 3d 83 c7 9f 3d 75 6d 97 bd fc f9 87 3d
       0.035015162 0.07801726 -0.07393924 0.066394776
0001b0 7e 85 19 3d 6f ac d4 3c df 8c 32 bd a4 07 d1 bc
       0.037480824 0.025961129 -0.043591376 -0.025516339
0001c0 9a 89 cd bd 8a de 3e bd 17 2b 9e 3d 6f 94 97 3d
       -0.10036011 -0.04659895 0.077230625 0.07401358
0001d0 a5 99 47 3d 5c ce 89 3d 04 d7 d2 3c 0e 92 3e 3d
       0.04873051 0.06728813 0.025737293 0.046526007
0001e0 d1 57 bd bd 1c 52 7d 3a 89 df cd bc 9a 13 be bb
       -0.09245265 0.00096634193 -0.025131004 -0.0058006765
0001f0 91 bb bf 3c cc 1b 13 bd cf 29 48 3d ce 7a 19 3e
       0.023404868 -0.03591518 0.048867997 0.14988253
000200 c5 04 c2 bb 82 d2 88 bd 92 a3 1d 3c b6 ab 86 3d
       -0.0059209787 -0.06680776 0.009621518 0.0657572
000210 b0 9f 1d bd 13 b5 01 bd 69 e2 b5 3d e4 0a ee bd
       -0.038482368 -0.031666826 0.08881075 -0.11623171
000220 c0 51 55 bd 86 00 d0 bc 01 7a b5 ba bf b8 48 bd
       -0.052079916 -0.025390875 -0.0013845564 -0.049004313
000230 13 14 c2 bb d5 c0 bb bc 41 86 1a bd 3e 95 eb 3b
       -0.005922803 -0.022919098 -0.03772569 0.007189422
000240 74 28 10 3c fd 5e 82 bc d0 ce 3b bc ef 2e 0b bd
       0.008798707 -0.015914435 -0.011462882 -0.033980306
000250 b6 d2 90 3c 2a 9a 67 3d 51 6b a1 bd 27 7b b0 3c
       0.0176786 0.056543507 -0.07881797 0.021543099
000260 27 c2 a6 bc 2a d0 cb bd 72 d5 cb 3c f0 86 38 bd
       -0.02035625 -0.099518135 0.024882052 -0.04505056
000270 a3 b5 97 bc fe 1e e5 3b 94 7a c1 3d 02 d6 b1 3c
       -0.018519228 0.00699222 0.09447208 0.021708492
000280 e8 c9 95 bc 41 d2 67 bd b3 64 6b bc c9 1a 81 ba
       -0.018284753 -0.056596998 -0.01436727 -0.0009849902
000290 89 5c 0e bc 8d 64 c0 bb f8 b4 88 bd ac 7f 95 bb
       -0.008689054 -0.0058713616 -0.06675142 -0.004562339
0002a0 17 9e 10 3d 9e c8 56 bc 3f 2c f0 39 a1 72 b4 bc
       0.035307016 -0.013109354 0.00045809333 -0.022027316
0002b0 da aa 05 3d 6b 56 9f 3c 42 74 5f 3d 41 cb d5 3c
       0.03263364 0.019450387 0.05455423 0.026097896
0002c0 00 f2 47 bd 2c 8c 3c 3b 4e da 3f 3b dd 6c 29 3d
       -0.048814774 0.0028770072 0.0029274407 0.041363586
0002d0 03 31 7d 3d ff bd 41 3b 72 6a da bd cb b4 9d bd
       0.06181432 0.002956271 -0.10664834 -0.07700499
0002e0 5e ba c6 bc 34 7f f2 3c d4 d7 19 3a 2c 3d 60 3c
       -0.024258789 0.02960167 0.0005868648 0.0136864595
0002f0 b8 ae db bc 5f 61 05 bd c0 6f 92 bc 28 9f 9c bc
       -0.02681671 -0.032563563 -0.017875552 -0.01911886
000300 27 dc 75 3d e0 65 bc bd 0d 09 8b bd 78 0c 83 bd
       0.060024407 -0.091991186 -0.06788836 -0.063988626
000310 52 59 57 bc 39 10 e7 bb 74 0a 82 3d 4b 08 d8 bc
       -0.013143854 -0.0070514944 0.0634965 -0.026371142
000320 63 5e e4 bc 31 99 56 bd 61 ba b2 bb 73 ec 5f 3d
       -0.027877038 -0.05239219 -0.005454347 0.054668855
000330 75 24 65 bc 40 60 6a bc 75 79 a3 bd fd 85 64 3d
       -0.013985743 -0.014305174 -0.079821505 0.055791844
000340 c7 e4 67 bd 5b a9 e0 bc d9 94 51 3d 02 91 ca bd
       -0.056614663 -0.027424505 0.051167343 -0.09890939
000350 fc 90 bf bd ee ba fd bc df a3 17 bd 24 c6 32 bd
       -0.093538254 -0.030972924 -0.037021514 -0.043645993
000360 89 2c 4f bd 51 d5 3a bd b7 59 09 3d 6e ca 72 3d
       -0.05057958 -0.04561359 0.033532824 0.059275083
000370 36 e8 2b 3d f6 ef 73 3d 46 97 80 bd 7b b9 59 3c
       0.0419695 0.059555016 -0.06278853 0.013288851
000380 57 bb ee 3d 26 45 d1 3d d7 11 d4 3b 00 a6 a4 bc
       0.11656826 0.10218267 0.0064718532 -0.020098686
000390 ec de d7 3d 3e 90 d0 3c d0 6a 6b bc 40 aa 69 3d
       0.10540566 0.025459405 -0.014368728 0.05704713
0003a0 9a c5 2f bd 10 80 56 bb 53 33 5d 3d e7 1d e3 3b
       -0.042913057 -0.003273014 0.054004025 0.006931055
0003b0 66 5f 8e 3a 89 b7 3d bd cc 46 02 be d3 0a 8b bd
       0.0010862171 -0.04631761 -0.1272232 -0.06789174
0003c0 51 d6 2b bd 96 14 28 3d ee f2 29 bd 9e 98 2c 3d
       -0.041952435 0.041035257 -0.04149144 0.042137735
0003d0 13 2a 5b 3d 06 8c fa 3c 1d f2 66 3c 62 39 f5 bb
       0.053506922 0.030584347 0.01409581 -0.007483647
0003e0 1e 53 cb 3d 70 ce 32 3d b7 21 59 b9 1a 5f 5d bd
       0.09927963 0.043653905 -0.00020707292 -0.054045774
0003f0 11 17 97 bc 52 8d 04 bd c7 d4 34 bd b9 3a cc bc
       -0.018443616 -0.032361336 -0.044148233 -0.024930345

action_model._discrete_distribution.branches.1.bias f4 [3]
000000 9e 0f 91 3d f5 25 b9 bc 39 98 4e bd
       0.07083057 -0.022601107 -0.05043814

action_model._discrete_distribution.branches.2.weight f4 [2, 256]
000000 c6 72 d7 3c f8 cb 95 3d 4e c4 4c 3d ef b8 55 3d
       0.026299845 0.073142946 0.0499919 0.05217832
000010 5a 65 b1 bb f6 46 e1 3c 66 eb b5 3d 93 0c d8 bc
       -0.0054136934 0.027499657 0.08882789 -0.026373183
000020 ce e4 d5 bb e3 04 b9 3b 8b 0b 99 3b 70 7b e1 bc
       -0.00652752 0.0056463345 0.0046705655 -0.02752468
000030 45 33 0d 3d 2a a3 00 bb 35 a3 0c bc 63 59 16 3d
       0.034472723 -0.0019628503 -0.008583833 0.03670634
000040 c9 da 88 3c a9 67 21 3c 43 6b 92 3b 78 1a 66 bc
       0.016705887 0.009851375 0.004468353 -0.014044397
000050 11 fe b2 bd fa ea 15 3d f2 ec b8 bd e1 b6 99 bc
       -0.087398656 0.036601044 -0.09029569 -0.018763961
000060 f4 8e a8 3b 8c e6 d3 bc d4 2b 4a 3d 20 b6 48 3c
       0.0051439945 -0.02586677 0.049358204 0.012250453
000070 91 54 12 3d 0f a5 5e bd 2a 83 48 bc cc ec 59 bc
       0.03572518 -0.05435663 -0.012238303 -0.013301086
000080 08 dd c3 bc db 7d 1d bd f4 3f 0c 3d dc 18 7b 3c
       -0.023909107 -0.038450103 0.034240678 0.015325751
000090 a0 3b cb bc 3a b7 fd bb a2 e3 08 3d 6a 42 b0 3c
       -0.024808705 -0.0077427896 0.033420213 0.021516044
0000a0 75 c5 dc bc 76 32 9a bd 1c 08 62 bc a8 21 8f 3d
       -0.026949624 -0.07529156 -0.013795879 0.06988841
0000b0 11 fe 80 3d 1a 8d f6 bc 14 da 15 3d 16 19 17 bd
       0.06298459 -0.03009658 0.03658493 -0.03688916
0000c0 5d b6 a7 bb 98 6c 72 3d cc c2 3e bd 39 9b 89 bc
       -0.005118175 0.059185594 -0.04657249 -0.016797649
0000d0 31 bc 8b 3c e0 86 02 3d 7b 85 10 3d c9 9c 5b bd
       0.01705751 0.031866908 0.035283547 -0.05361632
0000e0 da 77 53 bc e9 12 1a bd 9d c7 cd bd 19 ad 8a bd
       -0.012906993 -0.03761569 -0.10047839 -0.06771297
0000f0 5d 62 97 bc 29 a4 17 3d ea d6 08 3d e8 90 d5 bc
       -0.01847952 0.03702179 0.033408083 -0.026070073
000100 e6 45 3e 3d fd 55 9e bc 2a 22 d7 bc f3 33 79 3c
       0.04645338 -0.019328112 -0.026261408 0.01521014
000110 0e 0d 16 bd ae ce a8 3d 06 d0 b4 bc f8 70 52 bc
       -0.036633544 0.08242546 -0.02207185 -0.012844317
000120 e1 8b e2 bd a0 91 de bb 38 b0 f5 3c 1d ef 31 bd
       -0.11061836 -0.006792262 0.029991254 -0.043440927
000130 15 47 8c 3b a7 98 98 3d 05 58 36 3c ba 4b 40 bc
       0.0042809346 0.07450991 0.011129384 -0.011736805
000140 8f c7 8b 3d 9b b4 a6 3d 44 b2 ba bd 16 41 b3 bc
       0.06825172 0.081399165 -0.09116033 -0.021881621
000150 3a 3b b4 bb 02 d2 1b 3c 3c f0 fd 3b 96 3c 26 bc
       -0.0055002244 0.009510519 0.0077495854 -0.010146281
000160 2c eb 11 bd 58 7f 20 bd 0c 57 14 3c d4 2a 85 3d
       -0.035624668 -0.039183944 0.009053957 0.065023094
000170 44 1f 2c 3c cf ef 40 3c 12 5f 33 bd ea 3c fc 3c
       0.010505501 0.011775925 -0.043791838 0.030790765
000180 1f 64 29 bd cc 79 40 3d bd 2b 58 3d 3f 67 9d 3c
       -0.04135525 0.046991155 0.052776087 0.01921427
000190 b9 8d 80 bd 46 18 04 bc a7 0b 8a 3d a4 e7 bd 3d
       -0.062770315 -0.008062428 0.06740504 0.092726976
0001a0 25 a7 f8 bc 67 fe 11 3c 56 97 34 bd 46 dd 5a bd
       -0.030353138 0.008910752 -0.044089638 -0.05343368
0001b0 e6 a2 92 bc dd 09 20 3c 51 47 2b bd fa d9 df 3d
       -0.017899942 0.009767977 -0.04181606 0.109302476
0001c0 e9 f4 f1 3c 7e 7a 4c 3c 7b ae 0e 3d 78 d4 e6 3c
       0.029535728 0.012480376 0.034834366 0.028177485
0001d0 0a 68 27 3b b2 8f 8a bd e5 ef e4 3d 85 76 75 bd
       0.002554419 -0.06765689 0.11178569 -0.059927482
0001e0 f6 53 eb bc 0b 80 cc 3c 4c 2b 44 3d ee 51 e2 3c
       -0.02872656 0.0249634 0.047892854 0.027626958
0001f0 bb fc d1 bc 80 92 d5 ba d2 67 16 3c 0b 65 e0 bc
       -0.025633207 -0.0016294271 0.009180026 -0.027391931
000200 22 81 13 bd c7 d1 bf 3c 7f 2f 1b 3d 2e 8b 02 3d
       -0.036011823 0.02341546 0.037887093 0.031871013
000210 be 89 9a bd 0d fb 12 3c 2c 05 c2 bc 91 49 9e 3c
       -0.075458035 0.008970988 -0.023684107 0.019322189
000220 fe 7b 59 bc 7d 8a 55 3d 49 55 f5 bc fc 04 3f 3d
       -0.013274191 0.052134026 -0.029947894 0.046635613
000230 b0 ff 01 bd a3 98 63 3d 6d c8 dd 3c 92 fb 67 bd
       -0.031737983 0.055565488 0.02707311 -0.0566364
000240 77 15 5a 3c 95 cd e5 bc 8b a9 53 3d 5d 7f ba bc
       0.013310782 -0.02805213 0.05167536 -0.02276581
000250 02 b3 99 bc d6 88 77 bc f5 36 56 bd 96 b8 05 3e
       -0.018762115 -0.015108308 -0.052298505 0.13058695
000260 e1 42 44 bb e5 93 52 3d 1e c3 a2 3c 41 65 8d bd
       -0.002994709 0.051410574 0.01986843 -0.06904078
000270 b7 65 b1 3d ea a2 cc bb d5 2b 0d 3c 3d 2d f2 bc
       0.08661979 -0.006245007 0.008616407 -0.029562587
000280 3c c5 4e bd 27 36 a8 38 e3 04 49 bb 62 d7 95 bc
       -0.050481066 8.020951e-05 -0.0030673079 -0.01829118
000290 d4 b0 95 bc e9 24 9e 3d e8 98 b8 bd a2 c2 63 3a
       -0.018272795 0.07721884 -0.090135396 0.00086883653
0002a0 dc 0f 24 bd cc 55 7a 3c cb 8a b2 3d b2 06 a5 3d
       -0.040054187 0.015279245 0.08717879 0.08057918
0002b0 41 66 59 bc 4d 1b 97 3c 6a 89 70 bd 42 a6 01 bb
       -0.013269008 0.018445635 -0.0587248 -0.0019782935
0002c0 60 12 53 bc 5b ef bc 3c 24 b0 e8 3b 86 db ab bc
       -0.012882799 0.023063352 0.0071010757 -0.0209787
0002d0 87 2e c6 3c f1 3b 23 3e 39 cd 78 3d a8 f4 29 3d
       0.024192108 0.15940835 0.06074259 0.041493088
0002e0 e0 3c 65 3c af 6a 34 3e 21 78 52 3d c6 48 9d 3d
       0.0139915645 0.17618822 0.051384095 0.07679896
0002f0 ce 65 e7 3b a3 c8 37 ba bf 81 9d 3b 04 19 b9 3c
       0.0070616966 -0.0007010793 0.0048067267 0.022594936
000300 07 d6 65 3c db 36 47 3c 38 d5 5f 3d 1d 1f c4 3c
       0.014028079 0.012159075 0.0546467 0.023940617
000310 cd 55 8e bd f5 03 a8 bc 78 56 79 3d 07 47 0a 3d
       -0.06949959 -0.0205097 0.06087348 0.033759143
000320 67 31 1e 3d cb 09 db bc 9c f2 a9 3d cf 3e d6 bc
       0.038621332 -0.026738068 0.08298227 -0.026152996
000330 2e 48 a1 3d e4 af b6 bd 00 48 4a 3c 60 f4 46 3c
       0.07875095 -0.08920267 0.012346268 0.0121432245
000340 64 b7 06 bd 58 07 2b bd 8e 20 ba 3d ee 5c b8 3d
       -0.03288974 -0.04175505 0.090882406 0.090021
000350 10 57 f3 bc 2e 38 59 bd b0 09 a3 bd 50 cd 75 3d
       -0.0297046 -0.053032093 -0.07960832 0.060010254
000360 a7 23 1e 3b bb b6 c4 3d 4c 88 28 3d ac 2d 9e bd
       0.0024130137 0.096051656 0.041145608 -0.07723555
000370 e4 13 ab bd 34 fd 17 bc 57 ba ea bc eb dc 44 3d
       -0.08353403 -0.009276677 -0.028653307 0.048062246
000380 d8 d0 cd 3c 48 62 a2 3a ce a9 1c 3b 12 91 88 bb
       0.025123999 0.0012388909 0.0023904922 -0.0041676844
000390 9d 79 6d bd ba 74 5b bb 15 96 8d 3d 7e ed 8d 3d
       -0.057977308 -0.0033486322 0.069133915 0.06930064
0003a0 04 60 34 bd 6f fc 2b 3e a9 40 03 3d 4f 6c 7a 3d
       -0.04403688 0.16795515 0.032044087 0.061138447
0003b0 10 78 76 3d 97 5b 49 bb 5e f3 9e bc e1 79 88 3d
       0.060173094 -0.0030724758 -0.019403156 0.066638716
0003c0 52 09 2e 3d 15 34 a1 3c e5 fa b7 bc 30 be f0 bd
       0.042489357 0.019678155 -0.022458503 -0.117550254
0003d0 49 84 a0 3c 84 71 b2 bc b4 fc 10 bc 60 45 ff 3d
       0.019594328 -0.021782644 -0.008849312 0.12464404
0003e0 15 3b 46 bd cc e0 c2 3c 24 73 60 3d 6e 8e a2 3c
       -0.04839619 0.023788832 0.054797307 0.019843306
0003f0 f9 67 fd 3c da 62 96 3d 61 7f 3e 3d 78 e6 51 3d
       0.030933367 0.07343073 0.046508197 0.051245183

action_model._discrete_distribution.branches.2.bias f4 [2]
000000 58 7c 2d bd 54 7c 2d 3d
       -0.04235491 0.042354897
